Portfolio-Projects/CodeMiner-AI/python_brain.pth (torch, 471634 bytes, 7 tensors)

embedding.weight f4 [92, 64]
0	0xbf811e2d	-1.0087334
1	0x3e41c03a	0.18920985
2	0xbf246687	-0.64218944
3	0x3f8f3402	1.1187747
4	0x3f985c58	1.1903181
5	0x3f21e527	0.63240284
6	0xbeeea91c	-0.46613395
7	0x4001f470	2.0305443
8	0xbf6e5c6b	-0.9310977
9	0xc06f6af6	-3.7409034
10	0x3eff9f47	0.49926206
11	0xbfb18ce3	-1.387112
12	0x3f6d1db0	0.92623425
13	0xc008b661	-2.1361315
14	0xbe80d12a	-0.2515958
15	0x3ebd017f	0.36915204
16	0x3e11f607	0.14254008
17	0x3ea41d46	0.32053584
18	0xbea144ad	-0.31497708
19	0xbf3100e9	-0.69142014
20	0xbf95aca7	-1.1693314
21	0xbfa9ee9d	-1.3275944
22	0x3eae7dc3	0.34080324
23	0x3e8581c8	0.26075578
24	0xbf6e7cc3	-0.9315912
25	0x3f3a6fae	0.7282666
26	0x3f396ab1	0.72428423
27	0x3ef9d822	0.4879771
28	0x3f9bd880	1.2175446
29	0xbef63dbf	-0.48093984
30	0x3fff8cb5	1.9964815
31	0x3f24d0cd	0.64381105
32	0x3f915cf9	1.1356498
33	0xbeae19eb	-0.3400415
34	0xbecf4bcc	-0.40487516
35	0xbf13956e	-0.57649887
36	0x3cb8b1ba	0.022545684
37	0x400d522f	2.208141
38	0xc0080680	-2.1253967
39	0xbfb6e10a	-1.4287426
40	0x3faa9cd4	1.332911
41	0x3f66fefe	0.9023284
42	0xbfaa077d	-1.3283535
43	0xbfc663a9	-1.5499164
44	0xbf2527f2	-0.64514077
45	0x3f3e6ff6	0.7438959
46	0x3f02c807	0.5108647
47	0x3f82f5e1	1.0231286
48	0x3f950ebf	1.1645125
49	0xbed0ae64	-0.4075805
50	0xc02cf69d	-2.702552
51	0xc0078461	-2.1174548
52	0x404764f3	3.1155365
53	0xbe6533c1	-0.22383024
54	0x3d56a8e9	0.05240718
55	0xbe99d896	-0.30048054
56	0xbe40178a	-0.1875898
57	0x3f1af01b	0.6052262
58	0xbfd6390e	-1.6736162
59	0xbf44e1f3	-0.7690727
60	0xbc9ea0ba	-0.01936375
61	0x3fa34bee	1.2757547
62	0x3f962586	1.1730201
63	0x3f47a46a	0.7798525
64	0xbf059bb9	-0.5219074
65	0x3eb733a2	0.3578158
66	0x401858aa	2.3804116
67	0x3ed7bfb6	0.4213845
68	0xbeed4160	-0.4633894
69	0xbfba379b	-1.454822
70	0xbe49cf5d	-0.19708009
71	0x3f8f7379	1.1207114
72	0x3fe8d0b9	1.8188697
73	0xbfa3cfc4	-1.279778
74	0xbeb1d97c	-0.3473624
75	0xbf73e8a3	-0.9527685
76	0xbea18e0a	-0.3155368
77	0x3ede9a91	0.434773
78	0x3fc46f0a	1.5346386
79	0xbef501f6	-0.4785306
80	0x3f2ebe42	0.6825906
81	0x3fc4242d	1.532354
82	0xbf287739	-0.6580692
83	0xbe36e4d9	-0.17860736
84	0x3e59c9f2	0.21268442
85	0x3fa4f455	1.2887064
86	0xbf9cc9c8	-1.2249079
87	0xbe062dc5	-0.13103397
88	0x3f55d45c	0.8352716
89	0x3f4e2d6c	0.8053806
90	0xbf827be3	-1.0194057
91	0xbec289ab	-0.37995657
92	0x40400730	3.0004387
93	0x3f3edab6	0.74552476
94	0x3f3e0c4f	0.7423753
95	0x3e2d0421	0.16896106
96	0x3fc36364	1.5264707
97	0x3f02feb6	0.5116991
98	0xbfb3563e	-1.4010694
99	0x3feb0780	1.8361664
100	0xc037ff06	-2.8749404
101	0x3e8b3ec8	0.27196336
102	0xbed37225	-0.41298023
103	0xbe213ddd	-0.15746255
104	0x3ce51e41	0.027968528
105	0x3dcaf3e2	0.09909798
106	0x3d993aa4	0.07481888
107	0xbde7cb43	-0.11318066
108	0xbfe9e8fc	-1.8274226
109	0x400b7cab	2.1794841
110	0x3ea03453	0.3128992
111	0x3f4c97d6	0.79919183
112	0xbf1ea6a9	-0.61973053
113	0x3f40178d	0.75035936
114	0x3f5a7614	0.8533642
115	0x40005daf	2.005718
116	0xbec58511	-0.38578084
117	0xbf2a1f85	-0.66454345
118	0xbf8f52be	-1.1197126
119	0x3f8e70b5	1.1128145
120	0x3fb5a31b	1.4190401
121	0xbfa4aa1a	-1.2864411
122	0x3ed094a3	0.407384
123	0x3f3e41ad	0.74318963
124	0xbfb0c157	-1.3809003
125	0xbfa9a077	-1.3252095
126	0x3fb33385	1.4000098
127	0x3eb34837	0.35016033
128	0xbf8d3c83	-1.1034092
129	0x3e7813ac	0.24226254
130	0xc00dc5c4	-2.2151957
131	0xbf47291b	-0.77797097
132	0x3f6edee6	0.93308866
133	0x3f0fb332	0.56132805
134	0xbf4a4359	-0.79009014
135	0x3f58bf04	0.84666467
136	0x3f4ab18e	0.79177177
137	0x3f909e89	1.1298381
138	0x3f66dfa3	0.9018499
139	0xbee7b00f	-0.4525151
140	0x3e270a49	0.16312517
141	0xbf673462	-0.90314305
142	0xc015acbe	-2.3386683
143	0xbd69aada	-0.057047702
144	0x3f56aea5	0.83860236
145	0x3f05cd85	0.5226672
146	0x40349ec9	2.8221915
147	0xbf854b3e	-1.0413587
148	0xbfc3380f	-1.5251483
149	0x3fba0f21	1.4535867
150	0x3f3fc20e	0.7490548
151	0xbf509123	-0.8147146
152	0xbf451188	-0.76979876
153	0x3df2f2b8	0.11862701
154	0x3f1cb632	0.6121551
155	0x3f93d7d5	1.1550242
156	0xbfd2150d	-1.6412674
157	0xbf329588	-0.69759417
158	0xbe1176da	-0.14205495
159	0x3fffee84	1.9994664
160	0xbf5c4c69	-0.8605409
161	0x3e97d5bc	0.29655254
162	0xbf0d6639	-0.55234104
163	0x3ff97136	1.9487674
164	0xbd91c6fa	-0.0711803
165	0x3d80d430	0.062904716
166	0x3dd88a92	0.10573305
167	0xbe848b3d	-0.2588748
168	0xc05fc610	-3.4964638
169	0xbf3fa329	-0.7485834
170	0xbf5afd2e	-0.8554257
171	0xbe954e12	-0.29161125
172	0x3f761c33	0.9613678
173	0x3f46b2a9	0.77616364
174	0xbee92a5d	-0.45540133
175	0x3d5f2d48	0.054486543
176	0x3e8e10b9	0.27747133
177	0x405be5c1	3.435898
178	0x3f888b35	1.0667483
179	0xbf96b0b6	-1.1772678
180	0x3f9d2c15	1.2279078
181	0xbe336cb0	-0.1752193
182	0xbfd7409c	-1.6816592
183	0x3f1be3cc	0.60894465
184	0x40093c93	2.1443222
185	0xbea4dbb5	-0.32198873
186	0x3f9ac835	1.2092348
187	0x4058e4c7	3.3889635
188	0xbfed7d80	-1.8553925
189	0x3e85eee4	0.26158822
190	0x3fec46fe	1.8459165
191	0xbfcd6d2b	-1.604894
192	0x3f21f01e	0.63257015
193	0x401b1b5b	2.4235446
194	0x3f6fdcb5	0.9369615
195	0xbfc52664	-1.5402341
196	0xbf237308	-0.638474
197	0x3fc4a446	1.5362632
198	0x3de9bf6d	0.11413465
199	0x3dc4a0f2	0.096010104
200	0x3e8704c1	0.26370814
201	0x3df38c21	0.11891962
202	0x3d6126e3	0.054968726
203	0x3fba5551	1.4557287
204	0x403aea2c	2.9205427
205	0x3e8ccb4f	0.27498862
206	0x3e5d4d45	0.21611507
207	0x3eef881e	0.46783537
208	0x3f303f90	0.6884699
209	0x3f702415	0.93805057
210	0xbf074c75	-0.5285104
211	0xbd19a1b4	-0.037507728
212	0xc02554e1	-2.5833056
213	0xbf388d28	-0.7209039
214	0x3e812996	0.2522704
215	0xbf0c9f11	-0.54930216
216	0xbee2c8d5	-0.44293848
217	0xbf83245e	-1.0245473
218	0xc023138d	-2.5480683
219	0x3f8e8830	1.1135311
220	0x3fbfc2e6	1.4981353
221	0xbe55bdcc	-0.20873183
222	0xbfd28249	-1.644601
223	0xbfe99884	-1.8249669
224	0x3fa4e4b6	1.2882297
225	0x3f214b3b	0.6300542
226	0xbedb1346	-0.42788142
227	0xbf9188ba	-1.1369851
228	0xbf2fd8ef	-0.6869039
229	0xbf1c50c5	-0.61060745
230	0x3fbe0140	1.4844131
231	0xbfcb609c	-1.5888858
232	0xc011b8b8	-2.2768993
233	0xbfb8885c	-1.4416614
234	0x3d63a729	0.05557934
235	0xbeb797fb	-0.3585814
236	0x3faba3b1	1.340933
237	0xbf994d49	-1.197671
238	0x3fef0d70	1.8675976
239	0xbe1ca2a5	-0.15296419
240	0xbe54eef8	-0.20794284
241	0xbfad8024	-1.355473
242	0xbf43b171	-0.7644263
243	0x3ffb82c9	1.9649287
244	0x3f0cc324	0.5498526
245	0x3f2cae84	0.6745379
246	0xbfce68fe	-1.6125791
247	0x3b1456f5	0.0022634838
248	0x3fac004a	1.3437588
249	0x3fa1ad66	1.2631042
250	0x3ea41842	0.32049757
251	0x3f308283	0.68949145
252	0x3eae5dee	0.34056038
253	0xc008c661	-2.137108
254	0xbf867def	-1.0507182
255	0xbf623e96	-0.8837675

lstm.weight_ih_l0 f4 [512, 64]
0	0xbd6f8e1d	-0.05848514
1	0xbdf6ba90	-0.12047303
2	0x3d8ead61	0.06966663
3	0x3d4d1fc8	0.050079137
4	0xbe81819c	-0.25294197
5	0x3cd4775d	0.025935823
6	0x3d31993b	0.043359023
7	0x3c84dc30	0.016218275
8	0xbd1f375e	-0.03887116
9	0x3e54bbe8	0.20774806
10	0x3e463b1c	0.19358486
11	0x3d8f9d18	0.07012385
12	0xbd738dd3	-0.059461426
13	0x3e00d953	0.12582903
14	0xbcc220ae	-0.023697224
15	0xbe7700f1	-0.24121453
16	0x3e610cab	0.21977489
17	0x3de10266	0.109867856
18	0x3de255f4	0.110515505
19	0x3d7019ea	0.058618464
20	0xbd9e48b8	-0.07728714
21	0xbe451d7e	-0.19249532
22	0xbcd39b76	-0.025830965
23	0x3d92077a	0.07130332
24	0x3e0155fd	0.12630458
25	0xbe62406c	-0.22094887
26	0xbd17c2a3	-0.037050854
27	0xbb99ba1d	-0.004691376
28	0xbced21bf	-0.028946755
29	0xbe337768	-0.17526019
30	0x3caf834c	0.021424912
31	0xbdd63f1f	-0.10461258
32	0xbdd653aa	-0.104651764
33	0xbc3cd69d	-0.011525777
34	0x3db891b9	0.090121694
35	0xbdc5115c	-0.09622452
36	0x3d0801ba	0.03320477
37	0xbda5354c	-0.08066806
38	0xbd4fd559	-0.050740574
39	0xbc109e8b	-0.008826862
40	0x3e1e1671	0.15438248
41	0xbddb4669	-0.10706789
42	0x3d7f27b6	0.06229373
43	0xbba48f2a	-0.0050219493
44	0xbd98dce8	-0.074640095
45	0xbc361bc2	-0.011115016
46	0x3dab88c0	0.08375692
47	0xbdc31d82	-0.095271125
48	0xbe0ce8d4	-0.13760692
49	0xbe05fd27	-0.13084851
50	0x3db32b7c	0.08748528
51	0x3e02fc76	0.12791619
52	0x3df5bff2	0.11999501
53	0x3d30eb84	0.043193355
54	0x3d451df7	0.04812428
55	0x3e3da049	0.18518175
56	0x3d790248	0.06079319
57	0x3d9b7043	0.075897716
58	0xbe3db7eb	-0.1852719
59	0xbda52191	-0.08063043
60	0x3ca17e6d	0.019713605
61	0x3d934239	0.07190365
62	0xbcb427a5	-0.02199156
63	0xbe15a562	-0.1461387
64	0xbdfec759	-0.12440366
65	0xbe07f63d	-0.13277526
66	0xbe4db53b	-0.20088665
67	0xbe67fe30	-0.22655559
68	0x3e12d795	0.1434005
69	0x3d20d7d2	0.039268322
70	0xbc80701e	-0.015678462
71	0xbdcfadd0	-0.10140574
72	0xbeac5400	-0.33657837
73	0x3d92283b	0.071365796
74	0x3d814615	0.06312195
75	0x3d788921	0.06067765
76	0x3e23dd3f	0.16002367
77	0xbd2742a4	-0.040835038
78	0xbe331041	-0.17486669
79	0xbdf6fb34	-0.12059632
80	0xbdfefe0a	-0.12450798
81	0xbdf18b1f	-0.11794113
82	0x3dfc4f6a	0.123198345
83	0xbdc41346	-0.095739886
84	0xbda2c6fa	-0.07948108
85	0xbce40ec5	-0.027839074
86	0x3c8732dc	0.016503744
87	0xbd46b809	-0.048515353
88	0xbeaaf1e6	-0.3338768
89	0xbcce8923	-0.025211876
90	0x38e892f8	0.00011089997
91	0x3e31fbb1	0.17381169
92	0xbda21a4a	-0.079151705
93	0x3dd2d07a	0.1029367
94	0x3d87f582	0.06638624
95	0xbeb45d11	-0.35227254
96	0xbd2f37ab	-0.0427777
97	0x3d817de9	0.063228436
98	0x3dc89112	0.09793295
99	0xbd6769d8	-0.056497425
100	0x3df65012	0.12026991
101	0xbd2d935d	-0.042376865
102	0x3e3a9c2e	0.1822364
103	0xbe817b3f	-0.25289342
104	0xbe307c70	-0.17234969
105	0xbe5d66c7	-0.21621238
106	0x3e9bfc4e	0.3046593
107	0xbda3ab6d	-0.07991681
108	0x3d4f7ea7	0.050657894
109	0xbd1f5116	-0.03889569
110	0xbe16e37e	-0.14735219
111	0xbd8b75ce	-0.06809579
112	0x3e444acb	0.19169156
113	0xbe8ae12a	-0.27124912
114	0xbe82d15e	-0.2555036
115	0xbde95d62	-0.113947645
116	0x3d9e041d	0.07715628
117	0x3d74ba2d	0.059747864
118	0xbccc8d28	-0.024969652
119	0xbe854197	-0.26026604
120	0xbdd2a216	-0.10284822
121	0x3e35d4d8	0.17756975
122	0x3c333776	0.010938516
123	0xbe90b0e8	-0.2825997
124	0x3eb73a28	0.35786557
125	0x3d8664bd	0.06562183
126	0xbe8f0984	-0.27936947
127	0x3c15fef3	0.009155023
128	0xbe20c476	-0.15699944
129	0xbd30adf3	-0.04313464
130	0x3ced6350	0.02897802
131	0xbc8f80df	-0.017517505
132	0x3db62986	0.08894639
133	0x3cf58a25	0.029973099
134	0xbe4ac2c3	-0.19800858
135	0x3ca6e655	0.020373503
136	0x3d8cd80c	0.06877145
137	0xbdde41eb	-0.108524166
138	0x3e048df8	0.12944782
139	0xbdd526d0	-0.104077935
140	0xbd8abeb2	-0.067746535
141	0x3dff4cab	0.12465795
142	0x3d49056b	0.049077433
143	0x3d84c294	0.06482425
144	0x3e2ec8e8	0.17068827
145	0xbd2aa6ad	-0.04166286
146	0xbd11292d	-0.03543966
147	0xbe9f2e39	-0.31089953
148	0x3e4ce5f5	0.20009597
149	0x3e16c848	0.14724839
150	0x3d732433	0.059360694
151	0xbe4049c0	-0.18778133
152	0x3cede6bf	0.029040692
153	0xbda4ed34	-0.080530554
154	0xbdd22407	-0.10260778
155	0x3cf36230	0.029709905
156	0x3dfe10a8	0.12405521
157	0x3da876c2	0.08225776
158	0x3e4b5996	0.19858393
159	0x3f3ff200	0.7497864
160	0x3e25bfcc	0.16186446
161	0x3e1f8b73	0.1558054
162	0xbde28a70	-0.11061561
163	0xbb598092	-0.0033188206
164	0xbdd88eb8	-0.105740964
165	0xbd12e322	-0.035861142
166	0xbded063f	-0.11573457
167	0x3cd7262a	0.026263315
168	0xbe5d6a5f	-0.21622609
169	0xbdcb84c6	-0.09937434
170	0xbc221f30	-0.009895131
171	0xbc904969	-0.01761313
172	0xbd861a05	-0.065479316
173	0x3d552935	0.05204125
174	0xbdbaa103	-0.09112742
175	0x3d4e821b	0.050417047
176	0xbd416e65	-0.04722442
177	0xbdd38380	-0.10327816
178	0x3e207820	0.15670824
179	0x3daf4222	0.08557536
180	0x3e17c600	0.14821625
181	0xbe28eb20	-0.16495943
182	0xbe33bb12	-0.1755183
183	0x3c83653a	0.01603948
184	0x3c801c45	0.01563848
185	0xbd9d1f6e	-0.0767201
186	0x3db2c0a6	0.08728151
187	0x3dadb2a6	0.0848134
188	0xbc30e368	-0.010796405
189	0xbcda07f8	-0.026615128
190	0x3e1a02be	0.15040109
191	0x3e9ea706	0.30986804
192	0xbdce4b00	-0.10072899
193	0xbd00df02	-0.031462677
194	0x3df982fc	0.121831864
195	0xbca72743	-0.020404464
196	0xbd5f2528	-0.054478794
197	0x3c438b89	0.011935123
198	0xbd3a8c8d	-0.045544196
199	0x3d8547aa	0.065078095
200	0x3c998144	0.018738396
201	0x3c9ccd1b	0.01914077
202	0xbd035a15	-0.03206833
203	0x3c99ccc7	0.018774403
204	0x3d50a192	0.050935335
205	0xbe2beb40	-0.1678896
206	0x3e0a7974	0.13522893
207	0x3b354315	0.0027658392
208	0x3cb1cd15	0.021704236
209	0x3d5e50aa	0.054276146
210	0x3cd83088	0.026390329
211	0x3bf4efbd	0.007474868
212	0x3d82728a	0.06369503
213	0x3da22b0d	0.079183675
214	0x3ce017f5	0.027355174
215	0xbc111de6	-0.008857226
216	0x3de8239d	0.11334918
217	0x3ce78c1c	0.028265052
218	0xbcd7510a	-0.02628376
219	0xbc8b6995	-0.017018119
220	0x3d3948ea	0.045235552
221	0x3d9469e5	0.0724676
222	0x3d874173	0.0660428
223	0x3dc280cd	0.09497223
224	0x3e0e3de7	0.13890801
225	0x3c022a73	0.007944691
226	0x3cba440d	0.022737527
227	0x3dba09ad	0.09083877
228	0xbcd99928	-0.026562288
229	0x3d4ab78c	0.04949145
230	0xbe1979c0	-0.1498785
231	0xbde707b4	-0.11280766
232	0x3e1bcf1e	0.15215728
233	0x3dc8a7c5	0.097976245
234	0xbd4b8a39	-0.049692366
235	0xbbeb5f60	-0.0071830004
236	0xbd8c107b	-0.06839081
237	0x3e026cc3	0.12736802
238	0x3d07f646	0.03319385
239	0x3d9da937	0.07698291
240	0xbc59af62	-0.013286443
241	0x3d33e8e1	0.043923263
242	0xbddf726e	-0.109104976
243	0x3dc270da	0.09494181
244	0x3e17a313	0.14808302
245	0xbd636e80	-0.055525303
246	0xbdd7fc11	-0.10546125
247	0x3de66289	0.11249263
248	0xbca41cb2	-0.020033214
249	0xbcbb4c1e	-0.022863444
250	0xbd19d8b7	-0.03756019
251	0xbced18cf	-0.028942494
252	0xbda621a0	-0.08111882
253	0xbd6c5990	-0.0577026
254	0x3d40a02d	0.047027756
255	0x3be2e172	0.006923848

lstm.weight_hh_l0 f4 [512, 128]
0	0x3dfb1cd3	0.12261357
1	0x3dc0fd31	0.094232924
2	0x3e4b8b3a	0.1987733
3	0xbe23cbb4	-0.15995675
4	0xbf028e3f	-0.509983
5	0xbe91ba69	-0.28462532
6	0xbe385ce4	-0.18004185
7	0x3f022e00	0.5085144
8	0xbc85b2c0	-0.016320586
9	0x3ed2ad29	0.41147736
10	0x3e3d8118	0.18506277
11	0x3e86ae62	0.2630492
12	0x3d4af806	0.04955294
13	0xbf1dea14	-0.616853
14	0xbeb5e2a4	-0.35524476
15	0x3e871bcd	0.26388398
16	0x3eb25b51	0.34835294
17	0x3ec1435e	0.3774671
18	0xbe9515d2	-0.2911821
19	0x3f108b26	0.56462324
20	0x3ea0b676	0.31389207
21	0xbdcb9b1c	-0.09941694
22	0x3d34a648	0.04410389
23	0xbb871f81	-0.0041236286
24	0xbea826f5	-0.32842222
25	0x3debb387	0.115088515
26	0x3c9ac512	0.018892799
27	0x3ea76b12	0.32698876
28	0xbc6cfb61	-0.01446423
29	0x3dea6ae1	0.11446167
30	0x3e40c017	0.18823276
31	0xbe3d8420	-0.18507433
32	0xbe8b1fee	-0.27172798
33	0x3d81210d	0.06305132
34	0x3e68a8c8	0.22720635
35	0xbbd3bd20	-0.0064617544
36	0x3f186dad	0.5954235
37	0xbeb2aa16	-0.3489539
38	0xbf1427d3	-0.57873267
39	0x3de16f89	0.11007602
40	0x3f15f8b1	0.585826
41	0x3c69c0cb	0.014267157
42	0xbec2664e	-0.37968677
43	0xbc545893	-0.012960571
44	0x3e98b6bc	0.29826915
45	0xbc875cd7	-0.016523762
46	0x3e95f92d	0.2929167
47	0xbe378ed8	-0.17925584
48	0xbe3cb164	-0.18427044
49	0xbe1ac40d	-0.1511385
50	0xbe527470	-0.2055223
51	0x3e0c75ea	0.13716856
52	0xbe3b4a2f	-0.18290018
53	0xbec3b234	-0.38221896
54	0xbd727fba	-0.05920384
55	0x3e9c316b	0.30506453
56	0xbd800413	-0.06250777
57	0x3e361d2b	0.17784564
58	0xbd6733d5	-0.056445915
59	0x3cb47c20	0.022031844
60	0x3e2a0dde	0.16606852
61	0xbd7aa5b0	-0.06119317
62	0x3f0b4575	0.5440286
63	0x3de27de1	0.11059166
64	0xbdc6703f	-0.09689378
65	0x3edf0168	0.4355576
66	0x3de08968	0.10963708
67	0xbe11b6ad	-0.14229842
68	0x3f1503f7	0.58209175
69	0xbe87d5ab	-0.26530203
70	0xbe4d8b1b	-0.20072596
71	0x3e2aed4b	0.16692083
72	0x3f07e27b	0.53079957
73	0xbe4d5344	-0.20051295
74	0xbe4fbbae	-0.20286438
75	0x3dd5ba83	0.10435965
76	0x3e023ede	0.12719294
77	0xbf50b8b2	-0.8153182
78	0x3dc82b65	0.09773902
79	0x3ea68d45	0.32529655
80	0x3d2fe4e3	0.042942893
81	0xbd93fbc0	-0.07225752
82	0x3e650ec2	0.22368911
83	0xbe4c3880	-0.19943428
84	0xbead665e	-0.33867162
85	0x3f16bcc0	0.5888176
86	0x3e83d890	0.25751162
87	0x3ce66ba4	0.028127499
88	0x3e4b1cf2	0.1983526
89	0x3e5c4394	0.21510154
90	0x3e3f19ed	0.18662234
91	0xba49c972	-0.0007697559
92	0x3f0a5cb8	0.5404773
93	0xbe821ad3	-0.2541109
94	0x3e89f08e	0.2694134
95	0x3d692d16	0.056927763
96	0xbe04baa6	-0.12961826
97	0xbe41e04a	-0.18933216
98	0x3e35c692	0.1775153
99	0x3e3d32bd	0.18476386
100	0x3d0c055e	0.034184806
101	0x3e4cea43	0.20011239
102	0xbe2d0837	-0.16897665
103	0x3dd03e90	0.10168183
104	0xbe087d70	-0.133291
105	0xbe066533	-0.13124542
106	0x3ec68952	0.38776642
107	0x3e5d1ed7	0.21593796
108	0xbde363b9	-0.11103005
109	0x3dbe4b29	0.092916794
110	0x3a1aaa12	0.0005899976
111	0x3eb26787	0.3484461
112	0xbdca14d0	-0.09867251
113	0xbe7d9e19	-0.2476734
114	0xbf3921bb	-0.72317094
115	0x3edb9def	0.4289393
116	0xbe126423	-0.14296012
117	0xbe5b03c0	-0.2138815
118	0x3e62409e	0.22094962
119	0x3d9322ae	0.07184349
120	0xbdaf5869	-0.08561785
121	0xbe92ceab	-0.286733
122	0xbe0bfd43	-0.1367083
123	0xbe2bf170	-0.1679132
124	0xbe2868e1	-0.16446258
125	0x3e7bbe1b	0.24584238
126	0xbe66637f	-0.22498892
127	0x3e6a05eb	0.2285382
128	0xbed5d43b	-0.41763481
129	0xbf58d45c	-0.84699035
130	0x3e35f20e	0.17768118
131	0xbd4ec166	-0.050477408
132	0xbe39e736	-0.18154606
133	0xbbc4464f	-0.0059898268
134	0x3e2a151b	0.16609614
135	0xbd6fcee2	-0.05854691
136	0xbda62b78	-0.0811376
137	0x3d876001	0.06610108
138	0x3e20ab74	0.15690404
139	0x3e24f4ae	0.16108963
140	0xbdcbb890	-0.09947312
141	0xbec959d2	-0.3932634
142	0xbebefc2b	-0.37301764
143	0xbe36eede	-0.17864558
144	0xbd26a9d4	-0.040689304
145	0xbd6b8e39	-0.05750868
146	0x3bcee6b5	0.0063141235
147	0xbd7724f9	-0.060337994
148	0x3e97279e	0.29522413
149	0xbde332bf	-0.110936634
150	0x3de9b95d	0.11412308
151	0x3e111f8d	0.14172192
152	0xbdcfd937	-0.10148852
153	0x3db605f2	0.08887853
154	0x3e6b5444	0.22981364
155	0x3df4a12d	0.11944804
156	0xbdc51086	-0.09622292
157	0x3ef0dd38	0.47043777
158	0x3e8430e8	0.25818563
159	0xbda0c156	-0.07849376
160	0xbe1daa09	-0.15396895
161	0x3e2fc99c	0.17166752
162	0xbc510548	-0.012757607
163	0xbdc9eac8	-0.09859234
164	0x3e76d7ac	0.2410571
165	0x3c04b6b3	0.0081001995
166	0x3a9dcfaa	0.0012040038
167	0x3e1ed225	0.15509851
168	0x3e15f861	0.1464553
169	0x3dacdc47	0.08440452
170	0xbebdbb35	-0.3705689
171	0x3d43927e	0.047747128
172	0x3dd7d325	0.105383195
173	0xbe09363f	-0.133996
174	0x3d356b90	0.044292033
175	0xbe9573ce	-0.29189914
176	0xbcca5f6a	-0.0247037
177	0xbd89893b	-0.06715628
178	0xbe83be3a	-0.2573107
179	0x3e3a9117	0.1821941
180	0xbe3781dc	-0.17920631
181	0xbde5209a	-0.11187859
182	0xbe2181dd	-0.15772195
183	0x3e73444f	0.23756526
184	0x3c8ddfd0	0.017318636
185	0x3e1036c4	0.14083391
186	0xbe2c1d11	-0.16807963
187	0x3d15caaf	0.036570247
188	0xbd8b88da	-0.06813212
189	0x3e155d6f	0.14586423
190	0x3d6a772d	0.05724256
191	0xbdded71a	-0.10880871
192	0xbd665f3d	-0.05624317
193	0x3c855e0b	0.016280195
194	0x39ae4063	0.00033235838
195	0xbe13a4a3	-0.14418273
196	0x3e72a502	0.23695758
197	0xbdf95df9	-0.12176127
198	0xbe4ab259	-0.19794597
199	0x3e24f7fe	0.16110227
200	0x3ec7cf55	0.3902537
201	0xbe445b14	-0.19175369
202	0x3e8be780	0.27325058
203	0x3e0f5f1a	0.14001122
204	0x3d81273d	0.06306312
205	0xbf51b00b	-0.81909245
206	0x3e617ef4	0.22021085
207	0x3efb41b5	0.49073568
208	0x3c7cb228	0.015423335
209	0xbe61252f	-0.2198684
210	0x3cbedd08	0.023298755
211	0xbbdf00f2	-0.0068055326
212	0xbbba65dd	-0.0056884126
213	0x3d3fbd05	0.046811122
214	0xbe7a91c0	-0.24469662
215	0x3d77998c	0.060449168
216	0xbe2077c8	-0.15670693
217	0x3e835120	0.2564783
218	0xbe36a0bc	-0.17834753
219	0xbddb2e97	-0.10702246
220	0x3d7fdfc1	0.062469248
221	0xbe898130	-0.26856375
222	0x3d86e2b2	0.065862074
223	0xbcc2439a	-0.023713876
224	0xbe340451	-0.17579772
225	0xbdc8f83b	-0.09812971
226	0xbc6659ba	-0.014059478
227	0x3e3b76db	0.18307059
228	0xbdc21fba	-0.094787076
229	0x3e53c6d6	0.20681319
230	0xbd3b60cd	-0.045746613
231	0x3cd22b2e	0.025655355
232	0xbdc1919b	-0.094516
233	0x3dd16e88	0.1022616
234	0x3e0de12e	0.1385543
235	0x3d1aafb4	0.03776522
236	0xbeaba907	-0.33527395
237	0x3dd40e23	0.10354259
238	0xbf3c5098	-0.73560476
239	0xbeb60fb7	-0.35558864
240	0xbe338ab1	-0.17533375
241	0x3da309fd	0.079608895
242	0x3d2bed6f	0.04197448
243	0x3ecc4329	0.3989499
244	0xbe564edc	-0.2092852
245	0xbe563b4d	-0.20921059
246	0xbe1dddc3	-0.15416627
247	0xbf121f43	-0.5707895
248	0x3e419f78	0.18908489
249	0xbe0d436b	-0.13795249
250	0xbd83e670	-0.06440437
251	0x3e08cddc	0.13359779
252	0xbd9b96ae	-0.07597099
253	0xbf0714b6	-0.5276598
254	0xbe15f921	-0.14645816
255	0xbe527a68	-0.20554507

lstm.bias_ih_l0 f4 [512]
0	0x3c0c70e7	0.00857184
1	0x3e30c548	0.17262757
2	0x3db3b91a	0.0877554
3	0x3da793bf	0.08182477
4	0xbb99c82e	-0.0046930527
5	0x3d8d01f7	0.068851404
6	0x3dd480f6	0.1037616
7	0x3e3d854e	0.18507883
8	0x3cbb9c4d	0.022901678
9	0x3e144b3c	0.14481825
10	0x3bef44d3	0.0073019057
11	0x3ca1d7a0	0.019756138
12	0x3e395504	0.18098837
13	0x3e339268	0.17536318
14	0x3d183325	0.03715815
15	0x3d0fb321	0.03508294
16	0x3dae4955	0.08510081
17	0x3e521efb	0.2051963
18	0x3e14ff6b	0.14550559
19	0x3d7f7555	0.062367756
20	0x3e0cc67f	0.13747595
21	0x3dfb11be	0.122592434
22	0x3e049868	0.12948763
23	0x3e1235bb	0.14278309
24	0x3e425e80	0.18981361
25	0x3e075706	0.1321679
26	0x3e058bea	0.13041654
27	0x3e2e7855	0.1703809
28	0x3e05ff8a	0.13085762
29	0x3df5f7d8	0.12010163
30	0x3e54f6c8	0.20797265
31	0x3de2ae87	0.11068445
32	0x3df67df2	0.12035741
33	0x3db6bc63	0.08922651
34	0x3dbaa0af	0.09112679
35	0x3dee4a70	0.116352916
36	0x3d5232db	0.05131803
37	0x3e73d627	0.23812161
38	0x3d770967	0.0603117
39	0x3caaf1af	0.020867197
40	0x3e2f8cc8	0.17143548
41	0x3e0fb3f3	0.14033489
42	0x3e0e4518	0.13893545
43	0x3e569a06	0.20957193
44	0x3e39e52d	0.1815383
45	0xbbdb7f29	-0.0066985083
46	0x3e207ce7	0.15672646
47	0x3db26444	0.087105304
48	0xbc223c71	-0.009902106
49	0x3e44838b	0.19190805
50	0x3d12bd6f	0.03582519
51	0x3cbe4011	0.023223909
52	0x3de9f068	0.11422807
53	0xbb7da4d1	-0.0038702975
54	0x3e1fbe73	0.15599994
55	0x3d8d8a22	0.06911112
56	0x3e26ac7e	0.16276738
57	0xbc5776bc	-0.013150867
58	0x3de247b4	0.110488325
59	0x3e0fbc43	0.1403666
60	0x3de1ea53	0.11031022
61	0x3d69ad8d	0.057050277
62	0x3e457eeb	0.19286697
63	0x3db4611b	0.08807584
64	0x3d8d3087	0.068940215
65	0x3e22dcd2	0.15904549
66	0x3e85ba6b	0.26118788
67	0x39824710	0.00024848478
68	0xbccadc08	-0.024763122
69	0x3d61dbc0	0.05514121
70	0x3e341aba	0.1758832
71	0x3e4d87b5	0.200713
72	0x3e6672b4	0.22504693
73	0x3e14c33e	0.14527604
74	0x3e30a8f6	0.17251953
75	0x3d1af9aa	0.037835754
76	0x3e09084e	0.13382074
77	0x3e10288f	0.14077972
78	0x3d355d70	0.044278562
79	0x3c70f157	0.014705977
80	0x3dc2ffef	0.09521472
81	0x3e447378	0.19184673
82	0x3db86150	0.09002936
83	0x3d5b64df	0.053562995
84	0x3db4eeed	0.08834634
85	0x3d508c25	0.050914902
86	0x3dc8d14d	0.09805546
87	0xbc3a2546	-0.011361426
88	0x3dc1ccd9	0.094629
89	0x3e2bde9f	0.16784142
90	0x3e0c9cbc	0.13731664
91	0x3e0292d0	0.12751317
92	0x3e47c224	0.19507653
93	0x3e42ff11	0.19042613
94	0x3dd68189	0.104739256
95	0x3ddf45ad	0.109019615
96	0x3e3afac8	0.18259728
97	0xbd1d6ab1	-0.038431827
98	0x3d6b1a40	0.05739808
99	0x3ea84669	0.3286622
100	0x3d49214e	0.049104027
101	0x3d355f25	0.04428019
102	0xbc8de241	-0.0173198
103	0x3d0b12fe	0.03395366
104	0x3b42b1da	0.0029708059
105	0x3e1343f3	0.1438139
106	0x3d509546	0.05092361
107	0x3dc7a0fb	0.097475015
108	0x3d550812	0.05200965
109	0x3dbd2e78	0.09237379
110	0x3d818fdc	0.06326267
111	0x3dcc7c22	0.09984614
112	0xbc11867e	-0.008882163
113	0x3e472dc6	0.19451055
114	0x3e61f676	0.22066674
115	0x3e145eae	0.14489242
116	0xbb221bc6	-0.0024735793
117	0x3e18c0c5	0.14917286
118	0x3e8c0cb6	0.27353448
119	0x3e1e69e4	0.15470082
120	0xba420ab8	-0.000740211
121	0x3d98d0ec	0.07461724
122	0x3e17da00	0.14829254
123	0x3d9c3a8e	0.07628356
124	0x3cc91a6e	0.024548735
125	0x3dc24118	0.09485072
126	0x3dd57399	0.10422439
127	0x3e68b56e	0.2272546
128	0x3da8a382	0.08234312
129	0x3d5824b2	0.05276937
130	0x3d062424	0.03274931
131	0x3dcd11e5	0.10013179
132	0x3d43be32	0.047788806
133	0x3e32b2b7	0.17450987
134	0x3e2b13c6	0.16706762
135	0x3dc4d20f	0.09610378
136	0x3e10ba2d	0.1413352
137	0xbe698603	-0.22805028
138	0x3d7e22e4	0.062044993
139	0x3dbbe9ff	0.091754906
140	0x3d60eb22	0.05491174
141	0xbdfa5e48	-0.12225014
142	0x3dd3bee5	0.103391446
143	0x3def1465	0.11673812
144	0xbdbf35a5	-0.09336404
145	0x3e0a8a48	0.13529313
146	0x3bf4f24e	0.007475174
147	0x3cfda08f	0.03096035
148	0xbb5ba38a	-0.0033514225
149	0x3d806d26	0.062708184
150	0x3e1a3a0a	0.15061203
151	0x3d1466b7	0.03623077
152	0xbdc3ecfb	-0.09566685
153	0x3dc96901	0.09834481
154	0x3dd5d67b	0.104412995
155	0xbdad2cdb	-0.08455821
156	0x3e3aa25e	0.18226
157	0x3da96c60	0.08272624
158	0x3ddb9dd4	0.10723463
159	0xbde69d4c	-0.11260471
160	0x3dfea9e8	0.12434751
161	0x3bef3b94	0.0073008034
162	0x3dab472d	0.08363185
163	0x3bd89510	0.0066095665
164	0x3ba08af7	0.0048993784
165	0xbda2cdf5	-0.079494394
166	0x3baaf24d	0.005216873
167	0x3dce7f84	0.100829154
168	0x3d92bb58	0.07164639
169	0x3de0e96d	0.109820224
170	0xbd642e49	-0.055708203
171	0x3d4a422a	0.049379505
172	0xbd885644	-0.06657079
173	0xbc729e71	-0.014808283
174	0xbd461d72	-0.048367925
175	0x3e25ab24	0.16178566
176	0x3e05bda9	0.13060631
177	0x3d0d81f5	0.034547765
178	0x3e01b0b0	0.12665057
179	0x3debc230	0.11511648
180	0x3dec8433	0.115486525
181	0x3c88212c	0.01661738
182	0x3cc2703c	0.023735158
183	0x3db25571	0.08707703
184	0x3dbad21e	0.09122108
185	0xbb034799	-0.002003169
186	0x3d5e4eb8	0.05427429
187	0x3de93d87	0.113886885
188	0xbdb895e6	-0.09012966
189	0x3c92262b	0.017840466
190	0xbe11b42a	-0.14228883
191	0x3c49d3cc	0.012318563
192	0x3da706df	0.081556074
193	0x3cf532b8	0.029931411
194	0xbd5c6b58	-0.05381331
195	0x3d813b72	0.063101664
196	0x3e05d583	0.1306973
197	0x3e0e446e	0.13893291
198	0x3ddf09ce	0.10890542
199	0x3d10093e	0.035165064
200	0xbaf517a3	-0.0018699061
201	0x3a218d81	0.00061627483
202	0x3d4ef2bc	0.05052446
203	0x3dfaaa74	0.122395426
204	0x3e0dbedb	0.13842337
205	0x3d8a8682	0.067639366
206	0x3e563aa6	0.2092081
207	0x3dc5be12	0.09655394
208	0x3e437127	0.19086133
209	0xbc5a24a0	-0.013314396
210	0x3e03d983	0.12875943
211	0x3dc770ac	0.09738287
212	0x3cf93362	0.030420009
213	0x3d9aee65	0.075650014
214	0xbd86037d	-0.06543634
215	0x3df3119d	0.11868594
216	0x3dcc194f	0.09965765
217	0x3dfb5e5d	0.12273858
218	0xbd976245	-0.0739179
219	0x3d554693	0.052069258
220	0x3ddab49e	0.10678981
221	0x3d9650b0	0.07339609
222	0x3d46b66f	0.048513826
223	0x3d6e65c8	0.058202535
224	0xbd1ae341	-0.037814382
225	0x3c4b5cbe	0.012412248
226	0xbc208ecc	-0.00979967
227	0xbd43e25b	-0.04782329
228	0x3e2e7739	0.17037667
229	0x3e133d5e	0.14378878
230	0x3e07c309	0.13257994
231	0x3e01eb0c	0.1268732
232	0x3e241ddc	0.16027015
233	0x3e135539	0.14387979
234	0x3e0b3a6f	0.1359651
235	0x3e0ede58	0.13952005
236	0x3d1dc008	0.038513213
237	0x3e12693e	0.14297959
238	0x3da07b83	0.07836058
239	0x3c6b01c0	0.014343679
240	0x3d41265f	0.047155734
241	0x3d942020	0.0723269
242	0x3c6c623e	0.01442772
243	0x3dd05250	0.1017195
244	0x3dde5ef0	0.10857952
245	0x3dd553cb	0.10416373
246	0xbe120788	-0.14260685
247	0x3e58abb3	0.21159248
248	0x3dc160c0	0.09442282
249	0x3c1e59b6	0.009664943
250	0x3d5ee978	0.054421872
251	0x3dfb9416	0.122841045
252	0xbd7a101f	-0.06105053
253	0x3d2d314e	0.04228335
254	0x3cbfec6f	0.02342817
255	0xbca790ec	-0.020454846

lstm.bias_hh_l0 f4 [512]
0	0x3e0d6604	0.13808447
1	0x3d3684be	0.044560187
2	0x3c1bd19c	0.009510424
3	0x3dc6c395	0.09705273
4	0xbcdcf36b	-0.02697154
5	0x3dae3483	0.085061096
6	0x3e25b635	0.16182788
7	0x3ea119b4	0.31464922
8	0x3e0a55f5	0.13509353
9	0x3e5e852a	0.21730486
10	0x3dd1af6f	0.102385394
11	0x3c1ec525	0.009690558
12	0x3e0663f0	0.1312406
13	0x3e1de07e	0.15417668
14	0x3ddb8cab	0.1072019
15	0x3e37244f	0.17884944
16	0x3e5b3444	0.21406657
17	0x3da89b77	0.082327776
18	0x3e26adb7	0.16277204
19	0x3dddbac8	0.10826641
20	0x3cca71a6	0.024712395
21	0x3a2db8a9	0.0006626943
22	0xbaf5696b	-0.0018723434
23	0x3d930c66	0.07180099
24	0x3e28ad98	0.16472471
25	0xbca7087d	-0.02038979
26	0x3cc9a51e	0.024614867
27	0x3e8e1d2e	0.27756637
28	0x3da04b41	0.078268535
29	0x3d9efe17	0.077633075
30	0x3d8b77de	0.06809972
31	0x3e749507	0.23884974
32	0x3cf420b8	0.029800758
33	0x3d8c2bc9	0.06844289
34	0x3c6f0833	0.014589357
35	0x3c9daed2	0.0192484
36	0x3daf3fbb	0.085570775
37	0x3e6dfef9	0.23241796
38	0x3df888a1	0.12135435
39	0x3d21d5a1	0.039510373
40	0x3e48872e	0.19582817
41	0x3d4f229e	0.050570123
42	0x3de24d7d	0.11049936
43	0x3e85ced1	0.2613435
44	0x3e32acd5	0.17448743
45	0x3d6b2907	0.057412174
46	0x3e647c8d	0.22313137
47	0x3dbc84e0	0.092050314
48	0x3e093247	0.13398086
49	0x3e39d575	0.18147834
50	0x3db1582a	0.08659394
51	0x3e0158d9	0.12631549
52	0x3e160961	0.14652015
53	0x3cbf94a3	0.023386305
54	0x3dea0a0c	0.114276975
55	0x3d964ebf	0.073392384
56	0x3d608762	0.05481661
57	0x3e157ab8	0.14597595
58	0x3dc14446	0.0943685
59	0xbce07df0	-0.027403802
60	0x3e726a67	0.23673402
61	0xbbacb3bf	-0.005270451
62	0x3d549598	0.051900476
63	0x3e04f27d	0.12983127
64	0x3b230558	0.0024875011
65	0x3e1a0ccd	0.15043946
66	0x3e1e18c3	0.15439133
67	0x3b3c11cc	0.0028697131
68	0x3df37390	0.11887276
69	0x3d97730d	0.07394991
70	0x3db8ec4e	0.090294465
71	0x3df054c4	0.11734918
72	0x3e69a1b5	0.22815593
73	0x3e5a3ed6	0.21313033
74	0x3e15c774	0.14626867
75	0x3cf011fd	0.029305452
76	0x3d7a4e4b	0.061109822
77	0x3e4edf4f	0.20202373
78	0x3d8e3188	0.06943041
79	0x3e139ded	0.14415713
80	0x3dc36fa1	0.09542776
81	0x3e535903	0.20639424
82	0x3dda8aa1	0.106709726
83	0x3cee86bc	0.02911698
84	0x3cb77d86	0.022398721
85	0x3d92d8c6	0.071702525
86	0x3d4428b6	0.047890387
87	0x3d47de34	0.048795894
88	0xbcb58567	-0.022158338
89	0x3da2531c	0.07926008
90	0x3e8a18a1	0.26971915
91	0x3db3649b	0.08759423
92	0x3e6485a6	0.22316608
93	0x3d191aee	0.037379198
94	0x3dae94a6	0.08524446
95	0x3e12037d	0.14259143
96	0x3e6040c4	0.21899706
97	0x3d9e68b5	0.07734815
98	0xbd02eb64	-0.031962767
99	0x3ebb95f8	0.36637855
100	0x3dd428f4	0.10359374
101	0xbc3f8cab	-0.011691253
102	0x3daa4c63	0.08315351
103	0x3db1b118	0.08676356
104	0x3c9f5497	0.019449515
105	0x3e826ce5	0.25473705
106	0x3de1be79	0.11022658
107	0x3dc289f9	0.094989724
108	0x3d021fa7	0.031768467
109	0x3df5bd6c	0.1199902
110	0x3d8b8e6b	0.068142734
111	0x3db79be8	0.08965284
112	0xbb97c2d4	-0.0046313796
113	0x3dba9dd8	0.091121376
114	0x3e89c9aa	0.2691167
115	0x3e56628e	0.20936033
116	0xbba7289b	-0.005101276
117	0x3dec74eb	0.11545738
118	0x3e481fa3	0.19543318
119	0x3e03e7b4	0.12881356
120	0x3c22ef8d	0.009944809
121	0x3c2ca082	0.010536315
122	0x3df04843	0.11732533
123	0x3e0eaf6a	0.13934103
124	0x3d890172	0.06689729
125	0x3e605f90	0.21911454
126	0x3dde7887	0.108628325
127	0x3df6c77d	0.12049768
128	0x3d266917	0.040627565
129	0x3d87588c	0.06608686
130	0x3e0e356c	0.13887566
131	0x3e000b4f	0.12504314
132	0x3e0f8afc	0.14017862
133	0x3e2c404d	0.16821404
134	0x3c3c74c0	0.011502445
135	0x3b546426	0.0032408326
136	0x3dd683dc	0.10474369
137	0xbe04a2a2	-0.12952664
138	0xbce88bd4	-0.028386988
139	0x3e2f745c	0.17134231
140	0x3cb79bb9	0.022413122
141	0xbbb3de56	-0.005489151
142	0x3de0d02d	0.109772064
143	0x3d7b45d1	0.06134588
144	0xbdae0ee3	-0.08498933
145	0x3cab8ef0	0.020942181
146	0x3be74fee	0.007059089
147	0x3e0b2518	0.13588369
148	0x3d887bb4	0.066642195
149	0x3ce2da93	0.027692115
150	0x3dd81212	0.10550322
151	0x3dcd2452	0.10016693
152	0xbd101c34	-0.035183147
153	0x3caab9ab	0.020840487
154	0x3d944425	0.0723956
155	0xbc637ba0	-0.013884455
156	0x3e31fa34	0.17380601
157	0x3dc78fb4	0.09744206
158	0x3e2f3009	0.17108168
159	0xbd3f2649	-0.04666737
160	0x3d488b64	0.04896106
161	0x3de7b44d	0.113136865
162	0x3da21a9f	0.07915234
163	0xbca62337	-0.020280464
164	0xbda584e2	-0.08081986
165	0x3cf82504	0.030291088
166	0x3d74fd21	0.059811715
167	0x3d90a23f	0.07062196
168	0x3e2d9a5a	0.16953412
169	0x3df4b73b	0.11949011
170	0xbe062fdd	-0.13104196
171	0x3df1b2c9	0.11801679
172	0xbdc754d4	-0.097329766
173	0xbc7587f1	-0.014986024
174	0xbe0d9e85	-0.13830002
175	0x3e3cf0a4	0.18451172
176	0x3dd6c7ba	0.104873136
177	0xbcf48078	-0.029846415
178	0x3e102d41	0.14079763
179	0x3d054423	0.032535683
180	0x3e00782d	0.12545843
181	0x3c06300a	0.008190164
182	0x3e11d512	0.14241436
183	0x3e159765	0.14608534
184	0x3c3425bd	0.010995326
185	0x3e19a00c	0.1500246
186	0x3d211124	0.039322987
187	0x3d6eff3a	0.05834887
188	0x3cb0ccab	0.021581968
189	0x3ddfd689	0.10929591
190	0xbe456d26	-0.19279918
191	0x3d7cb309	0.06169418
192	0x3db1818f	0.086672895
193	0x3d6495de	0.055806987
194	0xbda4d2dc	-0.08048031
195	0xbcc40f1a	-0.023932982
196	0x3d72ce03	0.0592785
197	0x3e0891e7	0.13336907
198	0x3d8e6440	0.06952715
199	0xbcd43619	-0.025904702
200	0xbdf38882	-0.11891271
201	0x3b7c4484	0.0038492987
202	0x3c8fea37	0.017567737
203	0x3d742359	0.059604023
204	0x3d8bc938	0.06825489
205	0x3d96a353	0.073553704
206	0x3df52090	0.119691014
207	0x3df45e8a	0.119320944
208	0x3e3fa383	0.18714719
209	0xbd660fba	-0.05616734
210	0x3df4430a	0.11926849
211	0x3dfcd1b2	0.12344684
212	0x3dbc3bcb	0.09191092
213	0x3d271ee5	0.040800948
214	0xbd1bd430	-0.038044155
215	0x3e129326	0.14313945
216	0x3e2e85bd	0.17043205
217	0x3e3f2dd4	0.18669826
218	0x3d92ea57	0.07173603
219	0x3cbd8871	0.02313635
220	0x3e149696	0.14510569
221	0x3e312bb5	0.17301829
222	0x3e22aeaf	0.15886949
223	0x3db67ace	0.08910142
224	0xbe25ae63	-0.16179805
225	0x3d8b5492	0.0680324
226	0x3da8f220	0.08249307
227	0x3de859d5	0.11345259
228	0x3e057730	0.13033748
229	0x3e345a62	0.17612603
230	0xbcb6b529	-0.02230318
231	0x3d939e13	0.07207885
232	0x3d5cee77	0.053938355
233	0x3db7f822	0.089828745
234	0x3dd9357e	0.10605906
235	0x3e3ef908	0.18649685
236	0x3d2ceefc	0.0422201
237	0x3c7bfbde	0.015379874
238	0xbd40a19c	-0.047029123
239	0xbd337af1	-0.043818418
240	0x3df116e6	0.11771946
241	0x3d960625	0.07325391
242	0x3db0d747	0.08634811
243	0x3db652d6	0.089025185
244	0x3de26012	0.1105348
245	0x3e091a4d	0.13388939
246	0xbde555eb	-0.11198028
247	0x3e080ccb	0.1328613
248	0x3e227e5a	0.15868512
249	0x3dd3aee1	0.1033609
250	0xbd06e83b	-0.032936316
251	0x3e0487cc	0.12942427
252	0x3d8f2c69	0.069908924
253	0xbd899e16	-0.067196056
254	0x3d96d038	0.07363933
255	0x3dd57f28	0.10424644

fc.weight f4 [92, 128]
0	0x3faaee6a	1.3354008
1	0x3e40924c	0.18805808
2	0x3e95ff88	0.29296517
3	0x3da97f24	0.08276203
4	0xbe086d23	-0.13322882
5	0x3ee391f4	0.4444729
6	0xbe7c1055	-0.24615605
7	0xbe69d369	-0.22834553
8	0xbee81bd0	-0.4533372
9	0x3e25d06d	0.1619279
10	0x3f17ae05	0.5924991
11	0x3ecfaf10	0.4056325
12	0xbfd68ed3	-1.6762336
13	0xbfd80704	-1.6877141
14	0x3f85cb36	1.045264
15	0x3d5432f6	0.051806413
16	0xbf84251c	-1.0323825
17	0xbfa6ab88	-1.3021097
18	0x3f055b37	0.5209231
19	0x3eccf692	0.40031868
20	0xbe597716	-0.21236834
21	0xbe653a79	-0.22385587
22	0xbea230ff	-0.31678006
23	0xbf3a4c21	-0.72772413
24	0x3e143496	0.14473185
25	0xbd48618a	-0.048921145
26	0xbcb31d15	-0.021864453
27	0x3f6f8f5d	0.9357813
28	0xbef9b33e	-0.48769563
29	0x3e9ce063	0.30639943
30	0xbf4fabbf	-0.8112144
31	0x3eaf8bc2	0.34286314
32	0x3f287e54	0.6581776
33	0x3e23dcd6	0.16002211
34	0x3e345d37	0.17613684
35	0x3e01c8f6	0.12674317
36	0xbf8aed66	-1.0853698
37	0xbf963cb4	-1.1737275
38	0x3f2f6956	0.68520105
39	0x3e464c36	0.1936501
40	0xbf244a74	-0.64176106
41	0x3e93f315	0.28896394
42	0xbec28069	-0.37988594
43	0x3f324a7e	0.69644916
44	0x3f17b392	0.5925838
45	0x3e3941ee	0.18091556
46	0x3eb7df92	0.35912758
47	0x3f286a98	0.6578765
48	0xbde48f2a	-0.11160119
49	0x3f458468	0.7715516
50	0x3e0b7701	0.13619615
51	0x3efe1159	0.4962261
52	0x3e94c109	0.29053524
53	0x3eb8bc6a	0.3608125
54	0x3e38dcdf	0.18053006
55	0x3e4e8fbe	0.20172021
56	0x3f196969	0.5992647
57	0x3e37c6b7	0.17946897
58	0x3f802bfe	1.0013425
59	0xbd145ef1	-0.036223356
60	0x3f83c726	1.029515
61	0x3ee5db83	0.44894037
62	0x3da0eb8d	0.07857428
63	0x3f9e3638	1.2360296
64	0xbec6373f	-0.38714024
65	0x3f2b8a07	0.6700749
66	0x3e26463a	0.16237727
67	0x3f123a47	0.57120174
68	0x3ee7f07f	0.4530067
69	0x3f14851d	0.58015615
70	0x3f812f53	1.0092567
71	0xbf4243d3	-0.7588474
72	0x3f9458de	1.158962
73	0xbf49cb7b	-0.7882611
74	0xbf958cc7	-1.1683587
75	0x3ea5f66e	0.32414573
76	0x3c806df5	0.015677432
77	0x3eb5ba37	0.35493633
78	0x3f02f16c	0.5114963
79	0x3f3d178b	0.7386405
80	0xbf05afec	-0.5222156
81	0xbe6e814a	-0.23291507
82	0x3dc46804	0.09590152
83	0x3fb9057b	1.4454798
84	0xbedc4d83	-0.43027887
85	0xbf2db9da	-0.6786171
86	0x3fa31316	1.27402
87	0x3edbf0c4	0.42957127
88	0x3f6aa372	0.9165565
89	0x3f26d802	0.6517335
90	0xbe65c8f4	-0.22439939
91	0xbe2239a8	-0.15842307
92	0xbf263358	-0.64922094
93	0xbf3d82e6	-0.7402786
94	0xbe7ac387	-0.2448865
95	0xbf2138e3	-0.6297743
96	0xbf09515b	-0.53639764
97	0xbf12cc2f	-0.5734281
98	0x3f50979d	0.81481344
99	0xbf9dd104	-1.2329412
100	0x3eb3308f	0.34997985
101	0xbf69cbfd	-0.91326886
102	0xbd684874	-0.05670972
103	0xbd46097c	-0.04834889
104	0xbe135c5a	-0.14390698
105	0xbfc27615	-1.5192286
106	0x3f32cb5b	0.69841546
107	0xbe3d8988	-0.18509495
108	0xbf7d9db8	-0.99068785
109	0x3e6202f4	0.22071439
110	0x3eee3cde	0.46530813
111	0xbf99ca4b	-1.201486
112	0xbe3f235e	-0.18665835
113	0x3ea27cfa	0.31735975
114	0xbf566e37	-0.83761925
115	0x3e8decb9	0.27719668
116	0x3eeb43a8	0.45950055
117	0xbcd227cc	-0.025653742
118	0xbda06109	-0.07831008
119	0xbf36544f	-0.71222395
120	0x3f0cd639	0.5501438
121	0xbb3db2a3	-0.0028945587
122	0xbd2eee79	-0.042707894
123	0xbe2a03cb	-0.1660301
124	0x3e011045	0.12603863
125	0x3feb9d64	1.8407407
126	0x3f173a97	0.59073776
127	0xbf2a95d4	-0.6663487
128	0x3eb8ae34	0.36070406
129	0x3ecbdd9c	0.39817512
130	0x3e885236	0.26625222
131	0xbe4011c0	-0.18756771
132	0xbeb6d7a3	-0.35711393
133	0x3c185333	0.00929718
134	0xbf26cad9	-0.6515327
135	0x3e73a375	0.23792823
136	0x3df45bf7	0.119316034
137	0x3f7540b8	0.9580188
138	0x3ad2d10d	0.001608403
139	0x3e05bdbd	0.1306066
140	0xbe8989a5	-0.26862827
141	0xbe5d89c5	-0.21634586
142	0xbeb1cacf	-0.34725043
143	0xbe9e185b	-0.30877957
144	0xbf0f345e	-0.5593928
145	0x3f31df1d	0.6948107
146	0xbdd2690d	-0.10273943
147	0x3e7daa69	0.24772038
148	0x3d19087c	0.037361607
149	0xbe831cbb	-0.25607857
150	0x3d969373	0.073523425
151	0x3f26b305	0.6511691
152	0xbf3dd269	-0.74149185
153	0xb9a38355	-0.00031187633
154	0x3df6e590	0.12055504
155	0x3eb30a37	0.3496873
156	0x3e19bc3c	0.15013212
157	0x3dbb3e58	0.091427505
158	0x3d9f84f5	0.077890314
159	0x3f7d2c2b	0.9889552
160	0xbe73e9df	-0.23819683
161	0x3ca0ade4	0.019614168
162	0x3e021586	0.12703523
163	0xbe818a75	-0.25300947
164	0x3f66b929	0.9012628
165	0xbebc9334	-0.36831057
166	0xbe9558d1	-0.29169324
167	0x3e25b242	0.16181281
168	0x3ee78bd0	0.45223856
169	0x3db80140	0.089846134
170	0xbf2801a1	-0.65627486
171	0x3f432597	0.7622923
172	0xbf057c44	-0.5214274
173	0xbee5daa0	-0.4489336
174	0x3f776297	0.9663481
175	0xbdae575d	-0.08512757
176	0xbe32e55f	-0.1747031
177	0x3f528761	0.8223782
178	0x3c60550d	0.013692153
179	0x3d8d64b9	0.06903977
180	0xbe2e8a7d	-0.17045017
181	0xbe64739c	-0.22309726
182	0xbd67a35a	-0.05655227
183	0x3eedcf31	0.46447137
184	0xbdc9b684	-0.09849265
185	0x3b2b1088	0.0026102383
186	0xbeccaf5b	-0.39977536
187	0x3e1409cc	0.14456862
188	0x3ebbad63	0.3665572
189	0x3e056baf	0.1302936
190	0x3e34e5da	0.17665806
191	0xbe45305e	-0.19256732
192	0xbdd1fbf6	-0.10253136
193	0xbf44cea7	-0.76877826
194	0x3f965a66	1.1746337
195	0xbc2c6029	-0.010520973
196	0x3eb58554	0.35453284
197	0xbe527b7f	-0.20554923
198	0xbcda2537	-0.026629074
199	0xbec079d8	-0.3759296
200	0xbe5e25e7	-0.21694146
201	0x3f51cdc1	0.8195458
202	0x3ef91a33	0.486528
203	0x3f01d5d8	0.50716925
204	0xbc7d066e	-0.0154434275
205	0x3ef709ea	0.4824975
206	0x3ec63076	0.38708848
207	0x3e885faf	0.266355
208	0xbdb7091a	-0.08937283
209	0xbea64435	-0.32473913
210	0x3e57527d	0.2102756
211	0xbe4bc838	-0.19900596
212	0x3bf06f96	0.007337521
213	0xbf33232d	-0.6997555
214	0xbf9a0b47	-1.2034692
215	0x3e2ed95a	0.170751
216	0x3e8b59bc	0.272169
217	0x3f3b1216	0.7307447
218	0x3e86a6e3	0.262992
219	0xbe63c065	-0.22241361
220	0x3e8cd819	0.2750862
221	0xbdde3393	-0.10849681
222	0xbc1db2b6	-0.009625128
223	0x3e49ab89	0.19694342
224	0x3fa0f8c8	1.2575922
225	0xbec039c6	-0.37544078
226	0x3deef56d	0.11667905
227	0xbd8b68af	-0.06807076
228	0x3d0ce6d7	0.034399834
229	0xbe8ed81b	-0.2789925
230	0xbd7ea0a9	-0.062164936
231	0x3e221cee	0.15831348
232	0xbe442a17	-0.19156681
233	0x3ee0e3c3	0.43923768
234	0x3e16306c	0.14666909
235	0x3ea612b9	0.3243616
236	0xbdb4dcf9	-0.0883121
237	0x3d9ec408	0.07752234
238	0xbf9525d5	-1.165217
239	0xbf83912a	-1.0278676
240	0xbe6e3c7a	-0.23265257
241	0x3ee0187d	0.43768683
242	0xbe9ce0d9	-0.30640295
243	0x3ef7fb1f	0.48433778
244	0xbeaa4afa	-0.33260328
245	0xbd1a7d48	-0.037717134
246	0x3e70c14b	0.23511235
247	0xbe34559b	-0.17610781
248	0x3ea183a9	0.3154576
249	0xbcd158a7	-0.025554968
250	0xbdf0bf7c	-0.11755273
251	0x3e3e3954	0.18576556
252	0xbedcd1d9	-0.4312885
253	0xbfa34529	-1.2755481
254	0x3f0f1cf5	0.5590356
255	0xbf03e45f	-0.5152034

fc.bias f4 [92]
0	0x3dae537f	0.08512019
1	0x3d32537c	0.04353665
2	0xbdcda4c3	-0.100411914
3	0x3c90a5ff	0.017657278
4	0x3c6d57c2	0.014486255
5	0xbce2c55a	-0.027681995
6	0x3d2cd0c8	0.042191297
7	0x3de1f8d6	0.1103379
8	0xbd8fbd19	-0.070184894
9	0xbd18802c	-0.03723161
10	0x3e3b3a95	0.18284066
11	0xbdbd62e4	-0.092473775
12	0x3c8829c5	0.01662148
13	0xbcb5fc01	-0.022214891
14	0xbddcd5d0	-0.10782969
15	0xbd3837be	-0.044975035
16	0xbde804b7	-0.11329024
17	0xbdc33ba5	-0.09532861
18	0xbe252d7e	-0.16130635
19	0xbdc42ab9	-0.09578461
20	0x3c4795b4	0.012181688
21	0xbe0ecd1c	-0.1394543
22	0xbe05142d	-0.12995978
23	0xbd57a278	-0.052645177
24	0x3d7b3eae	0.061339073
25	0xbe1f3e5e	-0.15551135
26	0xbc0ae90c	-0.008478414
27	0xbd847186	-0.064669654
28	0x3bcc48cc	0.006234264
29	0xbdad6b10	-0.08467686
30	0xbdbc730a	-0.092016295
31	0xbe074ee6	-0.13213691
32	0x3d96e701	0.07368279
33	0xbb12c8c9	-0.002239751
34	0xbd2e7c11	-0.042598788
35	0xbc6ff7c0	-0.014646471
36	0xbd76b4cb	-0.06023101
37	0xbe253f82	-0.16137508
38	0xbdbb3910	-0.09141743
39	0xbd715114	-0.058915213
40	0xbd0f0adb	-0.034922462
41	0x3b6d8c91	0.0036247114
42	0xbdee39b3	-0.11632099
43	0xbc2dad71	-0.010600434
44	0xbd09588a	-0.033531703
45	0x3c3329e5	0.010935281
46	0xbe1fecc6	-0.15617666
47	0x3cd02279	0.025407063
48	0xbdac1654	-0.08402696
49	0xbda5f05f	-0.08102488
50	0x3c68807a	0.014190787
51	0xbe03bc24	-0.12864739
52	0xbdcaa80e	-0.09895335
53	0x3d21afcd	0.039474297
54	0x3e4354ff	0.19075392
55	0xbbe68e69	-0.0070360196
56	0xbe6ee256	-0.23328528
57	0x3cc0640d	0.023485208
58	0x3ccf2788	0.025287405
59	0x3dcba0dd	0.099427916
60	0x3d34b9d4	0.044122532
61	0xbda9eb0c	-0.08296785
62	0x3dfe6bed	0.12422929
63	0x3da3e3f9	0.08002467
64	0xbdd60994	-0.10451046
65	0x3c8396b9	0.016063081
66	0x3e05d667	0.13070069
67	0x3d32a58a	0.0436149
68	0xbd29317d	-0.04130696
69	0xbe09a49c	-0.134417
70	0xbd178573	-0.0369925
71	0x3e1d0bae	0.15336487
72	0x3d89ddde	0.06731771
73	0x3c9582c2	0.018250827
74	0x3de78986	0.113055274
75	0xbca71a02	-0.020398144
76	0x3d02dc48	0.031948358
77	0x3c58a9d1	0.013224081
78	0x3de870f6	0.113496706
79	0x3c8badf3	0.017050719
80	0xbe29ea68	-0.16593325
81	0xbc8bd8f5	-0.017071227
82	0xbd167569	-0.036733065
83	0xbdc549b0	-0.096331954
84	0xbbe8a8c5	-0.007100197
85	0xbdd255d4	-0.10270277
86	0xbcc9d4ea	-0.024637658
87	0xbd5fa374	-0.05459924
88	0xbe01effa	-0.126892
89	0xbdd98f42	-0.106230274
90	0xbbff23b0	-0.0077862367
91	0xbe199b90	-0.15000749
