Portfolio-Projects/CodeMiner-AI/python_brain.pth (torch, 432274 bytes, 7 tensors)

embedding.weight f4 [41, 64]
0	0x3fb92a53	1.4466041
1	0xbf706803	-0.9390871
2	0x3fdf2a7d	1.7434841
3	0x3e01e2e6	0.12684211
4	0xbf1884d0	-0.59577656
5	0x3f9e1760	1.2350883
6	0x3efb2eb7	0.49059078
7	0xbfb34be1	-1.4007531
8	0xbf468137	-0.77540916
9	0xbf5134d5	-0.8172124
10	0x3fa8166a	1.313184
11	0xbfea52c5	-1.8306509
12	0xbf2febef	-0.6871938
13	0xbfa00213	-1.2500633
14	0x3e11b43d	0.14228912
15	0x3fe6f874	1.8044572
16	0xbf75e5c2	-0.9605371
17	0x3ed87b0f	0.42281386
18	0xbf89bf3e	-1.0761487
19	0x3f1bb5ad	0.6082409
20	0xbd3f8ce4	-0.046765223
21	0xbf082c3a	-0.53192484
22	0xbf3ebc90	-0.74506474
23	0xbfcd59d1	-1.6043035
24	0x3f6d8a6b	0.92789334
25	0x3fec948a	1.848283
26	0xbfee3edc	-1.8612933
27	0xbfeddbe6	-1.8582733
28	0x3f46aed9	0.77610546
29	0xbd6c1a24	-0.057642117
30	0xbf298d29	-0.6623102
31	0x3e9fe411	0.31228688
32	0xbde01f42	-0.10943462
33	0xbf909fb3	-1.1298736
34	0xbdf003bf	-0.117194645
35	0xc0059d3a	-2.0877213
36	0xbf9e4ebd	-1.2367779
37	0xbf29f2c6	-0.6638607
38	0xbee1ac88	-0.44076943
39	0x3f3aebf2	0.73016274
40	0xbf4c6c36	-0.79852617
41	0xbea4cbfa	-0.32186872
42	0x401503d8	2.3283596
43	0xbf51a949	-0.81898934
44	0x3dfd4c24	0.12368038
45	0xbe062352	-0.13099411
46	0xbf963f62	-1.1738093
47	0xbe404e81	-0.18779947
48	0x3f7ab332	0.9792968
49	0x3ed18464	0.4092132
50	0xbfab9be0	-1.3406944
51	0xbee86704	-0.45391095
52	0x3f56a847	0.8385052
53	0xbc28a1e6	-0.010292506
54	0xbfc42278	-1.5323019
55	0x40046905	2.06891
56	0x3b6affd0	0.0035858043
57	0xbf25f726	-0.64830244
58	0x3d7afe97	0.061277952
59	0x3f1ce757	0.61290497
60	0xc02411cf	-2.563587
61	0x3f46d124	0.77662873
62	0x3da341d3	0.07971539
63	0x3e7be646	0.24599561
64	0xbf8e40da	-1.1113541
65	0xbf0a3659	-0.5398918
66	0x3e450487	0.19240008
67	0x3ece7f9f	0.40331742
68	0xbf7c98d6	-0.9867071
69	0x3f3bcf04	0.73362756
70	0xbeead56e	-0.4586596
71	0xbd3970d9	-0.045273636
72	0xbf99d0c0	-1.201683
73	0x3eed8fe6	0.46398848
74	0xbf968e1b	-1.1762117
75	0xbf3cf87d	-0.73816663
76	0x3abc513e	0.0014367474
77	0xbfbd1e30	-1.4774837
78	0xbe8f6d2d	-0.28012982
79	0xbf210f8d	-0.62914354
80	0xc02be0cb	-2.6855953
81	0x3f5a697e	0.8531722
82	0xc00df29b	-2.2179325
83	0x3f781404	0.9690554
84	0xc007e807	-2.1235368
85	0xbf0a7f95	-0.54100925
86	0xc004ec21	-2.0769122
87	0x3eb968a3	0.36212644
88	0xbe50eec5	-0.20403583
89	0xbfb77aef	-1.4334391
90	0xbff04ee4	-1.8774076
91	0x3f1d2714	0.61387753
92	0x3dfd1052	0.123566285
93	0xc0261cfb	-2.5955188
94	0xbf1abf80	-0.60448456
95	0x3fc97682	1.5739291
96	0x3f4e628b	0.80619115
97	0x3f6c4d63	0.9230558
98	0xbf841084	-1.031754
99	0xbf0adc8d	-0.54242784
100	0x3f934a90	1.150713
101	0x3ec387b8	0.38189483
102	0xbf96bcdf	-1.1776389
103	0x3e9d1ed8	0.30687594
104	0x3fd9059f	1.695484
105	0x3e983509	0.29727963
106	0x3f72850b	0.9473426
107	0xbf5e82ae	-0.8691815
108	0x3d5c8b5a	0.053843834
109	0xbe40901f	-0.18804978
110	0xbfa9e56f	-1.3273143
111	0x3d9e7a1b	0.077381335
112	0xbfdd65d9	-1.7296706
113	0x3f0e140f	0.55499357
114	0x3e12688d	0.14297695
115	0x3d546dc8	0.051862508
116	0x3fe8df47	1.8193139
117	0xbf9c5e18	-1.2216215
118	0xbf3452ed	-0.70439035
119	0x3fdcb7b1	1.7243558
120	0xbf79967d	-0.9749525
121	0x3f2ddec3	0.6791803
122	0xbf525103	-0.82154864
123	0xbee55d20	-0.4479761
124	0x3f804bbe	1.0023115
125	0xbdabc986	-0.08388047
126	0x3ec79b85	0.3898584
127	0xbf9c7054	-1.222178
128	0xbde65796	-0.112471744
129	0xbf1bd67b	-0.60874146
130	0xbf3e16cb	-0.7425353
131	0x3d85292d	0.06501994
132	0x3f1dcd36	0.6164125
133	0x3e8dc275	0.2768742
134	0x3e111065	0.1416641
135	0xbf6ee420	-0.9331684
136	0xbf70c67e	-0.94052875
137	0xc016653b	-2.3499286
138	0xbf4d8fd7	-0.8029761
139	0xbe32ac36	-0.17448506
140	0xbfb5834c	-1.4180694
141	0xc01a18c6	-2.407762
142	0xbfe73dac	-1.8065696
143	0x3f875d2c	1.0575309
144	0xbf861494	-1.047503
145	0xbef3be92	-0.4760633
146	0xbf2d52fe	-0.6770476
147	0xbec907a7	-0.3926365
148	0x3e676245	0.2259608
149	0x3f337ca9	0.7011209
150	0xbfb0fa49	-1.3826381
151	0xbfa412a3	-1.2818187
152	0x3fdfc1e4	1.7481046
153	0x3f34fcda	0.7069832
154	0xbf37f4fb	-0.71858186
155	0xbe9fd328	-0.31215787
156	0xbf24501e	-0.6418475
157	0xbf8173ac	-1.0113425
158	0xbf8320a6	-1.0244339
159	0xbfabdfad	-1.3427635
160	0x400691ed	2.1026566
161	0xbf39e3a4	-0.7261298
162	0x3ed63435	0.41836706
163	0xc012161e	-2.2826
164	0xbe12f778	-0.14352214
165	0x3e1c77fb	0.15280144
166	0xbfe37331	-1.7769529
167	0x3ea84401	0.32864383
168	0xbebe2524	-0.3713771
169	0x3f21cdb7	0.6320452
170	0xbeb4b213	-0.3529211
171	0xbfe79d3f	-1.8094863
172	0x3f4e2c99	0.805368
173	0xbf60fac5	-0.87882644
174	0x3ea8533c	0.32876003
175	0x3e80e075	0.25171247
176	0xbf85dbff	-1.0457762
177	0xc01b47fe	-2.426269
178	0xbd0e77de	-0.034782283
179	0x4008c50b	2.1370265
180	0x3f08eda1	0.5348759
181	0x3e62dfd1	0.22155692
182	0x3f0d6096	0.55225503
183	0xbfc00903	-1.500275
184	0x3f9b050d	1.2110916
185	0x3f67442d	0.90338403
186	0x4006a971	2.104092
187	0x3f3017b9	0.687862
188	0x3ee6ed9d	0.4510316
189	0xbf853d04	-1.0409245
190	0x3f7e32ae	0.9929608
191	0x3f0168a5	0.505503
192	0x3f5ce62d	0.8628872
193	0x3fff7610	1.9957905
194	0xbf815211	-1.010317
195	0xbf32caee	-0.69840896
196	0x3f9649f6	1.1741321
197	0xbf765240	-0.96219254
198	0xbf19f1ae	-0.601344
199	0x3ef34b8c	0.47518575
200	0xbf14ef3f	-0.5817756
201	0xbfad4af0	-1.3538494
202	0xbe6f0e32	-0.23345259
203	0x3fafc9ae	1.3733423
204	0x3f661c38	0.8988681
205	0xbf4b27ca	-0.7935759
206	0xbfd0ed8d	-1.6322495
207	0xbfd70a93	-1.6800102
208	0xbfd93d58	-1.6971846
209	0xc007ceb0	-2.1219902
210	0xbf2d30e0	-0.676527
211	0xbf36cb86	-0.714043
212	0x3f49b735	0.78795177
213	0x3ded60c3	0.115907215
214	0x3e4493b5	0.19196971
215	0x4017ab69	2.369837
216	0xbf626476	-0.8843454
217	0xbe0a8a52	-0.13529328
218	0xc019a5b4	-2.4007387
219	0xbf9c0a39	-1.219062
220	0xbfb513c3	-1.4146656
221	0x3b47f5ed	0.0030511573
222	0x3f853d1d	1.0409275
223	0x3f4cb006	0.7995609
224	0x3f920e5e	1.1410635
225	0x3fe0d5a3	1.7565197
226	0x3f88754e	1.0660799
227	0x3e46c6d5	0.19411786
228	0x3ec3d388	0.38247323
229	0x3ebe2f38	0.371454
230	0xbef061c9	-0.46949604
231	0xbfbb45f9	-1.4630729
232	0x3f70517b	0.9387433
233	0x3e95231b	0.29128346
234	0x3f7160d5	0.9428838
235	0x3fd46550	1.6593418
236	0x3c858e9c	0.016303353
237	0xbe423dfe	-0.1896896
238	0xbf35aa7f	-0.7096328
239	0xbf884348	-1.0645533
240	0xbfc7e9ab	-1.5618185
241	0xbf50e5e6	-0.816008
242	0xbfbf74e3	-1.4957546
243	0x3e7e8233	0.24854355
244	0x3fc4ece2	1.5384791
245	0xbf3fb631	-0.7488738
246	0x3c93b84b	0.018032214
247	0xbee9c5a0	-0.45658588
248	0x3fd007dc	1.6252398
249	0x3e9be251	0.30446103
250	0x3f8b317a	1.0874474
251	0x3f67cd83	0.9054796
252	0x3ee2aded	0.4427332
253	0xbf52279d	-0.82091695
254	0x3e506b9f	0.20353554
255	0xbf1d2522	-0.61384785

lstm.weight_ih_l0 f4 [512, 64]
0	0xbe3462da	-0.17615834
1	0x3b1ee140	0.0024243146
2	0x3da2795c	0.07933304
3	0xbd4821ba	-0.04886029
4	0x3c2435ba	0.010022575
5	0x3d0f8dd3	0.035047363
6	0x3a9e297c	0.0012066807
7	0x3c9d6766	0.019214343
8	0x3d1ea188	0.038728267
9	0xbd944e7c	-0.07241532
10	0x3e0e09ec	0.13870972
11	0xbdc41e4a	-0.0957609
12	0x3d4e9c09	0.050441775
13	0x3ced9468	0.02900143
14	0x3da2ac6e	0.079430446
15	0xbdf9c6e8	-0.121961415
16	0x3d9bb72a	0.07603295
17	0x3d5987ee	0.05310815
18	0xbe0d235e	-0.13783023
19	0x3d80b5d4	0.06284681
20	0xbe0b8e48	-0.13628495
21	0xbb85b665	-0.004080581
22	0xbccee2da	-0.025254656
23	0x3c2b3373	0.010449278
24	0x3e2c5f88	0.16833317
25	0xbd08944e	-0.03334456
26	0x3d228b91	0.039683882
27	0xbc48268b	-0.012216221
28	0x3d284ad8	0.041087
29	0x3e151fe1	0.14562942
30	0xbe01e551	-0.12685134
31	0x3ba02138	0.0048867725
32	0xbdf2eaab	-0.118611656
33	0x3d97ec8e	0.07418166
34	0xbdd7e41b	-0.105415545
35	0x3daf99dd	0.08574269
36	0x3e165c2b	0.14683597
37	0xbd418f82	-0.047256
38	0x3d922479	0.07135863
39	0x3e0a05e7	0.13478814
40	0x3d23df36	0.040007792
41	0xbc48fec4	-0.012267772
42	0xbd8727cc	-0.065993875
43	0x3dcf175d	0.10111878
44	0xbd595ab1	-0.053065006
45	0x3ddcb88a	0.107773855
46	0x3db18c3e	0.08669327
47	0x3df4fab7	0.119618826
48	0xbd891861	-0.06694103
49	0xbd96e193	-0.073672436
50	0xbbb197bd	-0.0054197
51	0x3d594edf	0.053053733
52	0xbdada0d9	-0.08477945
53	0xbda4201b	-0.08013936
54	0x3e00e142	0.12585929
55	0xbc422d0a	-0.011851558
56	0x3c70a367	0.014687396
57	0x3c211359	0.009831273
58	0xbe04b9a6	-0.12961444
59	0xbdc8bf70	-0.09802139
60	0xbdaaee2f	-0.08346211
61	0xbe2519ba	-0.16123095
62	0x3d03b54f	0.03215533
63	0xbcac8a35	-0.021061996
64	0x3d5a5f6f	0.05331367
65	0xbde44a9b	-0.11147042
66	0xbd3264e5	-0.04355325
67	0x3dde376d	0.108504154
68	0xbd618dfc	-0.055067047
69	0x3e0b225f	0.1358733
70	0xbb789b87	-0.0037934498
71	0x3e32c350	0.17457318
72	0x3cb428a8	0.021992043
73	0x3c6822e5	0.014168476
74	0x3d3b4833	0.04572315
75	0xbe0aee79	-0.13567533
76	0x3cd7d9dd	0.026349002
77	0xbdc97809	-0.09837348
78	0x3d764d66	0.060132407
79	0xbd1115de	-0.035421245
80	0xbda1a9a1	-0.07893682
81	0x3c87ec9e	0.01659232
82	0xbdb4c087	-0.08825784
83	0x3dc49258	0.09598225
84	0xbd822df7	-0.06356423
85	0xbdfd64bb	-0.123727284
86	0xbe252b64	-0.16129833
87	0x3dba8d72	0.0910901
88	0x3e21d946	0.1580554
89	0x3d018096	0.03161677
90	0xbd837ac4	-0.064199
91	0xbe186c28	-0.14885008
92	0x3cd0bedc	0.025481634
93	0x3decaac4	0.115560085
94	0xbd0439b1	-0.03228158
95	0xbbe07a4a	-0.0068505155
96	0x3cf6dc23	0.030134266
97	0x3cde7b97	0.027158542
98	0x3c9d1779	0.019176232
99	0xbdb665e1	-0.089061506
100	0xbd842b96	-0.06453626
101	0x3ca92400	0.020647049
102	0xbdc788d0	-0.09742892
103	0x3dce845b	0.100838386
104	0x3beadfd2	0.0071677947
105	0x3df155e1	0.11783958
106	0x3d804a40	0.06264162
107	0xbdb1d5fe	-0.08683394
108	0x3e05a545	0.13051327
109	0xbda15b6e	-0.07878767
110	0xbddf2316	-0.10895364
111	0xbd99a75e	-0.07502626
112	0xbe0bb027	-0.13641416
113	0xbe2e2a20	-0.17008257
114	0x3c675869	0.0141202
115	0xbe419e87	-0.1890813
116	0x3ccdbbcd	0.025113964
117	0xbce61832	-0.02808771
118	0xbdefa824	-0.11701992
119	0xbcfb3fa7	-0.03067
120	0xbd634d97	-0.055493917
121	0xbdb256bc	-0.087079495
122	0x3d537edd	0.051634658
123	0xbcd37261	-0.025811376
124	0xbe0ddae6	-0.13853034
125	0xbe0919ea	-0.13388792
126	0xbd801fd5	-0.062560715
127	0x3e00a06d	0.12561198
128	0xbe004ee6	-0.12530097
129	0xbd828dfd	-0.06374738
130	0x3e25965d	0.1617064
131	0x3da260cd	0.079286195
132	0xbcd3c2ca	-0.025849719
133	0xbddffb91	-0.10936654
134	0xbb4c54d3	-0.003117849
135	0x3cc1fe1a	0.023680735
136	0x3dffb83a	0.1248631
137	0xbdc200e8	-0.09472829
138	0x3bbfb06c	0.0058498885
139	0xbdeab1cd	-0.11459694
140	0x3d25c991	0.04047543
141	0xbc5f3331	-0.013623045
142	0x3db877b0	0.090072036
143	0xbdac1093	-0.08401599
144	0xbbbaf15f	-0.005705043
145	0x3cda45fe	0.026644703
146	0xbdb36f1e	-0.08761428
147	0xbd86ba22	-0.06578471
148	0xbd648c34	-0.05579777
149	0x3e45472e	0.19265434
150	0x3ce7609e	0.028244313
151	0x3d7cd237	0.061723914
152	0x3e009870	0.1255815
153	0xbe178abb	-0.14799015
154	0x3d8f7539	0.0700478
155	0xbdfaa42d	-0.12238345
156	0x3e483e90	0.19555116
157	0xbd16745c	-0.036732063
158	0xbd8c8769	-0.06861765
159	0x3d4e3f50	0.05035335
160	0x3d4130a3	0.047165524
161	0x3dd49d03	0.1038151
162	0xbbfdee51	-0.007749357
163	0xbc11f883	-0.0089093475
164	0x3dcc60bc	0.09979388
165	0xbe06ddd0	-0.13170552
166	0xbcf01975	-0.029309014
167	0x3e153d6e	0.14574215
168	0x3e1e8061	0.1547866
169	0x3cf6e842	0.030140046
170	0x3c1980b8	0.009369068
171	0xbc13df58	-0.009025417
172	0x3e3e63d2	0.18592766
173	0x3d957312	0.072973385
174	0x3da35644	0.07975438
175	0x3cd2931f	0.025704918
176	0x3c144ce1	0.0090515325
177	0xbe681874	-0.22665578
178	0xbc5d9c61	-0.013526053
179	0xbe027efc	-0.12743753
180	0xbcd4bd1e	-0.025969084
181	0xbe0b8893	-0.13626318
182	0xbacf1265	-0.0015798329
183	0x3cf9c8a7	0.030491186
184	0xbe646305	-0.22303398
185	0xbc6bb710	-0.014386907
186	0xbcf85ee2	-0.030318681
187	0xbd8be2ef	-0.068303935
188	0xbe13b65a	-0.1442503
189	0x3b4136ad	0.0029482052
190	0x3d47752c	0.04869573
191	0xbda5f586	-0.081034705
192	0x3c96aa9e	0.018391903
193	0x3da5e385	0.081000365
194	0xbdaec95e	-0.085345015
195	0x3c5de881	0.013544203
196	0x3cf10995	0.029423514
197	0x3ded2962	0.11580159
198	0xbdf8c2b8	-0.12146515
199	0xbd1cabb9	-0.038249705
200	0x3de53d77	0.11193364
201	0xbd79f3d1	-0.061023537
202	0x3daf57c7	0.08561664
203	0x3c2bf1fb	0.010494704
204	0xb985d0a6	-0.00025523192
205	0x3dcdbb99	0.10045547
206	0xba33e9c2	-0.0006863141
207	0xbd308593	-0.043096136
208	0xbd1f9b1f	-0.038966294
209	0xbdbf8839	-0.09352154
210	0xbd2f2eac	-0.04276912
211	0xbdb7d166	-0.089754865
212	0x3db9dfdc	0.09075901
213	0xbaced919	-0.0015781253
214	0xbd256343	-0.040377866
215	0x3e13ce19	0.14434089
216	0x3dd95a16	0.10612886
217	0xbcaf785c	-0.021419697
218	0x3c8eb1ef	0.01741883
219	0x3dc84d78	0.09780401
220	0x3df7fd67	0.121088795
221	0x3da2d6f3	0.079511546
222	0xbc3bac43	-0.011454645
223	0x3ca55a73	0.020184731
224	0xbb61b575	-0.0034440432
225	0x3d01897a	0.03162525
226	0xbd891240	-0.06692934
227	0xbcbadb4e	-0.02280965
228	0x3b9dafee	0.004812232
229	0xbe2be50e	-0.16786596
230	0xbdff6732	-0.12470855
231	0x3d0d1572	0.03444428
232	0xbd36b3e0	-0.044605136
233	0xbdd4a175	-0.10382358
234	0xbd90ca95	-0.070698895
235	0xbe44dcbc	-0.19224828
236	0xbd0c3fd8	-0.034240574
237	0x3dcf8559	0.10132856
238	0xbda4fd54	-0.08056131
239	0xbdda7a8f	-0.106679074
240	0xbd75e884	-0.060036197
241	0xbe04cfc0	-0.12969875
242	0xbd36b667	-0.044607546
243	0x3d7097ae	0.058738403
244	0x3a8bec3b	0.001067526
245	0x3dcd7fba	0.100341275
246	0x3ccdfbae	0.025144424
247	0xbe004562	-0.12526467
248	0x3ce8b17d	0.028404946
249	0xbdc5c879	-0.09657378
250	0x3d915ac0	0.07097387
251	0xbd66e773	-0.05637307
252	0xbda9ae38	-0.08285183
253	0x3dff8cb1	0.12478007
254	0xbe0760e7	-0.13220559
255	0xbc77bdfc	-0.015120979

lstm.weight_hh_l0 f4 [512, 128]
0	0x3cd91493	0.026499068
1	0x3e0ce1e4	0.13758045
2	0xbb81f42c	-0.003965875
3	0x3d4d9824	0.05019392
4	0x3cd1880d	0.02557757
5	0xbd949418	-0.07254809
6	0xbc28103f	-0.01025778
7	0x3d5f3714	0.054495886
8	0x3d7e352f	0.06206244
9	0x3d4ad691	0.049521033
10	0xbd8ec366	-0.06970863
11	0xbde940c4	-0.11389306
12	0x3c8016e0	0.015635908
13	0xbe1e7449	-0.15474047
14	0xbcf7ebdc	-0.030263834
15	0xbd05f52e	-0.032704525
16	0xbdb8f29d	-0.0903065
17	0xbe18d62a	-0.14925447
18	0x3d3c90c9	0.046036515
19	0xbd8c8349	-0.06860978
20	0xbd5983aa	-0.05310408
21	0xbe05379c	-0.13009495
22	0x3be2c3e0	0.006920323
23	0x3c652b0e	0.013987316
24	0xbdd2d3d0	-0.10294306
25	0xbe2ed17f	-0.17072104
26	0x3d142f30	0.036177814
27	0xbe2f4948	-0.17117798
28	0x3e2c7f43	0.16845421
29	0x3d52e8fd	0.051491726
30	0xbd2104f5	-0.039311368
31	0xbe152893	-0.14566259
32	0x3dfaa1f6	0.12237923
33	0x3e327f07	0.1743127
34	0x3be9d39f	0.007135823
35	0xbc8e7960	-0.01739186
36	0xbd2d2c72	-0.042278714
37	0xbc9143ed	-0.017732585
38	0xbe0181fd	-0.12647243
39	0x3d472e8c	0.048628375
40	0x3b9ea121	0.0048409854
41	0x3d39a341	0.045321707
42	0x3cdfb207	0.02730657
43	0x3caa95ed	0.020823443
44	0xbcf8d691	-0.03037575
45	0xbe075176	-0.13214669
46	0xbcc8d276	-0.024514418
47	0xbdf029ec	-0.11726746
48	0xbd3b88a0	-0.045784593
49	0xbe05f0be	-0.13080117
50	0x3a2dd56c	0.00066312286
51	0xbd222103	-0.039582264
52	0x3b5d0639	0.0033725633
53	0x3dfa91f4	0.122348696
54	0x3d064554	0.03278096
55	0xbd2561f6	-0.040376626
56	0x3db4f3dc	0.08835575
57	0xbd1dff93	-0.038573813
58	0x3b4424a1	0.002992906
59	0x3cde1cae	0.027113285
60	0xbdb65012	-0.08901991
61	0xbd98a37e	-0.07453059
62	0x3dada2f6	0.08478348
63	0x3ce465d6	0.02788059
64	0x3bfd6677	0.007733162
65	0x3d4af435	0.0495493
66	0xbc027d1d	-0.0079644
67	0xbdac5665	-0.08414916
68	0x3c69035b	0.014221991
69	0x3d3c6e58	0.04600367
70	0xbdc6db40	-0.09709787
71	0xbb342e0c	-0.0027493266
72	0x3e87460b	0.26420626
73	0xbe34c22c	-0.17652196
74	0x3b9a2172	0.004703694
75	0xbab8b0bb	-0.0014090756
76	0xbac673cb	-0.001514071
77	0xbc2380a7	-0.009979404
78	0x3b7feb61	0.003905021
79	0x3e18dc2d	0.1492774
80	0x3d27312b	0.040818375
81	0x3d7120be	0.058869116
82	0xbdd4dd82	-0.10393812
83	0xbda3bb8d	-0.07994757
84	0x3d78a4c8	0.060704023
85	0x3d38877a	0.045051076
86	0xbde801c8	-0.11328465
87	0xbd2d8fc2	-0.042373426
88	0xbcf1fb6a	-0.029538829
89	0x3c57227b	0.013130779
90	0x3cc7f047	0.024406565
91	0xbdbbe7a3	-0.091750406
92	0x3e4db901	0.20090105
93	0x3d94e676	0.072705194
94	0xbd9455f4	-0.07242957
95	0xbdb4b515	-0.08823601
96	0x3d9a10e4	0.07522753
97	0xbbde88bf	-0.0067912037
98	0x3bfd7a8d	0.0077355565
99	0x3d3acf7d	0.045608032
100	0xbdad948f	-0.08475601
101	0xbd165082	-0.036697872
102	0x3e37010c	0.17871493
103	0x3e076e4f	0.13225673
104	0xbe173c9c	-0.14769214
105	0xbda8a644	-0.08234838
106	0x3d788138	0.060670108
107	0x3e3cea98	0.18448865
108	0x3d8e824c	0.06958446
109	0x3dda2c72	0.106530085
110	0xbd489f4d	-0.048980046
111	0x3d4f2764	0.050574675
112	0xbb4d1df4	-0.003129837
113	0x3e0d2764	0.13784558
114	0xbc671106	-0.01410318
115	0xbcce227b	-0.025162926
116	0xba9c10a8	-0.001190682
117	0x3d30751f	0.043080445
118	0x3ce2bd77	0.027678235
119	0x3bf77961	0.0075523113
120	0xbd426264	-0.047457114
121	0xbcb63de7	-0.022246314
122	0xbd1732d2	-0.0369137
123	0x3dee99a9	0.11650402
124	0x3d02a3a0	0.031894326
125	0xba8f8be2	-0.0010951723
126	0x3cda16ab	0.026622137
127	0x3c170ddc	0.009219613
128	0x3e4ed6ef	0.20199178
129	0x3e0b58fd	0.13608165
130	0x3e3f1546	0.18660459
131	0x3d65d355	0.056109745
132	0x3dc61303	0.09671595
133	0xbdc0846b	-0.09400257
134	0xbcd98c43	-0.02655614
135	0x3e408d4f	0.18803905
136	0x3e5035ed	0.20333071
137	0xbd9d69af	-0.07686173
138	0xbd831e38	-0.06402248
139	0xbdba7a6d	-0.09105382
140	0x3db3b46e	0.087746486
141	0xbe5b7d24	-0.21434456
142	0xbb4b30d6	-0.003100445
143	0xbd5eda34	-0.054407313
144	0xbde1cb36	-0.110250875
145	0xbdfb9634	-0.12284508
146	0x3d2a9ba0	0.04165232
147	0x3d2ad566	0.04170742
148	0xbe5919e2	-0.2120128
149	0xbe1ab211	-0.1510699
150	0x3e300351	0.17188765
151	0x3d9a7474	0.07541743
152	0xbe26bf67	-0.16283952
153	0xbdfcf9df	-0.12352347
154	0xbdff8c37	-0.12477916
155	0xbd2c6f7c	-0.042098507
156	0x3e00c4aa	0.12575021
157	0x3d59c343	0.05316473
158	0xbda15897	-0.07878225
159	0x3d3c95b9	0.046041224
160	0x3d9061ab	0.07049879
161	0x3e5e0ecd	0.21685334
162	0xbe0cb6c6	-0.13741598
163	0xbcdbede6	-0.026846837
164	0xbdf5554a	-0.11979158
165	0x3e195d0e	0.14976904
166	0xbd02be7b	-0.031919938
167	0x3c9efd7e	0.019407984
168	0x3e659fe8	0.2242428
169	0x3dbc538e	0.09195624
170	0x3e32b5df	0.17452191
171	0xbe085878	-0.13314998
172	0xbdceb28f	-0.10092651
173	0xbe205435	-0.15657122
174	0x3e0f8b36	0.14017949
175	0xbe563a2d	-0.2092063
176	0xbdb5ded5	-0.088803925
177	0x3e06e8f8	0.13174808
178	0xbd3904a2	-0.045170434
179	0x3d4e8b76	0.05042597
180	0x3e323005	0.1740113
181	0x3d99a90d	0.07502947
182	0xbe1ba649	-0.15200152
183	0xbd7308a1	-0.0593344
184	0x3dd553d6	0.10416381
185	0xbe2cc187	-0.168707
186	0xbe0140ee	-0.12622425
187	0xbdfe4216	-0.12414949
188	0x3dd95bfe	0.10613249
189	0x3e4c449a	0.19948044
190	0x3e077f54	0.13232166
191	0xbda8c04f	-0.08239805
192	0x3e5bd7cc	0.21469039
193	0x3d6dc7df	0.05805194
194	0x3d3cbdf9	0.04607961
195	0xbe68cbbe	-0.22733971
196	0xbd639baf	-0.055568393
197	0x3e5efcd4	0.21776134
198	0xbe7048a7	-0.23465215
199	0xbdbbc17d	-0.09167764
200	0x3e4b24fa	0.19838324
201	0xbd7e09d7	-0.062021103
202	0xbdb88638	-0.09009975
203	0xbe18402b	-0.14868228
204	0xbda70446	-0.08155112
205	0x3d51313c	0.051072344
206	0x3e311816	0.17294344
207	0x3e25caee	0.16190693
208	0x3d38292f	0.04496115
209	0x3d436d40	0.04771161
210	0xbe17549c	-0.1477837
211	0xbdc06419	-0.09394092
212	0xbca8c8d2	-0.020603571
213	0x3c9f8626	0.019473147
214	0xbda59575	-0.08085147
215	0xbc828a79	-0.01593517
216	0xbd8e6c20	-0.06954217
217	0xbc46d1ff	-0.012135028
218	0x3e02328d	0.12714596
219	0x3e591070	0.21197677
220	0xbe10d5ce	-0.1414406
221	0x3e72afa0	0.23699808
222	0xbd8accc1	-0.06777335
223	0xbdfe601f	-0.124206774
224	0xbdf34e8e	-0.118802175
225	0x3dd9ae33	0.10628929
226	0xbe2dfd5d	-0.16991182
227	0x3e70cb77	0.23515116
228	0x3cf400cc	0.029785536
229	0xbe0d5cd4	-0.13804942
230	0x3e3bcdbc	0.183402
231	0x3e063b85	0.13108642
232	0xbd33cebb	-0.043898325
233	0xbde8aecb	-0.11361464
234	0x3dfb198a	0.122607306
235	0xbd2364fa	-0.03989122
236	0xbdd83a42	-0.10557987
237	0x3c0e5c59	0.00868901
238	0xbc362e46	-0.011119431
239	0xbcee97e6	-0.029125165
240	0xbdd5c89e	-0.10438655
241	0x3d817262	0.06320645
242	0x3d60ab71	0.054851
243	0xbe48136e	-0.19538662
244	0xbe0fb433	-0.14033584
245	0x3df1a012	0.11798109
246	0x3d419e1e	0.047269933
247	0xbd91f017	-0.07125872
248	0xbe3af398	-0.18256986
249	0x3e769865	0.24081571
250	0xbe30ef62	-0.17278817
251	0x3e1a96e1	0.15096618
252	0x3e3a141d	0.18171735
253	0xbe41fa18	-0.1894306
254	0x3e25356b	0.16133659
255	0xbe51a86f	-0.20474409

lstm.bias_ih_l0 f4 [512]
0	0x3ca7015b	0.020386389
1	0x3dcc3cb3	0.09972515
2	0x3e3aa710	0.18227792
3	0x3e1053a6	0.1409441
4	0x3d3adf65	0.045623202
5	0x3dce6c3b	0.10079237
6	0x3e53556a	0.20638052
7	0xbbdcd78d	-0.006739563
8	0x3d7b5452	0.06135971
9	0x3d85e25e	0.06537317
10	0x3df841af	0.12121903
11	0x3dbcff66	0.09228401
12	0x3e2518dc	0.16122764
13	0x3e1de846	0.15420637
14	0x3e421af6	0.18955597
15	0x3e4828d6	0.19546828
16	0x3d658df1	0.05604357
17	0x3dc1aec0	0.09457159
18	0x3ddac41b	0.106819354
19	0x3e13d1fe	0.14435574
20	0x3e0721c3	0.13196473
21	0x3e089498	0.13337934
22	0x3e14b67b	0.14522736
23	0x3d1b1357	0.03786024
24	0x3e088044	0.1333018
25	0x3d96f7f3	0.07371511
26	0x3de4d998	0.11174315
27	0x3e34be0e	0.17650625
28	0x3dcc5412	0.09976973
29	0x3dd708ed	0.10499749
30	0x3d3d9239	0.046282027
31	0x3d87f8e0	0.06639266
32	0x3e45e221	0.19324543
33	0x3d423bed	0.04742043
34	0x3d83cd8b	0.064356886
35	0x3e28e47b	0.16493408
36	0x3e359404	0.17732245
37	0x3e620aa8	0.22074378
38	0x3e06ecea	0.13176313
39	0x3e30e412	0.17274502
40	0x3e1e946d	0.15486307
41	0x3e4ce154	0.20007831
42	0x3d7c5c0a	0.061611213
43	0x3e498b8e	0.19682142
44	0x3dedeb2d	0.11617122
45	0x3d8cf339	0.068823285
46	0x3e33ab27	0.17545758
47	0x3defdfbc	0.11712596
48	0x3e2c144e	0.1680462
49	0x3e01179d	0.12606664
50	0x3e10f5c0	0.14156246
51	0x3e39ed21	0.18156864
52	0x3db80e1c	0.08987066
53	0x3e301199	0.17194213
54	0x3e1f006c	0.15527505
55	0x3d89aa2c	0.06721911
56	0x3dcc18d8	0.09965676
57	0x3e355e86	0.17711839
58	0x3dfde562	0.12397267
59	0x3d613a9f	0.054987546
60	0x3e149d60	0.14513159
61	0x3e0291d1	0.12750937
62	0x3ce3c56e	0.027804103
63	0x3e2fc309	0.17164244
64	0x3e029794	0.12753135
65	0x3de37254	0.11105791
66	0x3e3ed85f	0.18637227
67	0x3de5147d	0.111855485
68	0x3e4fc159	0.202886
69	0x3d449ca7	0.048000958
70	0x3dc11260	0.09427333
71	0x3e66ccc0	0.22539043
72	0x3de02a95	0.10945622
73	0x3e4c8851	0.19973876
74	0x3e439f30	0.19103694
75	0x3e0bf0f8	0.13666141
76	0x3e2bd25e	0.16779467
77	0x3dd18511	0.102304585
78	0x3e52fd31	0.20604397
79	0xbc8a5186	-0.016884577
80	0x3e1575d6	0.14595732
81	0x3da0e829	0.07856781
82	0x3e3e09cd	0.18558426
83	0x3df785e9	0.12086088
84	0x3d3143c1	0.043277506
85	0x3e2381c9	0.15967478
86	0x3de16015	0.11004654
87	0x3d20a98a	0.039224185
88	0x3e41866a	0.18898931
89	0x3e0f9176	0.14020333
90	0x3d95df50	0.07317984
91	0x3e143327	0.14472638
92	0x3d177bbc	0.036983237
93	0x3e22a62d	0.15883704
94	0x3a0eeff3	0.00054526253
95	0x3e2281c0	0.15869808
96	0x3c9b8882	0.01898599
97	0x3e1692b4	0.147044
98	0x3d8e7bb4	0.06957188
99	0x3dd9075a	0.10597105
100	0x3e02c720	0.12771273
101	0x3cfc106a	0.030769546
102	0x3ddff4f3	0.10935392
103	0x3d290b0a	0.041270293
104	0x3e414217	0.18872868
105	0x3d21caa4	0.039499894
106	0x3e1857a6	0.14877185
107	0x3e10874c	0.14114112
108	0x3d61e580	0.05515051
109	0x3e31802b	0.17334048
110	0x3e15e5c3	0.14638428
111	0x3e387b70	0.18015838
112	0x3d12161e	0.035665624
113	0x3d2e2593	0.042516302
114	0x3db62637	0.08894008
115	0x3dcb2826	0.09919767
116	0x3e5580bc	0.2084989
117	0x3e36907c	0.17828554
118	0x3e3bf09c	0.18353504
119	0x3e03c929	0.12869705
120	0x3d827138	0.06369251
121	0x3d85f378	0.065405786
122	0x3dc0dc85	0.09417061
123	0x3d0a0e13	0.03370483
124	0x3d59cf41	0.05317617
125	0x3e4b49a9	0.19852318
126	0x3d879253	0.06619706
127	0x3e11c418	0.1423496
128	0x3a5ee15b	0.00085022085
129	0xbd071e03	-0.032987606
130	0x3d81eed7	0.06344383
131	0x3db8cc27	0.09023314
132	0x3cac5d6f	0.021040646
133	0xbc8f68fb	-0.017506113
134	0xbe0a8f4c	-0.13531226
135	0xbc9bf481	-0.019037487
136	0xbc7e1e8e	-0.0155102145
137	0x3d0bcb53	0.034129452
138	0x3dc82282	0.09772207
139	0x3dd839da	0.10557909
140	0x3d854ab5	0.0650839
141	0x3da102ff	0.078618996
142	0xba64472e	-0.00087081164
143	0xbc559bc3	-0.013037625
144	0x3dfddc86	0.12395577
145	0x3a4e2179	0.0007863264
146	0x3b81ad25	0.003957408
147	0xbcd48ec4	-0.025946982
148	0x3cb1bc7f	0.021696327
149	0x3e049a84	0.12949568
150	0xbca27210	-0.01982978
151	0x3dfdccaa	0.12392552
152	0x3dc00ed7	0.093778305
153	0x3d95d091	0.073151715
154	0x3dff4445	0.12464193
155	0x3babcb11	0.0052427133
156	0x3db54a53	0.08852067
157	0xbd446740	-0.04795003
158	0x3d2cb805	0.042167682
159	0xbdc3db6f	-0.09563338
160	0xbc370f51	-0.011173085
161	0x3df20fc4	0.11819413
162	0x3d3d93c4	0.0462835
163	0x3e05dc66	0.13072357
164	0x3d8de597	0.069285564
165	0x3d35cc8b	0.04438452
166	0x3cd3056d	0.025759423
167	0x3dfcda5d	0.12346337
168	0xbb76151f	-0.003754921
169	0xbe0e3f60	-0.13891363
170	0x3da8d63e	0.082439885
171	0x3e0a86d5	0.13527997
172	0x3d8a55c6	0.06754641
173	0xbcb488a9	-0.02203782
174	0x3c80cb0f	0.015721826
175	0x3cd893c1	0.026437642
176	0x3de99862	0.11406018
177	0xbd6491ac	-0.055802986
178	0x3c9ed7cb	0.019390007
179	0xbc53cc95	-0.012927194
180	0x3dfe8cc3	0.12429192
181	0x3e0f5cbd	0.1400022
182	0xbd127d2b	-0.0357639
183	0x3d50ef1c	0.051009282
184	0xbd881c0a	-0.06645973
185	0x3dd9ed0f	0.106409185
186	0x3e08ff93	0.13378744
187	0x3cf84fbf	0.030311463
188	0x3d37aebd	0.044844378
189	0xbc0d8055	-0.008636554
190	0x3ddf0c12	0.10890974
191	0xbbfea883	-0.007771553
192	0x3dc68ef8	0.09695238
193	0x3d1c923f	0.03822541
194	0x3d46bb30	0.04851836
195	0x3dae9e85	0.08526329
196	0x3d30f33f	0.043200728
197	0x3d8ae7a3	0.067824624
198	0x3df21f0c	0.11822328
199	0xbd95a448	-0.07306725
200	0xbdc3b181	-0.095553406
201	0x3d100473	0.035160493
202	0x3c29e0dd	0.010368553
203	0x3de69ad0	0.11259997
204	0x3dc648ce	0.09681855
205	0x3d7a0028	0.061035305
206	0x3df69591	0.12040246
207	0x3d25a651	0.040441815
208	0x3c2d86ae	0.010591192
209	0xbc80ba79	-0.015713917
210	0xbd28d067	-0.041214373
211	0x3c908d27	0.017645432
212	0xbd4f9566	-0.050679587
213	0xbc444445	-0.011979167
214	0xbbc7bffc	-0.0060958844
215	0x3e1d867b	0.15383331
216	0x3e1813aa	0.14851251
217	0x3d72018c	0.059083506
218	0x3d3d8c03	0.046276104
219	0x3de0d124	0.109773904
220	0x3ce1efe7	0.027580215
221	0xbd813f85	-0.063109435
222	0x3de4dfaa	0.11175473
223	0x3de606d9	0.11231775
224	0xbb769faa	-0.0037631788
225	0xbd18cdad	-0.037305523
226	0x3d60552a	0.05476872
227	0x3d05b2d9	0.032641266
228	0x3d9c10f3	0.0762042
229	0x3c90a1ee	0.01765534
230	0x3d1c5abb	0.038172465
231	0xbc0fd9cf	-0.008779957
232	0x3d6f6b00	0.058451653
233	0x3deda5f1	0.116039164
234	0x3d88c5e9	0.06678373
235	0x3c9636d2	0.018336687
236	0xbc0ea550	-0.008706406
237	0xbd02c227	-0.03192344
238	0x3d539ce3	0.05166329
239	0xbbf9fa5b	-0.0076287217
240	0x3e1b3f68	0.15160906
241	0xbc325209	-0.0108838165
242	0x3de43270	0.11142433
243	0x3b7c5021	0.003849991
244	0x3d5d18b4	0.053978637
245	0x3dd63779	0.10459799
246	0x3da366d5	0.07978598
247	0x3dc7d9d3	0.097583435
248	0x3d872522	0.065988794
249	0xbde95e1a	-0.113949016
250	0x3d914860	0.070938826
251	0x3da59d79	0.08086676
252	0x3e019568	0.1265465
253	0xbd1b8ebb	-0.037977915
254	0x3cf7443f	0.03018391
255	0x3dd664ab	0.1046842

lstm.bias_hh_l0 f4 [512]
0	0x3dfc0367	0.123053364
1	0x3d8082e2	0.06274964
2	0x3e2370ac	0.1596095
3	0x3e2021ab	0.15637843
4	0x3d11a5e0	0.03555858
5	0x3c718c24	0.014742885
6	0x3e1153fb	0.14192192
7	0x3deb2641	0.11481906
8	0x3e296eb5	0.16546138
9	0x3e04d7be	0.12972924
10	0x3d9339e1	0.07188774
11	0x3d7b41d1	0.061342064
12	0x3d7ef3df	0.062244292
13	0x3e32225f	0.17395924
14	0x3e518f10	0.2046473
15	0x3e5254e8	0.20540202
16	0x3d058d08	0.0326052
17	0x3ddecd92	0.10879053
18	0x3e098666	0.13430175
19	0x3dcd9467	0.10038071
20	0x3e0ea7ff	0.13931273
21	0x3db42f34	0.08798066
22	0x3e0b0b78	0.13578594
23	0x3d6a9ca7	0.0572783
24	0x3db53565	0.08848075
25	0x3d63f513	0.055653643
26	0x3e2790c8	0.16363823
27	0x3db6704a	0.08908136
28	0x3debd4b2	0.11515178
29	0x3dd8bf59	0.10583372
30	0x3cc07474	0.02349303
31	0x3e047033	0.12933426
32	0x3e25884c	0.16165274
33	0xbb17220b	-0.0023061063
34	0x3d35a0c8	0.044342786
35	0x3d265a45	0.04061343
36	0x3d6637df	0.056205627
37	0x3d5caebd	0.05387758
38	0x3e66b1b0	0.2252872
39	0x3e1ba76f	0.1520059
40	0x3e12edc5	0.14348514
41	0x3e14a822	0.14517263
42	0x3da6425b	0.08118125
43	0x3e1711f8	0.14752948
44	0x3d9e9045	0.07742361
45	0x3dbfd3b1	0.09366549
46	0x3da6ecef	0.0815066
47	0x3aac9071	0.0013165605
48	0x3e2cb8e2	0.16867402
49	0x3e48b3e7	0.19599877
50	0x3e0080bb	0.12549107
51	0x3d8d8d18	0.06911677
52	0x3d8b44de	0.06800245
53	0x3c9627f1	0.018329592
54	0x3e1c19d7	0.15244232
55	0x3d79eac9	0.061014924
56	0x3e200ed9	0.15630664
57	0x3d9dc6d8	0.07703942
58	0x3dd8a3d2	0.10578121
59	0x3e4e8b79	0.20170392
60	0x3df36dd4	0.118861824
61	0x3e29ed0b	0.16594331
62	0x3d8771c7	0.06613498
63	0x3e13a475	0.14418204
64	0x3e0df86b	0.13864295
65	0x3e4c93d5	0.19978268
66	0x3e4682bb	0.19385807
67	0x3bfe7b5f	0.007766172
68	0x3d7eccfd	0.06220721
69	0x3de1013b	0.10986563
70	0x3d7b3407	0.061328914
71	0x3e05aeba	0.13054934
72	0x3e534cc7	0.20634757
73	0x3e504ea9	0.20342506
74	0x3e07dfbb	0.1326894
75	0x3e181142	0.14850333
76	0x3e256b41	0.16154195
77	0x3e47e0c1	0.1951933
78	0x3df37998	0.118884265
79	0x3e1ba5d8	0.15199983
80	0x3d2f8b39	0.042857382
81	0x3e2aec45	0.16691692
82	0x3db5415b	0.08850356
83	0x3e36c210	0.17847466
84	0x3d46ed01	0.04856587
85	0x3e38fd07	0.18065272
86	0x3de6d333	0.11270752
87	0x3e092f71	0.13397004
88	0x3e25c030	0.16186595
89	0x3d667f1d	0.05627357
90	0xbcb94e20	-0.02262026
91	0x3e0f1a4a	0.13974872
92	0x3e08b5e4	0.13350636
93	0x3e1551bb	0.14581959
94	0xbca4aedf	-0.020102916
95	0x3e0fdc62	0.14048913
96	0x3d0f68e9	0.03501216
97	0x3dab554b	0.08365878
98	0x3b52cfc0	0.0032167286
99	0x3e1f9a3a	0.15586177
100	0x3d1cc9fd	0.03827857
101	0x3d29ce43	0.041456472
102	0x3e21c893	0.15799169
103	0x3e138930	0.14407802
104	0x3dba446e	0.09095083
105	0x3dcea63e	0.10090302
106	0x3d9dd6cc	0.07706985
107	0x3e4f537e	0.20246693
108	0x3d624264	0.055239096
109	0x3debf9d6	0.11522262
110	0x3dbd209d	0.09234736
111	0x3e5127b3	0.204253
112	0x3d05fd9a	0.032712556
113	0x3da94fe9	0.08267195
114	0x3d4d9056	0.050186478
115	0x3d110416	0.035404287
116	0x3dfbce33	0.12295189
117	0x3e268469	0.16261448
118	0x3e4d0872	0.20022753
119	0x3e3d2099	0.18469466
120	0x3e0470e0	0.12933683
121	0x3da10f05	0.07864193
122	0x3da790cd	0.081819154
123	0xbb1c955b	-0.0023892734
124	0x3be47795	0.006972263
125	0x3dad154a	0.08451326
126	0x3d9b6b0f	0.07588779
127	0x3ca9111a	0.020638037
128	0x3d37e4ed	0.044896055
129	0xbd4a75de	-0.049428813
130	0x3dc8c572	0.09803285
131	0x3d66b92e	0.056328945
132	0x3d4d6992	0.050149508
133	0x3d485eb3	0.048918437
134	0xbc747b1f	-0.0149219325
135	0x3d1eaea6	0.038740776
136	0xbd1d5677	-0.038412537
137	0x3b25d7b5	0.0025305573
138	0x3b9e676c	0.004834106
139	0x3e1583ac	0.1460101
140	0x3d6cae0d	0.057783175
141	0x3dca2bd4	0.09871641
142	0xbd1bb205	-0.03801157
143	0x3d074e48	0.03303364
144	0x3de47ca6	0.11156587
145	0x3de08284	0.10962394
146	0x3d5cdcbe	0.053921454
147	0x3dd7509a	0.105134204
148	0x3dd96f63	0.106169485
149	0xbc8e7400	-0.017389297
150	0x3d6a34c5	0.05717923
151	0x3e0b1a88	0.1358434
152	0x3e03b762	0.12862924
153	0x3dcc5094	0.099763066
154	0x3d218b0a	0.03943924
155	0x3d8ba971	0.06819428
156	0x3d87d6d7	0.06632774
157	0xbc8c4ee0	-0.017127454
158	0x3d818990	0.06325066
159	0xbdf7f9fa	-0.12108226
160	0xbcac9bbc	-0.021070354
161	0x3d924378	0.07141775
162	0xbc3b199d	-0.011419681
163	0x3e126efb	0.14300148
164	0xbd005774	-0.0313334
165	0xbbe19ef6	-0.0068854047
166	0xbd614928	-0.055001408
167	0x3c8a8626	0.01690967
168	0x3cfc99f1	0.030835124
169	0xbe4cf757	-0.20016228
170	0x3cbb867d	0.022891277
171	0x3c64a745	0.013955896
172	0x3d82ed57	0.06392925
173	0x3db393e9	0.08768446
174	0x3debaa37	0.11507075
175	0x3dacb9b7	0.0843386
176	0x3b6482e7	0.0034868063
177	0x3d8ddc2e	0.069267616
178	0x3d9fe70b	0.0780774
179	0xbcf73d79	-0.03018068
180	0x3d47b80d	0.04875951
181	0x3e20b7bf	0.15695094
182	0x3d911b62	0.07085301
183	0x3d4bc990	0.04975277
184	0x3d156e28	0.036482006
185	0x3da3e58e	0.080027685
186	0x3d8d35b5	0.068950094
187	0xbcde9949	-0.027172701
188	0x3db3befe	0.08776663
189	0x3df73fc2	0.12072708
190	0x3e03365b	0.12813704
191	0xbb03ddcf	-0.0020121222
192	0x3dc576ee	0.09641825
193	0x3caaf906	0.020870697
194	0x3d55f950	0.052239716
195	0x3d88fe7d	0.06689165
196	0x3cf330ef	0.02968642
197	0xbc1a6bcc	-0.009425115
198	0x3ddff0e0	0.10934615
199	0x3b5b0cec	0.003342445
200	0x3d933e76	0.07189648
201	0xbcb5ef7c	-0.022208922
202	0xbd12df9d	-0.035857785
203	0x3cf22e67	0.029563142
204	0x3da68e80	0.081326485
205	0xbd46484b	-0.048408788
206	0x3c3361a0	0.010948569
207	0x3e017512	0.12642315
208	0x3d01835c	0.031619415
209	0x3d9c1074	0.07620326
210	0xbcdfc2eb	-0.027314624
211	0x3d1c2858	0.038124412
212	0x3d9c10d9	0.07620401
213	0x3c62c45f	0.013840764
214	0x3e1675fd	0.14693446
215	0x3de4814d	0.11157475
216	0x3e02c96f	0.12772153
217	0x3ca0c8fc	0.019627087
218	0x3cc248f7	0.023716433
219	0x3d8f5ab8	0.06999725
220	0x3e09cb94	0.13456565
221	0x3da43934	0.08018723
222	0x3dd04664	0.10169676
223	0x3de37577	0.11106389
224	0x3ca238a4	0.019802399
225	0x3dc158a8	0.09440738
226	0xbc2e1a68	-0.010626413
227	0x3db1fc97	0.08690756
228	0xbd255336	-0.04036256
229	0xbbf1412e	-0.0073625064
230	0x3b459126	0.003014633
231	0x3d07eefe	0.033186905
232	0xbcf9c7c6	-0.030490767
233	0x3e0f4202	0.13990024
234	0xbd943ae0	-0.07237792
235	0x3d51dff0	0.051238954
236	0x3cada316	0.02119593
237	0x3c2c4623	0.010514769
238	0x3e2211ac	0.15827054
239	0xbbf0b79a	-0.0073461058
240	0x3d8a4be8	0.06752759
241	0x3ceb4197	0.0287178
242	0x3d5cb0c2	0.053879507
243	0x3b2c0ce8	0.002625281
244	0xbd840d18	-0.0644781
245	0x3ca4e22a	0.020127375
246	0xbd7bbb99	-0.061458204
247	0xbd329bfe	-0.043605797
248	0x3e23ac97	0.15983807
249	0xbcf288cc	-0.029606245
250	0x3db9252b	0.09040292
251	0x3c48b518	0.012250207
252	0x3df4460b	0.11927422
253	0x3cc306f1	0.02380702
254	0x3dec80e6	0.11548023
255	0xbc8295b6	-0.015940528

fc.weight f4 [41, 128]
0	0xbe34b161	-0.1764579
1	0x3d235806	0.039878868
2	0x3dc2be58	0.095089614
3	0x3e941614	0.28923094
4	0xbe16d435	-0.14729388
5	0x3d026e38	0.031843394
6	0xbd824eb0	-0.06362665
7	0x3c552b97	0.013010881
8	0x3d6e1b7b	0.058131676
9	0xbe1d41b5	-0.15357096
10	0xbdf2da0a	-0.11857994
11	0x3e1acbbd	0.15116782
12	0xbda4255c	-0.08014938
13	0x3e0c9567	0.13728867
14	0xbe70cc20	-0.23515368
15	0xbe3fa40f	-0.18714927
16	0x3e71293c	0.23550886
17	0xbbab76c9	-0.005232666
18	0x3de977b4	0.11399785
19	0x3e378a59	0.17923869
20	0x3e51c7ae	0.20486328
21	0xbe5727b9	-0.21011247
22	0xbd8b2269	-0.067936726
23	0xbe6f5056	-0.2337049
24	0x3dc6130f	0.09671604
25	0x3e948356	0.2900645
26	0xbd681534	-0.056660846
27	0xbdf6762b	-0.120342575
28	0xbe4c7948	-0.1996814
29	0x3db5737d	0.08859918
30	0x3c7005ca	0.014649818
31	0xbe833cc4	-0.25632298
32	0x3d643451	0.055713955
33	0x3cbe673f	0.023242591
34	0x3d7e0acd	0.06202202
35	0x3c7da19b	0.015480424
36	0xbe0691d0	-0.1314156
37	0xbe03f63a	-0.12886897
38	0x3e6fca39	0.23416986
39	0x3e348ead	0.17632551
40	0xbd2cc513	-0.042180132
41	0x3dfa6a7c	0.122273415
42	0x3e051d92	0.12999561
43	0x3e9558e2	0.29169375
44	0x3e29ade0	0.16570234
45	0x3cb6f12c	0.022331797
46	0x3d5ea5a3	0.054357182
47	0x3e296462	0.16542199
48	0xbe40f3dc	-0.18843025
49	0xbe8cca45	-0.2749807
50	0x3e29896b	0.16556327
51	0x3def9002	0.11697389
52	0xbc7e3bb6	-0.015517166
53	0xbe11f6a9	-0.1425425
54	0x3c8d34de	0.017237123
55	0x3dcf3f55	0.101195015
56	0xbe77bee8	-0.24193919
57	0x3e8aebfd	0.2713317
58	0x3e1fdf45	0.15612514
59	0xbe8dec65	-0.27719417
60	0x3e066bd7	0.13127075
61	0x3e69bb77	0.22825418
62	0x3e2f37c9	0.17111124
63	0x3e561ef7	0.2091025
64	0xbb29596a	-0.0025840648
65	0xbe568f7d	-0.20953174
66	0x3e7554fb	0.23958199
67	0x3ea993a6	0.3312046
68	0x3d9e5e7c	0.07732865
69	0xbe005bb3	-0.1253498
70	0x3e474aef	0.19462179
71	0xbdaf191a	-0.085497096
72	0x3de2c9a7	0.110736184
73	0x39ed3eb1	0.0004525087
74	0xbe11d134	-0.14239961
75	0x3e83360e	0.25627178
76	0x3dbf44f0	0.09339321
77	0x3e469a6a	0.19394842
78	0xbe6e3b5c	-0.23264831
79	0x3dca7c6c	0.09887013
80	0x3d957f58	0.072996795
81	0x3c252548	0.010079689
82	0x3daad43f	0.08341264
83	0x3c76f35c	0.01507267
84	0x3d96817c	0.07348916
85	0xbe380031	-0.17968823
86	0x3e0f1589	0.13973059
87	0x3e764ec6	0.24053487
88	0xbd827ef3	-0.0637187
89	0xbe2044fb	-0.15651314
90	0xbe15ef82	-0.14642146
91	0xbe0f6454	-0.14003116
92	0x3ddb4b31	0.10707701
93	0xbbdb5e55	-0.006694595
94	0xbcac1e62	-0.021010581
95	0x3dc45a1a	0.09587498
96	0x3e03aded	0.12859316
97	0xbc233167	-0.009960509
98	0x3e7039fc	0.2345962
99	0xbe6efa1b	-0.23337595
100	0xbe276033	-0.16345291
101	0xbe6f911c	-0.23395199
102	0xbdf7d622	-0.121013895
103	0x3df023a8	0.11725551
104	0x3e58009a	0.2109398
105	0x3d529c44	0.051418558
106	0xbe6dfae7	-0.23240243
107	0xbe0ed2f8	-0.13947666
108	0xbe0ebc32	-0.13938978
109	0xbdb9a709	-0.090650626
110	0x3e8f4f81	0.27990344
111	0xbdef9768	-0.116988
112	0xbdca014b	-0.09863528
113	0xbe8331ec	-0.25624025
114	0xbdf57e94	-0.119870335
115	0x3e8a79a8	0.2704594
116	0x3e2117a5	0.15731676
117	0xbe9c425c	-0.30519378
118	0x3e891919	0.2677696
119	0xbe813ec0	-0.25243187
120	0x3e6a64a7	0.22889958
121	0xbe5441f7	-0.20728289
122	0x3b991c1b	0.00467254
123	0xbe04550b	-0.12923066
124	0x3bbd3793	0.005774447
125	0x3de3a74e	0.11115895
126	0xbe48fa37	-0.196267
127	0xbb57a6f9	-0.003290592
128	0xbe9d924e	-0.30775684
129	0x3e8115c2	0.25211912
130	0x3e2b78ea	0.16745344
131	0x3e93914d	0.28821793
132	0xbe0fe9af	-0.14053987
133	0xbdb2a506	-0.08722882
134	0xbe7eef8a	-0.24896064
135	0xbde74872	-0.11293115
136	0x3e5ca05a	0.21545544
137	0x3e8e992a	0.2785123
138	0xbdbe3df1	-0.09289158
139	0xbdb6ecee	-0.089319095
140	0x3e9a6810	0.30157518
141	0xbe017069	-0.12640537
142	0xbe0b97c4	-0.13632113
143	0xbe4851eb	-0.19562499
144	0x3e6e9df4	0.23302442
145	0xbcf68803	-0.030094152
146	0x3e906f0d	0.28209725
147	0x3e1294a2	0.14314511
148	0xbe56cf34	-0.20977479
149	0xbe675328	-0.22590315
150	0xbe738e75	-0.23784812
151	0x3e8a29cf	0.26985022
152	0xbd122bbe	-0.035686247
153	0xbe300e53	-0.17192964
154	0x3de9b3da	0.11411257
155	0xbe4caca2	-0.19987729
156	0xbe46a97d	-0.19400592
157	0x3e2b5c48	0.16734421
158	0xbd70b7de	-0.0587691
159	0xbe8180d1	-0.25293592
160	0xbd201068	-0.039078146
161	0x3ca67e3f	0.02032387
162	0xbe6bcc06	-0.23027048
163	0xbe8d0083	-0.27539453
164	0xbd5fe16f	-0.05465835
165	0xbe4eb314	-0.201855
166	0x3e9b61b6	0.30347985
167	0x3e9976e5	0.29973522
168	0xbe2fc54d	-0.17165108
169	0x3e5edcf2	0.21763971
170	0xbe91f941	-0.28510478
171	0xbe9147f5	-0.2837521
172	0xbe47e571	-0.19521119
173	0xbe1fe4e4	-0.15614659
174	0x3cec466a	0.02884217
175	0xbd5234af	-0.051319774
176	0x3e21e8bf	0.15811442
177	0xbe76a2d4	-0.24085552
178	0x3e20eb7b	0.15714829
179	0xbdcbeadd	-0.09956906
180	0x3c1bc8a9	0.00950829
181	0xbe6b51f4	-0.22980481
182	0x3e4ceac6	0.20011434
183	0xbe4b0274	-0.19825155
184	0xbe5c8184	-0.21533781
185	0x3e993a87	0.29927465
186	0x3e44fd4a	0.19237247
187	0x3e239502	0.1597481
188	0xbe9ac261	-0.30226424
189	0x3e0e57d5	0.13900693
190	0x3e0125a1	0.1261201
191	0xbe72ec96	-0.23723063
192	0xbcec9ea9	-0.028884249
193	0x3e928d91	0.28623632
194	0xbea57320	-0.32314396
195	0x3df7af70	0.12094009
196	0xbd694c77	-0.05695769
197	0xbe727d09	-0.2368051
198	0xbe5caf4a	-0.21551242
199	0xbeafd55d	-0.3434247
200	0x3e8297cd	0.2550644
201	0xbead72c4	-0.33876622
202	0xbe3ebf8f	-0.18627761
203	0x3e76af34	0.24090272
204	0xbe8fba78	-0.28071952
205	0x3deacd74	0.11464968
206	0xbe47569b	-0.19466631
207	0x3e130962	0.14359048
208	0x3de36077	0.111023836
209	0x3dd34d00	0.10317421
210	0xbe258a57	-0.16166054
211	0xbdd60e30	-0.10451925
212	0x3d01653c	0.031590685
213	0xbbd7c1cd	-0.006584382
214	0x3df01ccb	0.11724242
215	0x3db91759	0.09037656
216	0xbe0e03a6	-0.1386858
217	0x3e671251	0.22565581
218	0x3e627a47	0.22116958
219	0x3d9ba984	0.07600692
220	0xbe45877b	-0.19289963
221	0x3e6f8180	0.23389244
222	0x3e79a942	0.24380973
223	0x3e40446f	0.18776105
224	0x3d49b3aa	0.049243607
225	0x3e2f7d80	0.17137718
226	0x3e5b74fb	0.21431343
227	0xbe52002c	-0.20507878
228	0xbe5ae42c	-0.21376103
229	0xbe08712c	-0.13324422
230	0x3e1c2dd0	0.15251851
231	0x3e8c4f28	0.2740414
232	0x3e74758e	0.23872969
233	0x3d721f94	0.059112146
234	0x3e39a072	0.18127611
235	0xbda70bf1	-0.081565745
236	0x3e7632a7	0.2404276
237	0xbcd02db3	-0.025412416
238	0xbe21ecfb	-0.15813057
239	0xbe5497b9	-0.20761003
240	0xbe2c1706	-0.16805658
241	0xbe981cd7	-0.29709503
242	0xbba84ee3	-0.005136357
243	0xbe850d55	-0.25986734
244	0x3e76485b	0.24051039
245	0xbdbab098	-0.09115714
246	0xbea09570	-0.31364012
247	0xbea3f53f	-0.32023045
248	0x3e0b8d9b	0.13628237
249	0xbe1fb611	-0.15596797
250	0x3dd77204	0.10519794
251	0xbdb0cff9	-0.08633418
252	0xbe89cabd	-0.2691249
253	0x3e9d8527	0.3076565
254	0x3e10aa9d	0.14127584
255	0xbe2c8f1f	-0.16851471

fc.bias f4 [41]
0	0xbdb42822	-0.08796717
1	0x3d40918d	0.047013808
2	0x3c2f838c	0.010712516
3	0xbe1ee94f	-0.15518688
4	0x3c0822fe	0.008309124
5	0x3cf43862	0.029812042
6	0x3de5faae	0.11229454
7	0x3db6af71	0.089201815
8	0x3c898c4d	0.016790533
9	0xbc83c042	-0.016082887
10	0xbe0fa873	-0.14029102
11	0xbe292b66	-0.16520461
12	0xbd2943b1	-0.04132432
13	0x3cd4babd	0.02596795
14	0xbb123848	-0.0022311378
15	0xbd580e19	-0.05274782
16	0xbe07bd8d	-0.13255902
17	0xbe15dc98	-0.14634931
18	0xbdd734c9	-0.10508115
19	0x3c973430	0.018457502
20	0xbc2059e2	-0.009787055
21	0xbd5b16c3	-0.053488504
22	0x3b961ca1	0.0045810496
23	0xbd35c6ce	-0.044379048
24	0xbcef6d62	-0.029226962
25	0xbd4b4176	-0.049622975
26	0x3de52851	0.1118933
27	0x3cfe3e01	0.031035425
28	0x3c7ac725	0.015306269
29	0x3d817aa6	0.063222215
30	0xbe1728dc	-0.1476168
31	0xbde41434	-0.11136666
32	0xbe0cdaa3	-0.13755278
33	0x3d8fae52	0.07015671
34	0xbd032d23	-0.032025468
35	0x3c2e92bb	0.0106551
36	0xbe1a269d	-0.15053792
37	0x3cd62f25	0.026145527
38	0xbdff01c3	-0.12451508
39	0xbdc652f6	-0.09683792
40	0x3caa48db	0.020786693
