Portfolio-Projects/CodeMiner-AI/python_brain.pth (torch, 432274 bytes, 7 tensors)

embedding.weight f4 [41, 64]
0	0xbd540bf8	-0.051769227
1	0x3f4bfc5e	0.79681957
2	0x3e2157cd	0.1575615
3	0x3eb8e128	0.3610928
4	0xbddf7995	-0.10911862
5	0x3f220164	0.6328337
6	0x3f091f92	0.535638
7	0xbf312e40	-0.69211197
8	0x3f27b393	0.65508384
9	0x3f970dfe	1.1801145
10	0x3f688cd7	0.90839905
11	0xbfa2003f	-1.2656325
12	0xbe8f2e0c	-0.27964818
13	0xbf0d16ba	-0.55112803
14	0xbebcdd07	-0.3688738
15	0x3fa23ecc	1.2675414
16	0x3eae8495	0.34085527
17	0x3fef80fb	1.8711237
18	0xbdf39d2d	-0.11895213
19	0xbebd6825	-0.36993518
20	0xbf81a424	-1.0128217
21	0x3fae4e20	1.3617592
22	0x3bdec3eb	0.0067982576
23	0xbd51061e	-0.051031224
24	0xbeb249e8	-0.3482201
25	0x3eeb1600	0.45915222
26	0xbf7d47d4	-0.98937726
27	0xbf765929	-0.962298
28	0x3f927db0	1.1444607
29	0xbf37eb82	-0.7184373
30	0xbf2d093e	-0.6759223
31	0xbf16e9e9	-0.5895067
32	0xbf6393be	-0.8889731
33	0x3d4a3c7e	0.049374096
34	0x3ea398e0	0.31952572
35	0xbf1e0989	-0.617333
36	0x3fe0066c	1.750196
37	0xbfafbd1e	-1.3729589
38	0x3fc4bb62	1.5369685
39	0xc00b044a	-2.1721368
40	0xbedd0c58	-0.4317348
41	0xbf484d7f	-0.7824325
42	0x3eea148f	0.4571881
43	0x3ec658a4	0.38739502
44	0xbeea2b10	-0.4573598
45	0x3e3f7b66	0.18699417
46	0x3f4cd033	0.80005187
47	0x3dc8b88e	0.09800826
48	0x3f054140	0.5205269
49	0x3f523806	0.82116735
50	0x3e065bfe	0.1312103
51	0xbf172a9b	-0.59049386
52	0x3f6e7866	0.93152463
53	0x3f1e93e4	0.61944413
54	0xbe772c04	-0.24137884
55	0xbf660246	-0.8984722
56	0xbf06469c	-0.5245149
57	0xbf1313cf	-0.574521
58	0xbf97d9e5	-1.1863371
59	0x3f4d4e44	0.8019755
60	0x3fd7f090	1.6870289
61	0x3f3e0f44	0.74242043
62	0xbf37ad26	-0.7174858
63	0x3f58c50d	0.84675676
64	0xbf6b8a81	-0.92008215
65	0x3fc797d2	1.5593207
66	0xbf0e90dc	-0.5568979
67	0x3f775463	0.9661314
68	0x3eaecc66	0.3414032
69	0xbf796854	-0.9742482
70	0x401269e4	2.287713
71	0x401c4c60	2.4421616
72	0x3f40eca9	0.75361115
73	0x3f0940e7	0.5361466
74	0x4016a40e	2.353763
75	0x3f5b3c51	0.8563891
76	0x3f296596	0.6617063
77	0xbfe8f63c	-1.8200145
78	0xbfe1c74c	-1.7638946
79	0x3f4a0c07	0.789246
80	0x3f62d263	0.88602275
81	0xbdc05893	-0.09391894
82	0xbe93b40f	-0.2884831
83	0xbe5e93a6	-0.21736011
84	0xbf94ee72	-1.1635268
85	0xbe4b8a8f	-0.19877075
86	0x3f90087f	1.1252593
87	0x3e88081e	0.26568693
88	0xbff33e1f	-1.9003333
89	0xbfdbe921	-1.718052
90	0x3e54f4ef	0.2079656
91	0x3ea4cf0f	0.32189223
92	0xbf084344	-0.5322764
93	0x3fc62703	1.5480655
94	0xbf9316e9	-1.1491367
95	0x3f86ffa3	1.0546764
96	0xbf4a9525	-0.79133826
97	0xbfd9dc10	-1.7020283
98	0xbec366ed	-0.38164464
99	0xbf59cca1	-0.85077864
100	0x3e58ed55	0.21184285
101	0x3e4be02c	0.19909734
102	0xbfa5aaed	-1.2942787
103	0x3f3a17e0	0.7269268
104	0x3f42d2d7	0.76102966
105	0x3da05415	0.078285374
106	0x3d9f1e7f	0.077694885
107	0x3f872b5b	1.0560106
108	0xbea3af53	-0.319697
109	0x3f828f6b	1.0200018
110	0xbf05cc7e	-0.52265155
111	0x3faa8215	1.3320948
112	0xbe72ec83	-0.23723035
113	0xbf86ba6e	-1.0525644
114	0x3fe3157d	1.7740933
115	0x3c8fedf9	0.017569529
116	0xbfa0ff91	-1.2577993
117	0xbfe50fd6	-1.7895458
118	0xbf18bacf	-0.5966005
119	0x3f1d9a89	0.61563927
120	0xbf8ad7d0	-1.0847111
121	0x3e73856a	0.23781362
122	0xbe9cda46	-0.3063528
123	0xbdb446c9	-0.08802564
124	0xbfedace0	-1.8568382
125	0xbe9551c5	-0.29163948
126	0xbf3cf246	-0.7380718
127	0x3f416e6a	0.75559103
128	0xbfd88758	-1.6916304
129	0xbe897ca0	-0.26852894
130	0xbf823095	-1.0171076
131	0x400f831f	2.242378
132	0x3f8728a2	1.0559275
133	0x3f34d2f3	0.7063438
134	0xbf37be69	-0.7177492
135	0xbfe32de1	-1.7748376
136	0xbda828d8	-0.08210915
137	0xbeb9cd49	-0.36289433
138	0xbd3ff0d9	-0.04686055
139	0x3ed859cf	0.4225602
140	0xbdbe4289	-0.09290034
141	0xbf7a45eb	-0.97762936
142	0xc008f863	-2.1401603
143	0xbf5e132a	-0.8674799
144	0x403d16eb	2.9545238
145	0x3f717d51	0.9433184
146	0xbf327ad6	-0.6971868
147	0x3f585e9c	0.8451936
148	0xbf852327	-1.0401353
149	0x3fb7f0c3	1.437035
150	0xbe6b6964	-0.22989422
151	0x3f05dce4	0.5229018
152	0x3e041c6e	0.1290147
153	0xbed0338e	-0.40664333
154	0xbf0154e8	-0.5052018
155	0x3e6eec74	0.23332387
156	0xbf88d0e3	-1.0688747
157	0x40009f71	2.0097315
158	0xbf8dfd2e	-1.1092889
159	0x40066442	2.0998693
160	0xc00ce1a4	-2.201272
161	0xbef0bdfb	-0.47019944
162	0x3fa3a10c	1.2783523
163	0x3fce938a	1.6138775
164	0x3edceaea	0.43147975
165	0x3f1e8930	0.6192808
166	0x3c842916	0.016132873
167	0x3f2bcd33	0.67109984
168	0xbe8ab0dd	-0.2708806
169	0xbf1cdc56	-0.61273706
170	0xc00d147b	-2.204375
171	0x3e506869	0.2035233
172	0xbde38a73	-0.111103915
173	0x3e022008	0.12707531
174	0xbff0e70b	-1.8820509
175	0x3eff9103	0.49915323
176	0x3f33779d	0.7010439
177	0x3eac4f6f	0.33654353
178	0xbf9315d1	-1.1491033
179	0xbf95b607	-1.1696175
180	0xbedf0747	-0.4356024
181	0xbfaa2b98	-1.3294554
182	0x3f8d42b6	1.1035984
183	0xbf5357cf	-0.8255586
184	0xbfe6866f	-1.8009776
185	0xbb270d6a	-0.0025490173
186	0xbec1935b	-0.37807736
187	0x3ffe69b4	1.9876008
188	0x3eb73c2a	0.3578809
189	0x3f51dcb1	0.81977373
190	0x3fec7108	1.8471994
191	0xbf1723c4	-0.5903895
192	0x3f871b48	1.05552
193	0x3da6c781	0.08143521
194	0x3f9f835f	1.2461966
195	0xbf40276f	-0.7506017
196	0x3d7329d5	0.059366066
197	0xbfa2d85b	-1.2722276
198	0xbf348e7f	-0.7052993
199	0xbe3276b5	-0.17428096
200	0xbf10ffb9	-0.566402
201	0x3fa9bc24	1.3260541
202	0xbe59e3c0	-0.21278286
203	0x3e9ebe2b	0.31004462
204	0x3db02f1d	0.08602736
205	0xbc393336	-0.011303714
206	0x3f71cbd9	0.9445167
207	0x3ffd8db4	1.9808869
208	0x3f95a099	1.1689636
209	0xbf2da95a	-0.67836535
210	0x3e17dbaa	0.14829889
211	0xbf4de033	-0.80420226
212	0xbd4da762	-0.050208457
213	0x3f53a352	0.8267108
214	0xbf2581e8	-0.64651346
215	0x3f6f304d	0.93433076
216	0x3da7f8b1	0.08201731
217	0x3f8d443f	1.1036452
218	0xbd02b101	-0.031907085
219	0x3e06ecdf	0.13176297
220	0x3f4097a8	0.7523141
221	0x3bfd273f	0.0077256258
222	0x3daf8036	0.08569376
223	0x3ef6ef29	0.4822934
224	0x3f096252	0.5366565
225	0xbe97a1cc	-0.2961563
226	0x3da17f04	0.078855544
227	0xbf04996b	-0.517966
228	0xbfa1ee6b	-1.2650884
229	0x3f89ef6d	1.0776192
230	0x3f89ce91	1.0766164
231	0x3f066bc7	0.52508205
232	0xbfefa3ca	-1.872186
233	0xbf1995ee	-0.599944
234	0xbfa26b4b	-1.2688993
235	0x3f1a9cb8	0.60395384
236	0x3f141e58	0.578588
237	0x3fd530ab	1.6655477
238	0xc01c4994	-2.4419909
239	0xbe728a26	-0.23685512
240	0xbfa63185	-1.2983862
241	0x3f5919d3	0.8480503
242	0xbf0bb1c8	-0.5456815
243	0xbfa151e6	-1.2603118
244	0x3d8e5b53	0.069510125
245	0x4014a8c6	2.322801
246	0x3ed4a6d7	0.4153354
247	0x3fc3ae70	1.5287609
248	0x3f53e8f1	0.82777315
249	0x3f8bd10a	1.0923169
250	0x3f95794d	1.1677643
251	0x3f270ea6	0.65256727
252	0xbf86f6d6	-1.0544078
253	0x3f9028f3	1.1262497
254	0x3f6fd3cc	0.9368255
255	0xbf655515	-0.8958295

lstm.weight_ih_l0 f4 [512, 64]
0	0x3d31c7de	0.0434035
1	0xbe5f3b8b	-0.21800058
2	0xbd8f8b7d	-0.07009027
3	0xbcf94f1f	-0.030433236
4	0x3c30318e	0.010754002
5	0xbca8914a	-0.020577092
6	0x3e04a179	0.12952222
7	0xbe0a2b66	-0.13493118
8	0xbe0a57af	-0.13510011
9	0xbdc12e8b	-0.094327055
10	0x3e2285b6	0.15871319
11	0x3dd78308	0.10523039
12	0xbe322145	-0.17395504
13	0xbd809f4d	-0.06280384
14	0xbe25f4b3	-0.16206627
15	0x3bae8d87	0.00532693
16	0x3d640d2e	0.05567663
17	0x3da64a55	0.081196465
18	0xbc5798d8	-0.013158999
19	0xbe574f03	-0.21026234
20	0x3cf96b4d	0.030446673
21	0xbdbff66b	-0.093731724
22	0xbb6bb1e2	-0.003596418
23	0xbe8abd44	-0.27097523
24	0x3d833f5d	0.0640857
25	0xbe0871bb	-0.13324635
26	0x3dbb6654	0.09150377
27	0x3df53b9f	0.119742624
28	0xbe211631	-0.15731122
29	0x3d8036ea	0.06260474
30	0x3d69be4e	0.057066254
31	0xbc083f3b	-0.008315857
32	0xbdf3f500	-0.119119644
33	0x3dc03668	0.09385377
34	0x3e19961d	0.1499867
35	0x3d154f63	0.036452662
36	0xbd827cc9	-0.06371457
37	0xbd1f661c	-0.03891574
38	0xbdacba53	-0.08433976
39	0xbe5a6b17	-0.21329914
40	0x3dc428eb	0.09578117
41	0xbdef68f9	-0.11689944
42	0xbe11f120	-0.14252138
43	0x3cdb554d	0.026774073
44	0xbd7dcb43	-0.061961424
45	0x3e5c1992	0.2149413
46	0xbe121656	-0.14266333
47	0x3dc4d068	0.09610063
48	0x3dd8df4e	0.10589467
49	0x3d06a5b8	0.032872885
50	0xbd8bb81a	-0.06822224
51	0xbd9ff57c	-0.07810494
52	0xbdeade75	-0.114682116
53	0xbd99a801	-0.07502747
54	0xbccd7bf6	-0.025083523
55	0xbe4e882e	-0.20169136
56	0xbe2d86ad	-0.16945906
57	0x3e06fc82	0.13182262
58	0xbe29064c	-0.16506308
59	0xbdf0b6c6	-0.11753611
60	0xbd3b594c	-0.045739457
61	0x3e18805f	0.1489272
62	0x3e2e62de	0.17029902
63	0xbdb06e3a	-0.08614774
64	0xbe25b1ec	-0.16181153
65	0x3d1129d1	0.03544027
66	0x3e1038ed	0.14084215
67	0xbdb830e7	-0.089937024
68	0xbe2a4475	-0.16627677
69	0xbd48d655	-0.049032528
70	0x3e41d2d6	0.18928084
71	0x3cee2410	0.02906993
72	0x3e1d427a	0.1535739
73	0x3e36f9b9	0.17868699
74	0xbe19ceb4	-0.15020257
75	0x3cf95af8	0.030438885
76	0x3db790d6	0.08963172
77	0x3e325252	0.17414215
78	0x3d8a24db	0.06745311
79	0x3c073a29	0.008253613
80	0x3da698f9	0.08134646
81	0x3e38552c	0.1800124
82	0xbc4ff5f8	-0.012692921
83	0xbb94f907	-0.004546288
84	0x3d271e2d	0.040800262
85	0xbd610aed	-0.05494206
86	0x3d7961dc	0.06088434
87	0xbd24ff96	-0.04028281
88	0x3d7d72b5	0.06187697
89	0xbe07c3a8	-0.1325823
90	0x3d2b3146	0.041795038
91	0xbdb9a137	-0.090639524
92	0xbb51f7be	-0.0032038535
93	0xbd60b1cd	-0.054857064
94	0xbd2c9b6c	-0.04214041
95	0x3d342934	0.043984607
96	0x3d037de5	0.032102484
97	0x3d844766	0.06458931
98	0xbd785c66	-0.060634993
99	0x3b359c03	0.0027711398
100	0xbdfb7b28	-0.122793496
101	0x3d0bb305	0.034106273
102	0x3e108769	0.14114155
103	0xbdffbf35	-0.12487642
104	0xba7aa966	-0.00095619855
105	0x39f35eab	0.00046419105
106	0x3dad8788	0.08473116
107	0x3db59322	0.08865954
108	0xbcf3aae0	-0.029744565
109	0x3d88c19c	0.06677553
110	0x3e28da66	0.16489562
111	0xbd685ce6	-0.05672922
112	0x3da465fa	0.08027263
113	0x3d50b0c3	0.050949823
114	0x3e22c4e8	0.15895426
115	0x3daa30ae	0.08310066
116	0xbc84a9da	-0.016194273
117	0x3da30835	0.0796055
118	0xbd0b320c	-0.033983275
119	0x3d0faa4f	0.03507453
120	0xbdb0367c	-0.08604142
121	0xbe1ca23d	-0.15296264
122	0xbe0cffff	-0.1376953
123	0xbd29fdcb	-0.0415018
124	0x3e149810	0.14511132
125	0x3e062619	0.1310047
126	0xbd4d1715	-0.05007084
127	0x3e308f74	0.17242223
128	0x3b2682b0	0.0025407486
129	0xbd207df9	-0.039182637
130	0xbdd606b0	-0.10450494
131	0x3ccb51a3	0.0248192
132	0xbe09ff81	-0.13476373
133	0xbb2035af	-0.002444606
134	0x3dacab02	0.08431055
135	0xbc5810a2	-0.013187559
136	0x3e03cc0f	0.12870811
137	0xbcdbc092	-0.026825223
138	0x3e054f07	0.13018428
139	0xbda64dc0	-0.081202984
140	0x3b68a564	0.003549897
141	0xbe0aa5a2	-0.13539746
142	0xbe4abcda	-0.19798604
143	0x3e0d37a6	0.1379076
144	0xbc01f9bd	-0.007933077
145	0xbe0f798e	-0.14011213
146	0x3c310efc	0.010806795
147	0x3dbac84f	0.09120237
148	0xbdd0ca43	-0.10194828
149	0xbc7e68c8	-0.0155279115
150	0x3dc4f316	0.096166775
151	0xbb8a2dd2	-0.004216888
152	0x3e03cd23	0.12871222
153	0xbcfe9f50	-0.031081825
154	0x3dce325b	0.10068198
155	0x3d43cfcf	0.047805604
156	0x3db2513d	0.08706901
157	0x3c1e7657	0.009671769
158	0x3ca6a3c0	0.020341754
159	0x3dae6194	0.08514705
160	0x3d8fc8be	0.070207104
161	0x3cc99ea0	0.024611771
162	0xbdf00093	-0.117188595
163	0x3df25e9a	0.1183445
164	0xbe05bd08	-0.13060391
165	0xbdde2b23	-0.108480714
166	0xbe092e7d	-0.1339664
167	0x3d1e2977	0.038613763
168	0x3d1dde1b	0.038541894
169	0xbd73236b	-0.05935995
170	0x3d397576	0.045278035
171	0x3dce8d61	0.1008556
172	0xbccde64f	-0.025134234
173	0x3e028140	0.12744617
174	0xbd8eae46	-0.06966834
175	0x3d52210a	0.05130104
176	0xbba3c70b	-0.004998093
177	0xbb017965	-0.0019756195
178	0x3d8e21e2	0.069400564
179	0x3dc2b359	0.09506864
180	0x3e0b53ab	0.13606136
181	0x3cb9d0e5	0.022682616
182	0xbd6610eb	-0.056168478
183	0x3db23c26	0.08702879
184	0xbda8d98f	-0.08244621
185	0xbc7d9795	-0.0154780345
186	0xbd5de8a2	-0.054176934
187	0x3d05dce4	0.03268136
188	0x3dc87097	0.097871
189	0x3dc60c84	0.09670356
190	0xbc8afc46	-0.016965996
191	0x3ce5b097	0.028038306
192	0xbdd93fd5	-0.10607878
193	0xbe062f7c	-0.13104051
194	0x3d97b925	0.074083604
195	0xbcf62825	-0.03004844
196	0xbc36fd86	-0.011168843
197	0x3cdcfb7f	0.026975391
198	0xbc154df8	-0.0091128275
199	0xbe0067c4	-0.12539583
200	0x3e387d5a	0.18016568
201	0x3dc4a1dd	0.096011855
202	0xbdb697bf	-0.08915662
203	0x3e21deab	0.15807597
204	0xbd5837d3	-0.052787613
205	0xbe0ae8a0	-0.13565302
206	0xbc9a52b2	-0.01883826
207	0xbd8b01fb	-0.06787487
208	0x3e389109	0.18024077
209	0x3ddcff73	0.107909106
210	0xbd85296a	-0.0650204
211	0x3cabd8ff	0.020977495
212	0x3da8f5b3	0.082499884
213	0xbdfdb6f6	-0.12388413
214	0x3d64f1ac	0.05589454
215	0x3e304521	0.1721387
216	0x3de8b892	0.11363329
217	0xbd81b90d	-0.06334124
218	0x3d881181	0.066439636
219	0xbcee4b25	-0.029088566
220	0xbd48cb57	-0.049022045
221	0xbe0c0069	-0.13672031
222	0x3d82a089	0.06378276
223	0x3dc819ff	0.09770583
224	0xbddbb168	-0.10727197
225	0xbda1cf60	-0.07900882
226	0xbd813e84	-0.06310752
227	0x3dfb69cf	0.12276041
228	0xbdc0301d	-0.09384177
229	0x3da6c4c9	0.081430025
230	0x3e0298a5	0.12753542
231	0xbe086303	-0.1331902
232	0xbe298aef	-0.16556905
233	0xbd3a9efe	-0.045561783
234	0xbcf7f69a	-0.030268956
235	0x3d4c94be	0.04994654
236	0x3e0bbe70	0.13646865
237	0xbdb817a3	-0.08988883
238	0xbde4902a	-0.111603096
239	0x3dada0a4	0.084779054
240	0xbdd1aa40	-0.10237551
241	0x3e57e5fe	0.21083829
242	0xbb3ace45	-0.0028504294
243	0x3d4363b6	0.047702514
244	0x3bc517eb	0.006014814
245	0xbd874a23	-0.06605937
246	0x3d9d63bb	0.07685038
247	0xbc904ef1	-0.017615767
248	0xbc8b96d9	-0.017039703
249	0xbd5a3a54	-0.053278282
250	0xbe02a0ac	-0.12756604
251	0x3e0efcae	0.13963577
252	0x3e2aa5ec	0.16664857
253	0x3d561023	0.052261483
254	0x3db4b5f3	0.088237666
255	0x3e27e3a7	0.16395436

lstm.weight_hh_l0 f4 [512, 128]
0	0x3e30aa4c	0.17252463
1	0xbb84b20b	-0.0040495447
2	0xbe01a299	-0.12659682
3	0x3cc5032a	0.02404936
4	0xbda8310a	-0.082124785
5	0xbdc36c7e	-0.095421776
6	0xbd272b24	-0.040812626
7	0xbdcc65cd	-0.099803545
8	0x3cec3672	0.028834555
9	0xbe42cc94	-0.19023353
10	0x3dc683ec	0.09693131
11	0xbdb75ffb	-0.08953854
12	0x3e2b8929	0.16751541
13	0x3e398745	0.18118007
14	0xbd41e583	-0.04733802
15	0xbd9b84a7	-0.07593661
16	0xbdcd69b8	-0.1002993
17	0xbe0633f3	-0.13105755
18	0xbd8db9e8	-0.069202244
19	0x3d60e53a	0.054906107
20	0xbdeb2013	-0.11480727
21	0x3b6eb9ee	0.003642674
22	0xbb60faaa	-0.0034329095
23	0x3db6c3be	0.089240536
24	0x3dbfc445	0.09363607
25	0x3dc0599f	0.09392094
26	0x3e1ae9f7	0.15128313
27	0xbe0bb4eb	-0.13643233
28	0x3e66a1d7	0.22522675
29	0x3d63ee1f	0.05564701
30	0xbe14928f	-0.14509033
31	0x3da70eee	0.081571445
32	0xbe070c93	-0.1318839
33	0xbddac187	-0.10681444
34	0x3e0bb0ba	0.13641635
35	0x3e7c8b4b	0.24662511
36	0xbd922912	-0.0713674
37	0x3e5bc8e9	0.2146336
38	0x3e4b3ac2	0.19846633
39	0x3db4a67c	0.08820817
40	0x3e1abed8	0.15111864
41	0xbdd04532	-0.10169448
42	0xbd72fdaa	-0.059323944
43	0xbe1239e4	-0.14279896
44	0xbd594c79	-0.053051446
45	0xbe422d53	-0.18962602
46	0x3dd05217	0.101719074
47	0xbe5af782	-0.21383479
48	0xbcd84b8a	-0.026403207
49	0xbd2731da	-0.040819027
50	0xbc2213a6	-0.00989238
51	0xbe283c99	-0.16429366
52	0xbdcdbfb3	-0.10046329
53	0xbd943a32	-0.072376624
54	0x3e338d03	0.1753426
55	0xbe041c45	-0.12901409
56	0x3e003ba6	0.12522754
57	0x3e5a18a1	0.21298458
58	0xbd7a124c	-0.061052606
59	0xbe05e505	-0.13075645
60	0xbdcc6e7e	-0.09982012
61	0xbd844cf1	-0.06459988
62	0x3e533d70	0.20628905
63	0x3d9b0d20	0.07570863
64	0xbc48304c	-0.012218546
65	0x3bf404a9	0.0074468446
66	0x3e276623	0.16347556
67	0x3cf5b777	0.02999471
68	0x3e1fcd6b	0.15605704
69	0x3c91b3a4	0.017785855
70	0xbd9d7298	-0.07687873
71	0x3e28a706	0.16469964
72	0x3e062149	0.13098635
73	0x3e4898fb	0.19589607
74	0x3e41dc61	0.18931724
75	0x3e0465c2	0.12929443
76	0xbdf5f315	-0.12009255
77	0xbe080818	-0.13284338
78	0xbe2ffcd2	-0.17186287
79	0x3e08c750	0.13357282
80	0xbe3aeb7b	-0.18253891
81	0x3e2d59b3	0.16928749
82	0xbcc8de7f	-0.024520157
83	0xbe480683	-0.19533734
84	0xbe163037	-0.1466683
85	0x3dbe3496	0.09287374
86	0x3e2efc2a	0.1708838
87	0x3dab6002	0.083679214
88	0x3e51e9ac	0.20499295
89	0xbda7a6ea	-0.08186133
90	0xbe1c736c	-0.15278405
91	0xbccf836e	-0.025331225
92	0xbd8510ff	-0.064973824
93	0xbdf497c2	-0.11943008
94	0x3ddc5605	0.107585944
95	0xbe034257	-0.12818275
96	0x3e05a71b	0.13052027
97	0xbd8e4586	-0.06946854
98	0x3c0b5e6d	0.0085064
99	0x3d5dcdaa	0.054151215
100	0xbd2efd55	-0.042722065
101	0xbe098ece	-0.13433382
102	0xbde6f8a5	-0.11277894
103	0xbe3d9aba	-0.18516055
104	0x3e27d19d	0.16388555
105	0xbca80835	-0.020511726
106	0x3e2a38f9	0.16623296
107	0xbdc018b9	-0.093797155
108	0x3e64e3b0	0.22352481
109	0xbd703adb	-0.05864988
110	0xbe394cf3	-0.1809576
111	0x3dcb4937	0.09926074
112	0x3d3eda94	0.04659517
113	0xbdeecf3b	-0.1166062
114	0xbde61d34	-0.11236039
115	0xbe24d64b	-0.16097371
116	0xbdb855bc	-0.090007275
117	0x3e41f500	0.18941116
118	0x3e0a71e1	0.13520004
119	0x3e3bdfba	0.18347064
120	0xbd6974ba	-0.056996085
121	0xbda30790	-0.07960427
122	0x3d94d80d	0.07267771
123	0xbddb3040	-0.10702562
124	0xbddc6cb4	-0.10762921
125	0xbcce29e8	-0.025166467
126	0x3e145f6e	0.14489529
127	0x3d28624f	0.04110938
128	0x3e14a2e3	0.14515261
129	0xbd1f1bf5	-0.03884502
130	0xbda6c0e7	-0.08142262
131	0x3ca77d22	0.02044541
132	0xbd9da068	-0.07696611
133	0xbd0b5235	-0.034013946
134	0xbe4b4e6e	-0.19854137
135	0xbe3b12b8	-0.1826886
136	0xbd371187	-0.04469445
137	0xbd20d766	-0.03926792
138	0x3e3cfc78	0.18455684
139	0xbd72b788	-0.05925706
140	0x3d7a1539	0.061055396
141	0x3e18d973	0.149267
142	0xbdbba559	-0.09162397
143	0x3db091f0	0.08621585
144	0xbdb4eab9	-0.08833832
145	0xbd9b0d7a	-0.0757093
146	0xbda4dd89	-0.08050067
147	0x3d5449a3	0.051828038
148	0xbe4a86d2	-0.19777992
149	0xbd8f2566	-0.06989555
150	0x3d8f8ddc	0.070094794
151	0x3d12a323	0.03580011
152	0x3df92609	0.12165458
153	0x3d2adb29	0.041712914
154	0xbd3d91b4	-0.04628153
155	0xbde7a7f9	-0.11311335
156	0x3dcb8a36	0.09938471
157	0x3cb78d7d	0.022406334
158	0xbdaa1346	-0.08304457
159	0x3e262dd7	0.16228424
160	0xbe0628d9	-0.1310152
161	0xbcaf9c85	-0.021436939
162	0xbb72d861	-0.0037055241
163	0x3d4400c5	0.047852296
164	0xbcbfabf7	-0.023397429
165	0x3dc45607	0.09586721
166	0x3e075a02	0.13217929
167	0x3e2244f3	0.15846615
168	0x3e308682	0.1723881
169	0xbe21739b	-0.15766756
170	0x3ba079ac	0.004897317
171	0xbd84de71	-0.0648774
172	0xbe00a0a5	-0.12561281
173	0xbe19761c	-0.14986461
174	0x3de9c9bf	0.11415433
175	0xbd4d8a44	-0.05018069
176	0x3be755d3	0.0070597916
177	0xbd5c0374	-0.05371423
178	0xbdde3cd6	-0.10851447
179	0xbdd47489	-0.1037379
180	0xbe4f46de	-0.20241877
181	0xbd8f9f34	-0.070127875
182	0x3d797492	0.060902186
183	0xbdcc6eb0	-0.099820495
184	0x3d5e75d4	0.05431159
185	0xbd51e3a3	-0.051242482
186	0xbe00504c	-0.12530631
187	0xbc9548c0	-0.018223166
188	0xbd19e79c	-0.037574396
189	0xbd245cfc	-0.04012774
190	0x3e07c08c	0.13257045
191	0xbdc2ae8c	-0.095059484
192	0xbdbc68be	-0.091996655
193	0xbd7a0ccf	-0.06104737
194	0x3c40815f	0.0117495945
195	0xbdb3fb1f	-0.08788132
196	0x3e00fe70	0.1259706
197	0x3d2d86ed	0.042365003
198	0xbd1724c3	-0.036900293
199	0x3cb9d769	0.022685723
200	0x3e0ba45d	0.13636918
201	0x3d3379f9	0.043817494
202	0x3e0f892c	0.1401717
203	0x3d02bffb	0.031921368
204	0xbcf6ee72	-0.030142996
205	0xbe02cf6d	-0.12774439
206	0xbe23d183	-0.15997891
207	0xbe26827b	-0.16260712
208	0xbe1b65db	-0.15175574
209	0x3e316dac	0.17326993
210	0xbd7c07cc	-0.061530873
211	0xbde33419	-0.11093921
212	0xbd9cc8a5	-0.076554574
213	0x3d8a783a	0.06761213
214	0x3dd31a80	0.10307789
215	0x3dcfa4e7	0.101388745
216	0x3d9d4d0a	0.0768071
217	0xbd83c242	-0.06433536
218	0xbd492d11	-0.049115244
219	0xbe0bee9b	-0.1366524
220	0xbc4bcaa4	-0.01243845
221	0xbdd4c91c	-0.10389921
222	0x3c9e2211	0.019303354
223	0x3c637e2f	0.013885065
224	0x3da3fb7c	0.08006951
225	0xbdba4ea8	-0.09097034
226	0xbda2099b	-0.07911988
227	0x3ddb2791	0.10700906
228	0xbd2fe3f7	-0.042942014
229	0xbdef6841	-0.11689807
230	0xbe1f99d3	-0.15586023
231	0xbe3ad4be	-0.18245217
232	0x3e45f054	0.19329959
233	0xbde8b74f	-0.11363088
234	0x3da83eb5	0.082150854
235	0xbdc0417e	-0.09387492
236	0x3e12b93a	0.14328471
237	0xbe258d6b	-0.16167228
238	0xbe2dbd34	-0.16966707
239	0x3dbdf784	0.092757255
240	0x3da14bb7	0.078757696
241	0xbd5f1bba	-0.0544698
242	0xbd0646de	-0.032782428
243	0xbe3dbacf	-0.18528293
244	0xbd90d7d9	-0.0707242
245	0x3e3a7b1a	0.18211022
246	0x3db93480	0.09043217
247	0x3e1ab8ff	0.15109633
248	0x3cab65ba	0.02092253
249	0xbe02042d	-0.12696905
250	0x3e4e61cb	0.20154493
251	0xbc9616c8	-0.01832141
252	0xbe0fae70	-0.14031386
253	0xbd3b2127	-0.045685913
254	0x3e12c905	0.14334495
255	0x3db978ba	0.0905623

lstm.bias_ih_l0 f4 [512]
0	0x3e29d182	0.16583827
1	0x3de184b4	0.11011639
2	0x3da6783f	0.08128404
3	0x3dea7ed3	0.11449971
4	0x3dda9d44	0.10674527
5	0x3e5d7814	0.21627837
6	0x3e4cf57e	0.20015523
7	0x3ded15e0	0.11576438
8	0x3de1c49f	0.110238306
9	0x3e0519f8	0.12998188
10	0x3c3c5e8f	0.011497154
11	0x3e61569f	0.220057
12	0x3e0abdc3	0.13548951
13	0x3e005c0c	0.12535113
14	0x3e02acc1	0.12761213
15	0x3e47df58	0.19518793
16	0x3e1155d3	0.14192896
17	0x3d73344f	0.059376057
18	0x3e12c168	0.14331591
19	0x3dd53577	0.10410588
20	0x3d9bd04a	0.07608087
21	0x3df8a1e9	0.12140257
22	0x3e432b34	0.1905945
23	0x3e0039b4	0.12522012
24	0x3da674a6	0.08127718
25	0x3dd9b927	0.10631018
26	0x3e16a7cb	0.14712445
27	0x3e05a3f2	0.13050821
28	0x3e066ab5	0.13126643
29	0x3d12b990	0.035821497
30	0x3d52f701	0.051505093
31	0x3d9b6bf9	0.075889535
32	0x3da3d28e	0.079991445
33	0x3d8587df	0.06520056
34	0x3de31fc2	0.11090042
35	0x3e0705f7	0.13185869
36	0x3e43c438	0.1911782
37	0x3e130367	0.14356767
38	0x3d8c588b	0.06852826
39	0x3c9f3855	0.01943604
40	0x3dc4c1d2	0.09607281
41	0x3c01e960	0.007929176
42	0x3dd1983b	0.10234114
43	0x3e65d716	0.2244533
44	0x3ddc89e6	0.107684895
45	0x3ddf27c7	0.10896259
46	0x3de909d1	0.113788255
47	0x3d61d2c5	0.055132646
48	0x3d95f9e8	0.073230565
49	0x3e313734	0.17306215
50	0x3e514c8f	0.20439361
51	0x3c74003b	0.014892633
52	0x3e056e88	0.13030446
53	0x3e4c6247	0.19959365
54	0x3ddf7bfb	0.10912319
55	0x3e048316	0.1294063
56	0x3da3c9a8	0.07997447
57	0x3e28e635	0.16494067
58	0x3e1f8178	0.15576732
59	0x3e61b188	0.22040379
60	0xbd11973a	-0.03554461
61	0x3e116c1b	0.14201395
62	0x3e00846e	0.12550518
63	0x3d811595	0.063029446
64	0x3e29bcb8	0.16575897
65	0x3de80540	0.11329126
66	0x3d4fff41	0.05078054
67	0x3e48965f	0.19588612
68	0x3bed7b5e	0.0072473725
69	0x3d7ecd21	0.062207345
70	0x3d8fb0da	0.07016154
71	0x3e222810	0.15835595
72	0x3d6990a1	0.057022694
73	0x3e5eedf5	0.21770461
74	0x3b614d59	0.0034378378
75	0x3e0de27a	0.13855925
76	0x3de43a98	0.11143988
77	0x3df05726	0.11735372
78	0x3dff7969	0.12474329
79	0x3e2b322f	0.16718362
80	0x3daafdcd	0.0834919
81	0x3d5c46ee	0.05377858
82	0x3dcb0b0a	0.09914215
83	0x3dcd7717	0.1003248
84	0x3d93e7be	0.07221936
85	0x3d06300d	0.03276067
86	0x3df62cbc	0.12020251
87	0x3e410085	0.18847854
88	0x3e5201a2	0.20508435
89	0x3dd14a4a	0.10219248
90	0x3df55a2b	0.11980089
91	0x3dbb8c04	0.09157565
92	0x3e3eb878	0.18625057
93	0x3e172241	0.1475916
94	0x3c3ecc47	0.011645383
95	0x3dcdd10f	0.100496404
96	0x3e1cd820	0.1531682
97	0x3d28c6e1	0.04120529
98	0x3db9619d	0.090518214
99	0x3df938e1	0.12169052
100	0x3e0b5c72	0.13609484
101	0x3d37d63c	0.044882044
102	0x3e238318	0.15967977
103	0x3d623a28	0.055231243
104	0x3d9f835a	0.07788725
105	0x3e675eda	0.22594777
106	0x3dee5f74	0.116393
107	0x3e041ed6	0.12902388
108	0x3e3cd21a	0.18439522
109	0x3de02428	0.10944396
110	0x3cf988df	0.030460773
111	0xbbb4c6e0	-0.005516872
112	0x3dc54db9	0.09633965
113	0x3df9a89d	0.121903636
114	0x3de4fb20	0.11180711
115	0x3d875cb7	0.06609481
116	0x3e01a5de	0.1266093
117	0x3dc64146	0.09680419
118	0x3d947afb	0.07250019
119	0x3d48e7d2	0.049049206
120	0x3dc22adf	0.09480833
121	0x3e00aa89	0.12565054
122	0x3de029e3	0.10945489
123	0x3e350e62	0.17681268
124	0x3d8b5682	0.068036094
125	0x3df1048b	0.11768445
126	0x3de76af3	0.11299696
127	0x3d951de5	0.072810926
128	0xbd67c9d7	-0.056588974
129	0x3d3b2214	0.045686796
130	0xbc21781a	-0.009855295
131	0xbd86fa6c	-0.06590733
132	0xbd4e08e0	-0.050301433
133	0xbd77dff6	-0.06051632
134	0xbd39f198	-0.045396417
135	0xbd1c5cc8	-0.03817442
136	0xbde67071	-0.11251915
137	0x3ca68c78	0.020330653
138	0x3c346ec6	0.011012739
139	0x3c1fbec3	0.009750071
140	0x3db538a3	0.08848693
141	0x3decdb79	0.115652986
142	0x3dc132d6	0.09433524
143	0x3d77f557	0.06053671
144	0x3d8a9db3	0.0676836
145	0x3de4b72d	0.111677505
146	0x3d862996	0.06550901
147	0x3bd77ba8	0.0065760203
148	0x3d9a59e5	0.07536677
149	0x3cccc497	0.024996085
150	0xbdd252d3	-0.10269704
151	0x3dc3b541	0.09556056
152	0x39b58b1b	0.00034626652
153	0x3cd0703b	0.02544414
154	0xbd2770b3	-0.040878963
155	0x3e1f5e7a	0.15563384
156	0x3d57d33b	0.05269168
157	0x3dff2cd7	0.124597244
158	0x3d32c4e1	0.04364479
159	0x3b117838	0.00221969
160	0x3c136f0a	0.008998642
161	0xbd147ce5	-0.03625192
162	0x3cf053df	0.029336868
163	0x3d145d86	0.036222003
164	0x3d991d31	0.07476271
165	0x3e370102	0.17871478
166	0x3b829ae8	0.0039857514
167	0xbaf7e32f	-0.001891231
168	0x3dd846a3	0.10560348
169	0x3dc0adf8	0.09408182
170	0x3c77ef6b	0.015132765
171	0xbc153360	-0.009106487
172	0xbd0fddd7	-0.035123672
173	0xbcac0c21	-0.021001877
174	0x3e0fd955	0.1404775
175	0xbc30f4f4	-0.010800589
176	0x3d5e0f15	0.054213602
177	0x3d5648a4	0.05231537
178	0xbc712ac0	-0.014719665
179	0x3dba7ce6	0.09105854
180	0x3d8bd0f4	0.06826964
181	0xbe1f97cc	-0.1558525
182	0x3dda169c	0.10648844
183	0x3d2a4bcd	0.041576196
184	0x3de7df79	0.11321921
185	0x3cd8a2e7	0.026444865
186	0x3da4d43a	0.080482915
187	0x3dab690e	0.08369647
188	0x3e11b208	0.1422807
189	0x3df0e668	0.117626965
190	0xbcb4537b	-0.022012463
191	0x3dc757d6	0.0973355
192	0xbc2d7074	-0.010585893
193	0xbd93a45e	-0.07209085
194	0xbd3b304b	-0.045700353
195	0x3d25ad00	0.04044819
196	0xbb7097cb	-0.003671157
197	0xbe0f4725	-0.13991983
198	0x3de86d44	0.11348966
199	0xbc286703	-0.010278466
200	0xbd26ec58	-0.04075274
201	0xbc1b2e72	-0.009471523
202	0x3e117f6e	0.14208767
203	0x3d403563	0.046925914
204	0x3d67b91b	0.056573015
205	0xbb64505b	-0.0034837935
206	0x3d9b8633	0.07593956
207	0x3e147e2d	0.14501257
208	0xbb54092c	-0.00323541
209	0x3da7992e	0.081835136
210	0xbdb3a3ee	-0.087715015
211	0xbc588409	-0.013215073
212	0xbd1bd322	-0.03804315
213	0xbc040f4a	-0.008060286
214	0x3deeeb55	0.1166598
215	0x3e0c80f9	0.13721074
216	0xbbad675c	-0.0052918624
217	0xbc8ed575	-0.017435769
218	0x3d422942	0.047402628
219	0x3e02ea20	0.12784624
220	0xbc09fb18	-0.008421682
221	0x3d9f498e	0.07777701
222	0xbc52eb1d	-0.012873438
223	0xbe0ff149	-0.14056887
224	0x3dbdcf07	0.09268003
225	0x3d960565	0.07325248
226	0xbdcf25dd	-0.10114644
227	0xbd22d21d	-0.03975116
228	0x3df1ed44	0.11812833
229	0x3aae6925	0.0013306482
230	0x3dc9503a	0.09829755
231	0xbc57edf7	-0.013179294
232	0x39c9535a	0.0003839981
233	0x3da5e73f	0.08100747
234	0x3d8aaec4	0.06771615
235	0x3cc2e47a	0.023790587
236	0x3c5cb674	0.013471235
237	0x3c8c6677	0.017138703
238	0x3c63a906	0.013895279
239	0x3dca248f	0.09870254
240	0xbda1f723	-0.07908466
241	0x3de5fbe5	0.11229686
242	0xbca7aadc	-0.020467214
243	0x3d8e75d7	0.0695607
244	0xbdb64705	-0.08900265
245	0xbcb8db82	-0.022565607
246	0x3cd12d5d	0.025534326
247	0x3d4ba903	0.04972173
248	0xbde91f5d	-0.11382935
249	0x3dc3b91b	0.095567904
250	0x3dbf1237	0.09329646
251	0x3da9c047	0.08288627
252	0x3df20b6c	0.11818585
253	0x3b40f568	0.0029443149
254	0x3ce349a4	0.027745076
255	0x3dcbd6f4	0.099531084

lstm.bias_hh_l0 f4 [512]
0	0x3e421724	0.1895414
1	0x3e1464d0	0.14491582
2	0x3e013b9b	0.12620394
3	0x3e340617	0.17580448
4	0x3d31d10c	0.043412253
5	0x3e13d64d	0.14437218
6	0x3e496fdb	0.19671576
7	0x3e427089	0.18988241
8	0x3e243a18	0.16037786
9	0x3d68ddf5	0.0568523
10	0x3e04fa86	0.12986192
11	0x3df28ee5	0.11843661
12	0x3dd680b6	0.104737684
13	0x3e06a0db	0.13147299
14	0x3dfeb01e	0.124359354
15	0x3d941a92	0.072316304
16	0x3e2d5c20	0.16929674
17	0x3e47f221	0.19525959
18	0x3dfa834a	0.12232073
19	0x3d997320	0.074926615
20	0x3df93ad2	0.12169422
21	0x3dc8096f	0.09767424
22	0x3de6205c	0.11236641
23	0x3e415547	0.18880187
24	0x3d89197c	0.06694314
25	0x3de23003	0.11044314
26	0x3df89cee	0.12139307
27	0x3dc73b3b	0.09728094
28	0x3dcaacc5	0.098962344
29	0x3d063131	0.032761756
30	0x3deef410	0.11667645
31	0x3d486565	0.048924822
32	0x3dcdeaf5	0.1005458
33	0x3d878a54	0.06618181
34	0x3c02bfc6	0.007980293
35	0x3e384d63	0.1799827
36	0x3cea0f4a	0.028571744
37	0x3d1f4ae5	0.038889784
38	0x3e08bc37	0.13353048
39	0x3dfdf055	0.12399355
40	0x3e1c1f35	0.1524628
41	0x3dd664c1	0.10468436
42	0x3e2cd916	0.16879687
43	0x3e319c5f	0.17344807
44	0x3e20317a	0.15643874
45	0x3de2498d	0.11049185
46	0x3c52e412	0.012871759
47	0x3deb1105	0.114778556
48	0x3e52972f	0.20565484
49	0x3e1641b0	0.14673495
50	0x3e0d8df0	0.13823676
51	0x3dcc80af	0.09985482
52	0x3e04073e	0.12893388
53	0x3e1d08c7	0.1533538
54	0x3d930608	0.07178885
55	0x3e1239e8	0.14279902
56	0x3dfd6522	0.12372805
57	0x3e346f22	0.17620519
58	0x3e2dae44	0.16961008
59	0x3e3c838f	0.1840956
60	0x3e046d37	0.12932287
61	0x3e0772ad	0.13227339
62	0x3cc12ad7	0.023579998
63	0x3d9bb443	0.076027416
64	0x3e318ca4	0.17338806
65	0x3e4b0e9c	0.19829792
66	0x3e2afa79	0.1669711
67	0x3d99cb95	0.07509533
68	0x3d26c827	0.040718224
69	0x3e548661	0.20754386
70	0x3cc98240	0.02459824
71	0x3d96a2d5	0.073552765
72	0x3e2cd02c	0.16876286
73	0x3de358e5	0.1110094
74	0x3d970c67	0.073754124
75	0x3d932da1	0.071864374
76	0x3e42fc97	0.19041668
77	0x3d643995	0.055718977
78	0x3e22d182	0.15900233
79	0x3e5f9a84	0.21836287
80	0x3df14781	0.117812164
81	0x3de52d27	0.11190253
82	0x3e51ebd5	0.20500119
83	0x3d2090d2	0.03920061
84	0x3c7fc4d2	0.01561089
85	0x3e23cedf	0.15996884
86	0x3da12965	0.078692235
87	0x3d8d32d0	0.06894457
88	0x3e53a7d8	0.20669496
89	0x3e4fb3a5	0.20283373
90	0x3e021236	0.1270226
91	0x3da48182	0.08032514
92	0x3e44a052	0.19201782
93	0x3b90259a	0.0043990137
94	0x3e0caf38	0.13738716
95	0x3db2e19b	0.08734437
96	0x3e2192b0	0.15778613
97	0x3e0643c6	0.13111791
98	0x3deda571	0.11603821
99	0x3d4b2c53	0.049602818
100	0x3db99fdb	0.09063693
101	0x3e1198d5	0.14218457
102	0x3df5d5c5	0.12003664
103	0x3e1495bb	0.14510243
104	0x3c3dc0ad	0.011581582
105	0x3e83c57f	0.25736615
106	0x3da6c8da	0.08143778
107	0x3e0fecd8	0.14055192
108	0x3e1e6c9b	0.15471117
109	0x3e482d36	0.19548497
110	0x3d982e1f	0.07430672
111	0x3d2c6ae4	0.042094126
112	0x3ddbbbe4	0.10729197
113	0xbb8cbedf	-0.0042952145
114	0x3e25cb7e	0.16190907
115	0x3c1afd0c	0.009459745
116	0x3e62e2ea	0.22156873
117	0x3e20ecb2	0.15715292
118	0x3e245aa7	0.16050206
119	0x3e1eb4aa	0.15498605
120	0x3e39dd43	0.18150811
121	0x3e34a461	0.1764083
122	0x3e1ff9b3	0.15622596
123	0x3dfa273a	0.12214513
124	0x3d12be0b	0.03582577
125	0x3dc9f137	0.09860461
126	0xbd148b46	-0.036265634
127	0x3d83a252	0.064274445
128	0xbd6a8df0	-0.05726427
129	0xbd0edad8	-0.034876674
130	0xbc8304cf	-0.015993504
131	0xbdc91b9b	-0.098197185
132	0xbd929f23	-0.07159259
133	0x3da529d9	0.080646224
134	0xbd0db0c6	-0.034592412
135	0xbd5497e1	-0.051902656
136	0xbdd47fb3	-0.10375919
137	0x3c6c37c4	0.014417592
138	0xbb83184f	-0.0040007005
139	0x3dfa67bd	0.12226818
140	0x3e0bf68e	0.13668272
141	0xbd154f99	-0.036452863
142	0x3dec2d6e	0.115321025
143	0xbd70b64f	-0.058767613
144	0x3d164ed0	0.036696255
145	0x3d83e6cd	0.06440506
146	0xbd2c60b6	-0.04208442
147	0x3d50a495	0.050938208
148	0x3d23e77a	0.040015675
149	0xbc97e4b1	-0.018541666
150	0xbc7c2daa	-0.015391747
151	0xbd49c8a5	-0.049263615
152	0x3dc154d9	0.094400115
153	0xbda0d9aa	-0.07854016
154	0xbd9aff8f	-0.07568275
155	0x3d7ae558	0.061253875
156	0xbdc6292e	-0.09675823
157	0x3dd082b3	0.10181179
158	0x3d12bbe4	0.035823718
159	0x3d941cf3	0.07232084
160	0x3bb48a9a	0.0055096867
161	0x3dac6d97	0.0841934
162	0x3cdbefa0	0.02684766
163	0x3cf081df	0.029358802
164	0x3d36fbe0	0.0446738
165	0x3c94230b	0.018083116
166	0x3d26122b	0.04054467
167	0x3c30f7d4	0.010801274
168	0x3e0cbbe4	0.1374355
169	0x3d1e48d9	0.03864369
170	0xbce6af8f	-0.028159885
171	0xbc9535b5	-0.018214086
172	0x3d85fe0b	0.065425955
173	0x3c2aa895	0.01041617
174	0x3e0c84db	0.13722555
175	0x3dbb4ec5	0.091458835
176	0xbc59a276	-0.013283363
177	0x3d1af492	0.037830897
178	0xbd7422db	-0.059603553
179	0x3b8d5350	0.00431291
180	0x3ccc4df7	0.02493952
181	0xbdc5338e	-0.09628974
182	0x3d93eace	0.0722252
183	0xbd898fa0	-0.067168474
184	0x3dd4cec9	0.10391004
185	0x3df3793a	0.118883565
186	0x3dead457	0.11466282
187	0x3c433bc7	0.0119161075
188	0x3d53d73e	0.051718943
189	0x3d794120	0.060853124
190	0x3c3c98e8	0.011511065
191	0x3df3073b	0.118666135
192	0x3d8b4042	0.067993656
193	0x3d8a4a1e	0.06752418
194	0x3da7adc0	0.08187437
195	0xbdb24c36	-0.08705942
196	0x3d2ae9f0	0.041727006
197	0x3cbcc756	0.02304427
198	0xbacac3e2	-0.0015469755
199	0x3cb33ea4	0.021880455
200	0x3d24e869	0.040260706
201	0xbd218133	-0.039429855
202	0x3da81917	0.082079105
203	0x3df45b49	0.11931474
204	0x3e047370	0.12934661
205	0x3d6f261b	0.05838595
206	0x3bb61741	0.0055569713
207	0x3dede5fd	0.116161324
208	0x3cda6bd1	0.026662739
209	0x3d8c51ad	0.06851516
210	0x3c95f1a4	0.0183037
211	0xbcfb0827	-0.030643536
212	0xbb7c2fe6	-0.0038480698
213	0x3d32e55c	0.043675765
214	0x3e0d35c1	0.13790037
215	0x3c9643a0	0.018342793
216	0xbd821fee	-0.06353746
217	0x3dbe2a9e	0.09285472
218	0xbd87534e	-0.06607686
219	0x3e08c34f	0.13355754
220	0x3c9cfd9f	0.019163905
221	0x3e11df07	0.14245234
222	0x3d14f63f	0.03636765
223	0xbdfa08df	-0.12208723
224	0x3bc5e2f7	0.006039019
225	0x3e00ef49	0.1259128
226	0xbd8eb7cc	-0.0696865
227	0x3e07b8bf	0.13254069
228	0x3e05d1c3	0.13068299
229	0xbd25de9b	-0.040495496
230	0xbac9a96a	-0.0015385572
231	0xbca759f4	-0.020428635
232	0x3ddb430d	0.10706148
233	0x3c9aaad4	0.018880285
234	0x3dbcebb5	0.09224645
235	0xbc1e2398	-0.009652041
236	0x3d6e38eb	0.05815975
237	0x3d166600	0.03671837
238	0x3ce87620	0.028376639
239	0x3e1412f8	0.14460361
240	0x3d1ebfd9	0.03875718
241	0x3e1ab288	0.15107167
242	0xbd197a76	-0.037470303
243	0x3de28125	0.110597886
244	0x3cf90990	0.030400068
245	0x3db3ea2f	0.08784901
246	0x3e1d0cbe	0.15336892
247	0x3dcf3ffa	0.101196244
248	0xbd3ac5ea	-0.0455989
249	0x3c8b1111	0.016975911
250	0xbd03ec09	-0.032207523
251	0x3e16e576	0.1473597
252	0xbc2afb20	-0.010435849
253	0xbd1a555c	-0.03767906
254	0x3df2722b	0.11838182
255	0x3c062afc	0.008188959

fc.weight f4 [41, 128]
0	0x3e3286a6	0.17434177
1	0xbe449ddf	-0.19200848
2	0xbc010361	-0.007874341
3	0x3e16c530	0.14723659
4	0x3e527b62	0.2055488
5	0xbe5cf052	-0.2157605
6	0x3e124ffc	0.14288324
7	0xbe075fdc	-0.13220161
8	0xbe909799	-0.2824066
9	0x3e7868f7	0.24258791
10	0xbe16af1a	-0.14715233
11	0x3cccf827	0.025020672
12	0x3e3676d8	0.17818773
13	0xbe7551d8	-0.23957002
14	0x3e89d361	0.26919082
15	0x3e1a20bc	0.1505155
16	0xbe3f335e	-0.18671939
17	0x3e722c26	0.23649654
18	0xbbee6c02	-0.007276059
19	0xbe7dd168	-0.24786913
20	0xbe694a3e	-0.22782227
21	0x3ea51213	0.32240352
22	0x3e4b0e4b	0.19829671
23	0xbc112003	-0.00885773
24	0xbd964176	-0.073367044
25	0xbe3d491e	-0.18484923
26	0xbe85cbab	-0.2613195
27	0x3e5b34fd	0.21406932
28	0xbe0e6f52	-0.13909653
29	0x3da2d317	0.079504184
30	0xbe3d0f87	-0.18462954
31	0xbe1d929f	-0.15387963
32	0x3d27c0f2	0.04095549
33	0xbe4eded7	-0.20202194
34	0xbe3f838e	-0.18702528
35	0xbd859e5b	-0.065243445
36	0xbe53124f	-0.20612453
37	0xbde3fc17	-0.11132067
38	0xbdbcfe69	-0.092282124
39	0xbde9fe5b	-0.114254676
40	0xbca0b3ea	-0.01961704
41	0x3e637005	0.22210701
42	0x3e484e39	0.1956109
43	0xbdd675cb	-0.10471686
44	0xbc6d9cf1	-0.01450275
45	0xbe3e2694	-0.18569404
46	0x3dbfba06	0.09361653
47	0x3ea6e34c	0.3259529
48	0xbe95c7c2	-0.29253966
49	0x3d220426	0.039554738
50	0xbe0b2ce9	-0.1359135
51	0x3e0900f9	0.13379277
52	0xbd3dc22a	-0.046327747
53	0xbe55cfa1	-0.20879985
54	0xbd9ee80c	-0.07759103
55	0x3e5d553e	0.21614549
56	0xbdd62606	-0.10456471
57	0x3e255055	0.16143925
58	0xbe4a942c	-0.19783086
59	0x3e8c5d6f	0.27415034
60	0x3e1bf4c4	0.1523009
61	0xbe85234e	-0.26003498
62	0xbe800d3f	-0.25010106
63	0xbe16396f	-0.14670347
64	0x3e8b70b7	0.27234432
65	0x3ea49fc9	0.32153156
66	0xbe68676e	-0.22695705
67	0x3dfd4da6	0.12368326
68	0x3da7e24d	0.0819746
69	0xbda770a3	-0.081757806
70	0xbdc682fa	-0.096929505
71	0x3e77b3d8	0.24189699
72	0xbe95621b	-0.2917641
73	0x3e40bf67	0.18823014
74	0xbda6e791	-0.081496365
75	0x3daeeb71	0.08541001
76	0x3e341d58	0.17589319
77	0xbdb0afd7	-0.08627289
78	0xbd903bc6	-0.07042651
79	0xbe199378	-0.14997661
80	0x3d7b981f	0.06142437
81	0xbcf626f1	-0.030047866
82	0x3e7e5d4a	0.24840274
83	0x3e3f3d70	0.1867578
84	0x3da13314	0.078710705
85	0xbe29a451	-0.16566588
86	0x3d8f8de6	0.07009487
87	0xbe730c54	-0.23735172
88	0x3da092c5	0.07840494
89	0x3e23cbdb	0.15995733
90	0x3de08f0e	0.109647855
91	0x3d8dd344	0.06925061
92	0x3e8dc8ae	0.2769217
93	0xbd956004	-0.07293704
94	0xbe8e5c8e	-0.2780499
95	0xbd8ff0aa	-0.07028325
96	0xbda77fab	-0.081786476
97	0x3da7a745	0.08186201
98	0xbd8e1240	-0.06937075
99	0xbe17f65b	-0.14840071
100	0x3e9b1a23	0.30293378
101	0x3e48a2a4	0.19593292
102	0x3b67bf11	0.0035361687
103	0xbd3e711a	-0.04649458
104	0xbe3a668b	-0.1820318
105	0xbe8b33e6	-0.27188033
106	0xbe3cf0a7	-0.18451177
107	0x3e6c65e3	0.23085742
108	0xbe91bf74	-0.2846638
109	0x3cc40a48	0.023930684
110	0x3c7999b5	0.0152344005
111	0x3deb8d71	0.11501587
112	0x3d9696dd	0.07352994
113	0x3e76cd49	0.24101748
114	0x3e45a3a5	0.19300707
115	0x3eb1d79a	0.34734803
116	0xbe532eba	-0.20623294
117	0xbe623180	-0.22089195
118	0xbe8a6f78	-0.2703817
119	0x3c8d1982	0.017224077
120	0xbe814da1	-0.2525454
121	0xbe25a1dd	-0.16175027
122	0xbe40332c	-0.1876952
123	0xbe7d8f23	-0.24761634
124	0x3d7ec544	0.062199846
125	0x3e7e57c6	0.2483817
126	0xbe489684	-0.19588667
127	0x3be1fe67	0.006896782
128	0x3d4c42bf	0.04986834
129	0x3e78ae72	0.24285296
130	0xbe72ef81	-0.23724176
131	0x3e4e271e	0.2013211
132	0x3e89e687	0.2693369
133	0xbe0a73a1	-0.13520671
134	0x3e919d19	0.28440168
135	0xbe5e3340	-0.21699238
136	0xbe7dc96a	-0.24783865
137	0x3e72aac0	0.23697948
138	0x3e2b148f	0.16707061
139	0xbe7ff656	-0.24996313
140	0xbe0c3eb1	-0.1369579
141	0xbdd52daa	-0.104091
142	0x3e2fff21	0.17187168
143	0x3e04e6c1	0.1297865
144	0xbc5acdea	-0.013354758
145	0xbe8f81dd	-0.28028765
146	0x3e89af1d	0.26891413
147	0xbe9949b1	-0.29939035
148	0xbdd09049	-0.1018377
149	0x3e77efc9	0.24212565
150	0x3e7ef06b	0.248964
151	0x3e7e421b	0.24829905
152	0x3bd6a0e1	0.00654994
153	0xbd8e5ffa	-0.069519
154	0xbe6bd19f	-0.23029183
155	0x3e7c0548	0.2461139
156	0x3cf9cc7f	0.03049302
157	0x3c3586c4	0.011079494
158	0xbdcf8646	-0.101330325
159	0xbe657e96	-0.2241157
160	0x3e1feed9	0.15618457
161	0xbe8a23e9	-0.26980522
162	0x3ecf930b	0.40541872
163	0xbe00ec62	-0.12590173
164	0xbe5a1a86	-0.2129918
165	0xbe943166	-0.28943938
166	0xbdf14d8b	-0.11782368
167	0x3e9ed7c1	0.31023982
168	0xbe38300e	-0.17987081
169	0x3e0361fd	0.12830348
170	0x3e84fcfc	0.25974262
171	0xbe293a5f	-0.16526173
172	0xbe6b7c10	-0.22996545
173	0xbe815793	-0.25262126
174	0x3da64950	0.08119452
175	0xbe830d50	-0.25596094
176	0x3eb192e9	0.34682396
177	0x3e9793e5	0.29605022
178	0xbe887e56	-0.26658887
179	0x3dbdfe4c	0.09277019
180	0xbe7d7d24	-0.24754769
181	0xbe27d130	-0.16388392
182	0xbe8cbf26	-0.27489585
183	0x3ddb3d67	0.10705071
184	0xbe88ac2b	-0.26693854
185	0x3e93f152	0.2889505
186	0xbe078cb8	-0.13237274
187	0xbd63baa8	-0.05559793
188	0x3e559480	0.2085743
189	0xbe47e24a	-0.19519916
190	0xbe84fd5e	-0.25974554
191	0xbe35bc1d	-0.17747541
192	0xbcf0a1c0	-0.029374003
193	0xbe8991ee	-0.26869148
194	0xbd811d16	-0.06304376
195	0x3de99773	0.1140584
196	0x3e7793fe	0.24177548
197	0xbe4a50c9	-0.1975738
198	0xbe2f9c5a	-0.17149487
199	0x3da38a98	0.07985419
200	0xbda19546	-0.078898
201	0xbd0890b3	-0.03334112
202	0xbde799b4	-0.113086134
203	0x3e9044f7	0.28177616
204	0x3e85a604	0.26103222
205	0x3e691812	0.22763088
206	0xbe785506	-0.24251184
207	0x3e8ba683	0.27275476
208	0xbe3e2ba0	-0.18571329
209	0xbdba28de	-0.09089826
210	0x3e5c269e	0.21499106
211	0x3e9c6e5d	0.3055295
212	0x3e8c429f	0.27394578
213	0xbe80945f	-0.25113198
214	0xbe11d962	-0.14243081
215	0x3ea6d4e9	0.32584313
216	0x3e69147a	0.22761717
217	0x3e74f900	0.23923111
218	0x3e978e3a	0.29600698
219	0x3d66aec7	0.056319024
220	0x3e2e1d67	0.17003404
221	0xbe72d4ca	-0.23713985
222	0x3e1fb737	0.15597235
223	0xbe00b101	-0.12567522
224	0xbde59f9b	-0.11212083
225	0x3e28ce91	0.16485049
226	0xbe9f744a	-0.3114341
227	0x3e9ad851	0.3024316
228	0xbde8cbb5	-0.11366979
229	0x3e47ded4	0.19518596
230	0x3def68e6	0.1168993
231	0xbddd5603	-0.10807421
232	0xbda3724e	-0.07980786
233	0x3c908ef0	0.017646283
234	0xbe6196a5	-0.22030123
235	0x3e033fd6	0.1281732
236	0x3e2b1aff	0.16709517
237	0xbe37a8c2	-0.1793547
238	0xbe846ea8	-0.25865674
239	0x3e19bfe2	0.15014604
240	0x3e8fdb82	0.2809716
241	0xbcae6b61	-0.021291437
242	0x3dbf22b4	0.09332791
243	0xbe58384a	-0.21115223
244	0x3eae448d	0.34036675
245	0xbe9495ed	-0.29020634
246	0xbe03170b	-0.12801759
247	0x3e3095a0	0.17244577
248	0xbd6eb501	-0.058278088
249	0xbe84ff48	-0.25976014
250	0xbc32eb9f	-0.010920434
251	0x3e12f4eb	0.14351241
252	0xbe123bc2	-0.14280608
253	0x3e719b3c	0.23594373
254	0xbde23667	-0.11045533
255	0x3dcb0b32	0.09914245

fc.bias f4 [41]
0	0xbd9b98e4	-0.07597521
1	0x3c202bcc	0.009776067
2	0x3bfdf76a	0.0077504413
3	0xbd54430f	-0.051821765
4	0x3d9a9c20	0.0754931
5	0x3df1c9ac	0.11806044
6	0xbbb830b7	-0.0056210416
7	0xbde49f4b	-0.11163195
8	0xbd1c941c	-0.038227186
9	0xbe19fc9f	-0.15037774
10	0xbc6585ee	-0.014008982
11	0xbda09f63	-0.078429006
12	0xbd8d1638	-0.068890035
13	0xbad3deff	-0.001616448
14	0xbdea4c11	-0.1144029
15	0xbc86fa7a	-0.016476858
16	0xbd990cc4	-0.07473138
17	0x3bbea08b	0.005817478
18	0xbaf95320	-0.0019021966
19	0xbdd1c376	-0.10242359
20	0xbd13de9b	-0.036100965
21	0xbc95bc0e	-0.018278148
22	0xb8908ca2	-6.89265e-05
23	0xbe22ba7d	-0.15891452
24	0xbc12579c	-0.0089320205
25	0x3bfb60c0	0.0076714456
26	0x3e2090ea	0.1568028
27	0xbdf0d343	-0.11759045
28	0xbd5a65ca	-0.05331973
29	0x3c80e76c	0.01573535
30	0xbadc0f6f	-0.0016789268
31	0x3c381222	0.011234792
32	0xbd0d8d8e	-0.034558825
33	0xbc8def04	-0.017325886
34	0xbd4eaf39	-0.050460074
35	0x3d5dfaaf	0.05419415
36	0xbe2176c0	-0.15767956
37	0x3d3bf3da	0.04588685
38	0xbcf7668e	-0.03020027
39	0xbd212342	-0.039340265
40	0x3d0f64c8	0.035008222
