Portfolio-Projects/CodeMiner-AI/python_brain.pth (torch, 432274 bytes, 7 tensors)

embedding.weight f4 [41, 64]
000000 41 20 ae bf 39 c9 81 3f 30 99 31 3d 55 5a 0b c0
       -1.3603593 1.0139533 0.04335898 -2.1773884
000010 33 ca 20 bf 78 b5 c4 be d9 ad ab 3e 5e 47 00 40
       -0.6280853 -0.384197 0.33531073 2.004356
000020 65 81 64 3f ba 54 a4 3e 0a 91 e2 bf c0 68 8e bd
       0.8925994 0.3209589 -1.7700512 -0.06953573
000030 49 c6 f6 bd 7d 72 98 3f 41 66 1e bf 51 9d 43 3f
       -0.12049539 1.1909939 -0.6187478 0.7641192
000040 cd f8 bb bd 43 f4 1b 3f c2 57 54 3f c7 25 d3 3d
       -0.09178314 0.6091959 0.8294641 0.1030994
000050 81 f6 18 bf c6 0f c2 be cb a0 6d bf 50 96 17 bb
       -0.59751135 -0.3790266 -0.92823476 -0.0023130365
000060 bf e9 42 3f 38 74 76 3e 65 36 15 3f d5 99 4f 3c
       0.7613792 0.24067771 0.58286124 0.012670954
000070 49 22 ab 3f c1 5e 2f be 92 26 a2 3d 25 8c 59 3f
       1.3369838 -0.1712599 0.07917513 0.8497947
000080 41 ea 20 3e 96 25 4c bc f2 a0 b6 be ea 35 fa be
       0.15714361 -0.012460133 -0.35669667 -0.48869258
000090 50 b3 4a 3f bb dc 5d 3f 22 bd 4e 3f a2 bd a9 bf
       0.7917986 0.8666493 0.80757344 -1.3260996
0000a0 18 5e 17 bf 83 33 12 c0 56 5e eb 3e 12 27 b0 3f
       -0.5912795 -2.284394 0.4597041 1.3761923
0000b0 63 0d 18 bf 7c 31 1b 40 1f 73 d3 bf 4f 79 c1 be
       -0.59395427 2.4248953 -1.6519507 -0.37787864
0000c0 f1 3f ad bf 54 89 4b bf 74 68 21 3f 73 f1 db 3f
       -1.3535138 -0.7950642 0.6305001 1.718306
0000d0 d7 7b c6 3d 4f 02 80 3f 6c 92 55 be ce a8 75 3f
       0.09691589 1.0000705 -0.20856637 0.959607
0000e0 34 d8 ca 3e 96 1c 95 bf 7a 8e a7 3f fd db 05 be
       0.39618075 -1.1649349 1.3090355 -0.130722
0000f0 d3 a5 bb bf a8 c2 05 bf 20 a6 22 bf 66 6e 1f bf
       -1.465998 -0.52250147 -0.63534737 -0.6227783
000100 05 51 41 bf 34 49 57 bf 4a 21 1f bc 5d 11 05 c0
       -0.7551425 -0.84096074 -0.009712527 -2.0791848
000110 e2 57 ba be 1a 3d 23 be d0 ca 4a be 26 6a 59 3f
       -0.36395174 -0.15941277 -0.1980393 0.84927595
000120 1c 80 7d 3f 44 e4 97 3e 38 ed 22 3f 0b d0 66 be
       0.99023604 0.2966634 0.6364322 -0.225403
000130 88 4d 72 3f 54 da 18 be 1f 30 c1 3f 4f 87 be 3f
       0.94649553 -0.14927036 1.509281 1.4885043
000140 ab 08 a6 3e 24 14 84 bf 15 9a 89 bf 4f 3e 9d bf
       0.32428488 -1.0318646 -1.0750147 -1.228464
000150 9e 74 91 3e da e1 cb 3f 6d aa 53 bf cf 46 d8 be
       0.28409284 1.59283 -0.82681924 -0.42241523
000160 ce 6b 31 bf 56 18 b6 bc 49 d4 ab bf 32 3d 08 c0
       -0.6930512 -0.022228401 -1.3424159 -2.128735
000170 3d 0d ea 3e 3c ff 1a c0 59 5c 34 c0 d6 b4 d3 be
       0.45713225 -2.4218283 -2.8181365 -0.41348904
000180 8a c7 e8 bf 3a b3 14 c0 a0 0c 11 3d b2 f0 80 3e
       -1.8185894 -2.3234391 0.03541243 0.25183636
000190 f9 36 59 3d 2f c5 81 bf 62 df 33 3e 83 83 fe 3e
       0.05303094 -1.0138301 0.17565683 0.4970971
0001a0 ee 43 af bf d8 1c 4e be a0 cd 6c 3f 71 79 85 be
       -1.3692605 -0.2012819 0.9250126 -0.26069215
0001b0 ef 96 dc 3e 20 54 81 be 55 a1 a0 bf 5e ce 57 bf
       0.43083903 -0.25259495 -1.2549235 -0.84299266
0001c0 22 fc 1d c0 1a 13 81 3f d3 1f 85 3f 6c df de 3e
       -2.468514 1.0083954 1.0400337 0.43529832
0001d0 3b f6 68 3e 5f 2c df bd 71 37 32 3e 46 44 4f 3f
       0.2275018 -0.10897135 0.17403962 0.8096355
0001e0 09 73 31 3f 9d 17 78 bf 41 90 27 3f c7 a9 d8 3e
       0.69316155 -0.9691103 0.6545449 0.4231703
0001f0 9d 76 be bd 4b b1 96 bf 02 50 e6 3f 8f f9 80 bf
       -0.092999674 -1.1772856 1.7993166 -1.0076159
000200 4e 77 d9 be 0b 26 5f bf 62 e0 d6 3c af bf 6f be
       -0.42473835 -0.87167424 0.026230041 -0.23412965
000210 4d 9f af 3e 13 5f aa bf a0 f9 d2 3f a6 39 6d 3e
       0.34301224 -1.3310264 1.648243 0.23166522
000220 49 88 ae bf fd 32 32 bf da 71 d6 be 4a 8c 97 3e
       -1.3635341 -0.6960905 -0.41883737 0.2959922
000230 fe 20 8d 3e d7 0d 00 3e 53 be 62 be 66 16 ea 3f
       0.27564234 0.1250528 -0.22142915 1.8288085
000240 62 f9 b6 3f ea e7 e9 3e ba 9b 59 3f 47 84 35 be
       1.4294856 0.4568475 0.85003245 -0.17726241
000250 e1 78 bd 3f 33 a2 33 bf 07 a6 85 3c ce 10 af 3e
       1.4802514 -0.7016937 0.01631452 0.34192508
000260 65 07 23 bf 16 fc 21 bf f8 5c be bf 5b 25 fa bf
       -0.6368316 -0.6327528 -1.4872122 -1.954265
000270 5e a9 3e 3e b3 f5 8c 3f f5 2d 2e 3f 0b ce 0d bf
       0.18619296 1.1012481 0.68038875 -0.5539252
000280 1f 68 cd be 75 bf 79 3e 76 85 be bd 5d 0d 92 3f
       -0.401185 0.24389441 -0.093027994 1.1410328
000290 0d cd 56 bf bb 7f ec bf dd bc 7f bf c3 ea 00 bf
       -0.8390663 -1.847648 -0.9989756 -0.5035822
0002a0 21 70 4f bf f3 a1 92 3f ef 4f d9 bf a1 3c 54 3e
       -0.8103047 1.1455673 -1.6977519 0.20726253
0002b0 3a 79 5c bf ae 9f a5 bf 44 52 26 c0 2a 00 9d bd
       -0.8612248 -1.2939355 -2.598771 -0.07666047
0002c0 c8 e4 25 c0 a3 39 1b 3f 8c 44 c1 bf e3 a3 84 bf
       -2.5920887 0.6063482 -1.5099044 -1.0362514
0002d0 c2 58 b2 bf 25 b6 20 3f ce 75 86 3e 64 1c 23 3e
       -1.3933337 0.6277793 0.26261753 0.15928799
0002e0 0a 9c ee be e4 e7 2f 3c ab 40 3d 3f 16 83 b0 3e
       -0.46603423 0.010736439 0.739268 0.3447501
0002f0 59 bc 18 3f 0d 0c 40 bf a6 77 ef bf 81 8d 18 3e
       0.59662396 -0.7501839 -1.8708389 0.1489773
000300 3f 1b 84 3f d6 a3 c7 be df 56 db 3f f7 1a b4 3e
       1.0320815 -0.38992184 1.7135886 0.35176823
000310 25 47 69 bf ca cf a7 bf 16 c9 5a 3f db 94 22 c0
       -0.9112418 -1.3110287 0.8546308 -2.5403354
000320 91 43 05 c0 29 de 86 3f a2 25 0c 3f 80 ad 26 3f
       -2.082249 1.0536548 0.54744923 0.6510849
000330 f0 55 e5 be 80 dc 49 be 36 6d 7e be 59 92 63 3e
       -0.44792128 -0.1971302 -0.24846348 0.22223796
000340 7e cd ec 3d 4e 1e 6b 3f a7 f2 8f 3f 6b 34 a7 bf
       0.11562632 0.91843116 1.1245927 -1.3062872
000350 69 cc 50 3d 4e b1 5b bf db b4 04 c0 5a 61 e2 3e
       0.05097619 -0.8581742 -2.0735385 0.44214898
000360 86 77 c9 3f 21 4a 9d 3e 41 d9 36 be 92 8c 3e bf
       1.5739601 0.30720618 -0.17856313 -0.74433243
000370 2f 9e 55 bf 2e e8 dc 3f fb 57 80 3f 4e 1c 45 bf
       -0.83444494 1.7258356 1.002685 -0.76996315
000380 8d 53 fc bf 9d c4 a2 3f fa 53 4a 3f 33 0a a8 3f
       -1.9712998 1.2716252 0.7903439 1.3128113
000390 d3 fa 42 3e f0 53 c3 3d 3e b7 2d be df e2 81 bf
       0.19040994 0.09537494 -0.16964433 -1.014736
0003a0 41 bc 7c 3f f5 6d aa be 9c ea 48 bf c6 21 2a 40
       0.9872475 -0.33287016 -0.78482985 2.6583114
0003b0 a1 8f 97 3e e8 be 02 bf d2 df 5f bd c2 e4 f3 bd
       0.29601768 -0.5107255 -0.05465681 -0.119088665
0003c0 cc 57 22 bf c2 71 8c 3f 52 38 76 3f 21 08 6d bf
       -0.6341522 1.0972216 0.9617969 -0.9259053
0003d0 35 f1 31 be f0 c1 03 bf 68 0d 31 3f 3c f3 fe be
       -0.1737717 -0.514678 0.6916108 -0.49794948
0003e0 95 3c 2a bf 18 b2 c7 bf e1 c5 5e be 7d 6e 9c 3b
       -0.6649869 -1.5601225 -0.21755172 0.0047739134
0003f0 a6 55 b1 3f 75 0c d9 3f 42 70 28 c0 1b db 95 bf
       1.3854263 1.6956927 -2.6318517 -1.1707491

lstm.weight_ih_l0 f4 [512, 64]
000000 6b c8 13 be 11 6e 2c 3e 8a a6 be 3d b7 b2 03 be
       -0.14431922 0.16838862 0.093091086 -0.12861143
000010 05 34 a6 bd 04 4b de bd f9 c6 fd 3b bc cd a7 3c
       -0.08115391 -0.10854152 0.0077446667 0.020483844
000020 53 53 d1 3d b9 78 08 3e b1 52 0f 3d 53 6d cb bd
       0.10220971 0.13327302 0.03499097 -0.09932961
000030 39 1f 09 bd 40 3c c9 3d 3f 77 d3 3d 9c 30 02 3e
       -0.033477042 0.09825945 0.10325479 0.12713856
000040 fc e7 e6 bb 88 6e c3 bd 13 be 79 3d 9c 55 44 bd
       -0.0070466977 -0.095425665 0.060972285 -0.047933206
000050 4d 0b 98 bd 28 18 b6 bd 86 d6 3c be f9 72 0e be
       -0.074240305 -0.08891326 -0.18441209 -0.13911046
000060 f0 db 0d 3e 22 66 c2 ba c4 2f f4 3d ed dc 13 be
       0.13853431 -0.0014831463 0.11923173 -0.14439745
000070 19 dd ac 3d 3d 08 66 bd 27 64 a9 bd 87 aa 03 3e
       0.084406085 -0.0561602 -0.08271056 0.1285802
000080 e0 e7 67 bc bd 21 ff 3c 2c 40 76 bd 0b f7 53 3c
       -0.014154404 0.031144017 -0.060119793 0.012937318
000090 f6 26 4f bd aa 04 8a bd 55 46 40 3e 60 d7 66 bd
       -0.050574265 -0.06739171 0.1877683 -0.05635774
0000a0 9c b4 66 bd 64 17 00 be 1d 63 f6 bc 0e 32 b4 3d
       -0.056324586 -0.12508923 -0.030076558 0.0879861
0000b0 a5 a8 79 bd 31 5a 23 3d 04 ff b4 bd 9e f7 13 3e
       -0.060951848 0.039880935 -0.08837703 0.14449927
0000c0 ad 25 2b be 7e 3e ad bd 98 1d 2b 3d 7e 8c 76 3d
       -0.16713591 -0.08459185 0.04177627 0.060192578
0000d0 60 c0 c5 3d 84 de 4a 3d c9 98 00 3e 3c 95 64 bd
       0.09655833 0.049528614 0.12558283 -0.055806383
0000e0 4d 4a 82 bd 1a f3 98 bd bb 37 62 3e 68 b2 48 3e
       -0.06361828 -0.07468243 0.22091572 0.19599307
0000f0 a0 eb 8b 3c 1e bd 89 bd 59 10 8a 3d 5c 6d 03 be
       0.017080128 -0.06725524 0.06741399 -0.12834686
000100 ed 8a 24 bd ab ae 0c be b2 4a 2e bd d3 22 66 bd
       -0.040171552 -0.13738506 -0.042551704 -0.056185555
000110 c7 1c 23 3c 01 12 35 bd 03 59 73 3d f4 d5 10 3e
       0.0099555915 -0.044206623 0.05941106 0.14144117
000120 8d 8c 1d 3e f7 66 9a 3c 47 a1 c3 bb 08 43 39 bd
       0.15385647 0.018847926 -0.0059701535 -0.04522994
000130 ae b2 9d 3d 80 9e 2e 3d 97 6c 92 bd 21 8c 13 bc
       0.07700096 0.042631626 -0.07149618 -0.009005577
000140 e4 d6 ed 3d 48 d6 4c bd c3 9e 35 3e 4e 03 ce bb
       0.11613253 -0.050009042 0.17736344 -0.006287015
000150 4f 1d 36 3d bf b7 90 bd 0d e1 25 bd 1a 1f 6e bd
       0.044461545 -0.07066297 -0.04049783 -0.05813513
000160 3c 62 21 3e dd 79 64 3d 53 a3 16 bd 13 3c b7 bd
       0.1576013 0.05578028 -0.036776852 -0.08947005
000170 a9 27 52 3d 49 87 08 3e 93 79 e8 bd 63 df 72 bd
       0.051307354 0.13332857 -0.113513134 -0.05929507
000180 c6 c3 1b 3d 67 8e 49 bd 9b c4 1c 3e b8 0d 97 bc
       0.0380285 -0.04920807 0.15309374 -0.018439159
000190 d6 5e a3 bd 1f 06 08 be c8 c4 ba bc 49 f3 0f be
       -0.07977073 -0.13283585 -0.02279891 -0.1405765
0001a0 72 34 ee bd aa a5 59 be 10 1d 61 bd c7 40 4f 3e
       -0.11631097 -0.21254602 -0.054959357 0.20239554
0001b0 0a 6c 74 3d 21 7e de bc ac 74 07 bc 70 c3 15 be
       0.059673347 -0.027159752 -0.008267563 -0.14625335
0001c0 0c 0d a7 bd 1f 17 e7 bc 9a 83 70 b8 e9 65 d5 3d
       -0.08156785 -0.028209267 -5.7343022e-05 0.104198284
0001d0 ae fe dd bd c2 81 12 3d 36 4b c7 3d cc 06 ba 3d
       -0.10839592 0.035768278 0.09731142 0.09083328
0001e0 dc 7e 96 3d 65 cb 95 bd e6 2f 22 3d 0a 5e 2d 3d
       0.07348415 -0.07314185 0.03959646 0.04232601
0001f0 b1 5c 4f 3d aa 27 47 be 3a e1 24 3d 7c 1c c6 bd
       0.050625507 -0.19448724 0.040253855 -0.09673402
000200 c7 6f 31 bd b5 17 54 bd 03 b7 fe 3d f6 33 ad 3d
       -0.04331949 -0.05178042 0.124372505 0.084571764
000210 1d d0 f2 bd 6c d7 ef bd 83 bb 81 3d 7a 91 59 3d
       -0.11856101 -0.1171101 0.06334593 0.053117253
000220 65 7d 7c 3a aa 46 c6 3c 04 dd 03 3e a4 cd c7 3b
       0.00096317224 0.024203617 0.1287728 0.0060975123
000230 32 e3 b0 3d b2 44 64 bc c2 80 20 3d 5d f0 bd bc
       0.08637084 -0.013932394 0.039185293 -0.023185903
000240 c3 80 21 3e dc 50 74 bd 58 a1 79 3a 45 ef cc bd
       0.15771775 -0.059647426 0.0009522638 -0.100065745
000250 43 88 30 bd eb ed b8 bd 3b d2 9f bc 4e 55 07 be
       -0.0430987 -0.09029754 -0.019509425 -0.13216135
000260 d0 5d 13 3e a8 64 dc bd bc 68 ae 3b 37 f0 27 3d
       0.14391255 -0.10761386 0.005322544 0.04100057
000270 e7 41 4a 3c a0 2e d7 3d ba 22 ea 3c c4 b7 0d 3e
       0.012344814 0.1050694 0.028581012 0.13839632
000280 2f c8 a9 bd 71 87 ae bd 37 29 da bd 0e 04 93 3d
       -0.08290135 -0.08521927 -0.10652392 0.07178508
000290 65 10 2f bc 33 dd 13 be 3d 0b 38 bd 82 c4 ba bd
       -0.010685061 -0.1443985 -0.044932593 -0.09119512
0002a0 7f cd ba bc bf 66 af bd 32 e8 a3 3c 62 c2 8b 3d
       -0.022803066 -0.08564519 0.02000818 0.06824185
0002b0 0e f5 6f 3d eb bf 92 bc f1 d6 5c bd 97 4e 8d 3c
       0.05858331 -0.01791378 -0.05391592 0.017249389
0002c0 33 44 ad bd 05 67 74 3b 9c 27 fb bb 31 2c 8d bc
       -0.084602736 0.003729285 -0.007664634 -0.017232986
0002d0 3a 20 f3 bd b8 3a 82 3c fb 2b e4 3d 0b 81 ee 3c
       -0.11871381 0.01589714 0.11141201 0.029114267
0002e0 88 97 02 3d ab 23 cb bd 01 c3 68 bd 6f 15 69 3c
       0.031882793 -0.099189125 -0.056826595 0.014226302
0002f0 98 4b 20 3d 73 30 82 bd c0 fd 8e 3d 7c ab 8c 3c
       0.03913459 -0.06356897 0.06981993 0.017171614
000300 48 80 8f 3c 8f d2 ee 3b 26 69 0c bd c2 8a b0 bd
       0.017517224 0.007288284 -0.034279965 -0.08620216
000310 b7 8f 02 bb ba 63 3c 3c c3 7a 3a ba e2 d7 19 3e
       -0.0019922087 0.011498386 -0.000711363 0.15023759
000320 88 1b 84 3c 40 b3 19 3d 10 48 01 be 0f 77 92 bd
       0.01612641 0.03752446 -0.12625146 -0.07151615
000330 57 80 8f 3d 42 35 fd 3d a2 95 a5 bd 31 0e 12 3e
       0.07006901 0.12363674 -0.08085181 0.14263226
000340 94 fe 9f bd 96 48 1c be 37 43 10 3e 71 1b 4d 3c
       -0.07812229 -0.15262064 0.1408814 0.01251875
000350 7d aa 95 3b 76 52 9f 3c 7c 38 c6 bb 8d a3 c5 3c
       0.004567443 0.0194485 -0.006049214 0.024125839
000360 35 80 43 3d 39 07 bc bd fd f9 94 bd 36 ae f0 3d
       0.04772969 -0.09181065 -0.07274244 0.11751978
000370 f0 11 1f bd aa a1 44 3c 78 2d cd 3d 93 69 03 3e
       -0.038835466 0.012001434 0.10018438 0.12833242
000380 0f 37 c5 3c 54 f9 1f 3c fa 35 96 bd 35 08 84 bd
       0.024074106 0.009764034 -0.07334514 -0.06446878
000390 09 b8 0f 3b a4 1d ea bd c1 de 2c 3e 99 af 3b 3d
       0.0021929762 -0.11431435 0.16881849 0.04582176
0003a0 fc cd 30 3b a7 92 ab bd 47 27 4b bd 28 c7 8e bd
       0.0026978245 -0.08377581 -0.049598005 -0.0697158
0003b0 4a 28 c1 3c b5 18 e5 3b 3b 6f c8 bd cb 8e c9 3d
       0.023578782 0.0069914707 -0.097868405 0.09841689
0003c0 55 fc 0c bd f7 3c 41 be 45 2c db ba 32 24 15 3e
       -0.03442033 -0.18870912 -0.0016721567 0.14564589
0003d0 42 75 a4 3d 3c 10 d0 3c 03 b9 ab bd 99 e3 b8 bc
       0.08030178 0.025398366 -0.083848976 -0.022569465
0003e0 09 89 d9 3b 3a 34 c6 bd 6d 7e d0 3d 5e 5b d7 3c
       0.0066386503 -0.0967793 0.10180364 0.026288684
0003f0 4d bd a2 bd d3 18 75 3d af 3b 61 3d 74 e0 a9 bd
       -0.079462625 0.059838127 0.05498856 -0.08294764

lstm.weight_hh_l0 f4 [512, 128]
000000 5e 8f d7 bd 1f e8 9c bd 04 5b 0f 3e 6a e3 69 3d
       -0.10525392 -0.07661461 0.13999563 0.057101645
000010 5f ea bf bd 95 6f e3 bd f4 ed 43 3d a0 57 39 bd
       -0.093708746 -0.11105267 0.04783435 -0.04524958
000020 a3 bd bc bd f6 08 d5 3c d7 7d 56 3e 5e f9 dc bc
       -0.09215858 0.02600525 0.20946442 -0.026974376
000030 5e fd 09 3e 03 b6 bf 3d 02 13 50 bd 90 3b e2 bc
       0.13475558 0.09360888 -0.050799377 -0.027616292
000040 11 a7 d0 3d 19 69 13 be c3 17 6b bd 08 27 d8 bd
       0.101881154 -0.1439556 -0.057395708 -0.105543196
000050 b6 73 52 bc 37 5e 18 3e ae c0 12 3d ad a1 0a be
       -0.01284497 0.1487969 0.035828285 -0.13538237
000060 87 49 1d be d1 18 fe bd ca 08 68 be 15 c2 90 bd
       -0.1536008 -0.12407077 -0.22659603 -0.07068268
000070 52 76 8d 3d 86 d8 1d 3e 2b 4d 6c be 57 f8 b4 bd
       0.069073334 0.15414628 -0.23076312 -0.088364296
000080 49 05 59 bd 6c f9 26 bd 07 77 18 bd a1 55 ca bc
       -0.052983556 -0.04076521 -0.03722289 -0.024699034
000090 69 48 4b bd 9a 3a 3d bd ac d5 45 3e 9f da 54 be
       -0.049629603 -0.046198465 0.1931979 -0.20786522
0000a0 79 76 50 3e 91 ee 25 3e b3 10 09 3e b4 10 3c 3e
       0.20357694 0.16204287 0.13385276 0.18365747
0000b0 96 85 c3 3d 28 e3 d8 3d 00 0e 1e 3d 39 e0 8a 3d
       0.09546964 0.105902016 0.03858757 0.06781048
0000c0 9c 79 43 be d2 4f 85 bd 5d c6 ab bd cb 77 42 be
       -0.19089359 -0.06509365 -0.08387444 -0.1899101
0000d0 5a 22 fc 3d af b6 29 3e 95 27 3c be 32 64 99 3d
       0.123112395 0.16573595 -0.18374474 0.07489814
0000e0 2f f6 09 be 15 90 ef bc 29 91 03 3e de 32 8a bd
       -0.13472818 -0.029243508 0.12848343 -0.067479834
0000f0 2f bd 92 3d 36 d6 81 3b 7e 19 30 be 22 b0 07 be
       0.0716499 0.0039623035 -0.17197224 -0.13250783
000100 0f 49 82 3d 8d d3 65 3d db 8c 4b 3e a9 5a 12 be
       0.06361591 0.056109954 0.19877951 -0.14292397
000110 64 74 4b be 27 68 e3 3d 8c ec fb 3d 61 a1 64 be
       -0.19868618 0.1110385 0.12300977 -0.22327186
000120 92 74 9d bd f8 5d 44 be 77 be b8 bd 9c 28 c4 3d
       -0.0768825 -0.19176471 -0.09020703 0.09578058
000130 4c bb ce bd 40 2c 23 3e ad 82 6d 3b 9e da 04 be
       -0.10094318 0.15934849 0.003624122 -0.12974021
000140 cc 8f bb 3d bc 76 95 bd 6b 1c 51 be 41 72 e1 3d
       0.091582865 -0.072980374 -0.20420997 0.1100812
000150 a2 00 04 3e 41 2a ef 3d 00 e8 b6 3d 5c 54 b2 3d
       0.12890866 0.11677981 0.08930969 0.087074965
000160 77 b5 6c 3d 1c 8d cc 3d d3 b5 43 3d 33 70 2f be
       0.057790246 0.09987852 0.047780823 -0.17132644
000170 82 0e df bd 79 a2 22 3e 39 a8 46 3d 6e ca 41 3d
       -0.10891439 0.15882291 0.048500273 0.047312193
000180 a5 aa e8 bd 4f 1d 07 3e 55 5c 6b bc b3 0f 28 be
       -0.11360673 0.13194774 -0.014365275 -0.16412239
000190 30 7b 3f 3e 18 b8 3d 3c 46 f8 62 bd 6f 10 cd bd
       0.18699336 0.011579536 -0.055412553 -0.100129
0001a0 49 10 19 3e 06 10 28 be ef 64 32 bc 83 dc a3 bd
       0.14947619 -0.16412362 -0.010888322 -0.08001044
0001b0 76 cd da bd 1d 86 de bd de 9c eb 3d 69 52 0f be
       -0.1068372 -0.10865424 0.115045294 -0.1399628
0001c0 ca 99 33 3e 6b 38 a7 3b 7c 62 02 3d e8 ae 0a 3e
       0.17539135 0.005103161 0.031832203 0.13543284
0001d0 4d 25 35 bd 08 31 8e bd 71 ef 19 bd 7b 81 5f 3d
       -0.044225026 -0.06942946 -0.037581865 0.05456684
0001e0 b8 b5 51 bc 31 9c 93 bd 00 df 23 be 18 09 c7 3d
       -0.012799673 -0.072075255 -0.16003036 0.09718531
0001f0 a3 58 ad 3d 40 87 05 be a8 73 05 3e 27 ac 7e bc
       0.08464172 -0.13039875 0.130324 -0.015543974
000200 3f 7f 83 bc 9d 71 c3 bc 8e 41 ef 3d e7 8f 8d 3d
       -0.016051887 -0.023857886 0.116824254 0.06912213
000210 92 2c 07 be 78 94 18 be 74 d6 06 3e 39 f8 28 bc
       -0.13200596 -0.14900386 0.13167745 -0.010313087
000220 ff b2 59 bd d2 6b ab 3d 31 90 9d 3d 97 99 35 3d
       -0.05314922 0.083701745 0.07693518 0.044335928
000230 29 bd c0 3d d4 0c bc 3d 82 3c 0c 3d fc 92 88 bd
       0.094110794 0.09182134 0.034237392 -0.0666866
000240 3c a9 54 3d f1 10 c8 bc 2f f7 e9 bd 40 16 1a bb
       0.051919207 -0.02442214 -0.114241 -0.0023511797
000250 ed dc e1 bd c7 0b 64 3d a6 85 bf 3d b8 43 09 be
       -0.110284664 0.055675294 0.09351663 -0.13404739
000260 9e 84 14 3d a1 94 7c bd bb f9 13 bc 68 a9 d5 bb
       0.036259286 -0.06166518 -0.009031708 -0.006520439
000270 dd 81 62 3d 9f 78 06 3e 79 ac 26 be 5d a7 fc bd
       0.05529963 0.13131951 -0.1627673 -0.123366095
000280 90 a9 85 bc 4e 2c a0 3d 87 0a 97 bd 83 24 88 bd
       -0.016316205 0.078209504 -0.07375055 -0.06647589
000290 1a 08 bd bc fc 80 a2 bc 7a 83 ce 3c 33 d3 cf bd
       -0.023075152 -0.019836895 0.025209177 -0.10147705
0002a0 f7 6d cc bc 17 cc cf bd 69 97 22 3d 08 62 9e 3d
       -0.02495478 -0.10146349 0.039695177 0.07733542
0002b0 38 7e 53 bc 2f 3b c6 3d d3 67 ee bc db a3 9e 3d
       -0.012908511 0.09679257 -0.029102242 0.07746097
0002c0 d4 d0 a6 bd a7 9a 9c bd 85 50 57 3d d5 b1 c5 bd
       -0.081452996 -0.07646685 0.052567024 -0.096530594
0002d0 c9 61 2f 3d 68 e5 d3 bc 5c b9 83 bd 13 fd c8 3d
       0.042817865 -0.025866225 -0.06431839 0.09813895
0002e0 a7 c0 f7 bd f9 8e 04 bd 78 aa 72 bd 05 9c 4a 3b
       -0.120972924 -0.03236291 -0.059244603 0.0030915749
0002f0 8d 13 f0 bc 04 11 80 bd ab 56 a1 3b 88 20 dd bd
       -0.029306198 -0.062532455 0.0049236617 -0.107972205
000300 53 3d 93 bc 43 95 b5 3d 32 d1 f2 3d d8 f1 85 bd
       -0.017973578 0.0886636 0.11856307 -0.06540269
000310 46 89 98 bc 32 2f f5 3c 85 62 f9 3b d9 65 c4 bd
       -0.018620145 0.029929731 0.0076106214 -0.095897384
000320 a5 b1 0c be 7a d3 c1 bc ef eb f2 bd 5b a5 e4 bd
       -0.13739641 -0.02366041 -0.11861407 -0.111643516
000330 62 94 09 be 6b 08 d4 bd 88 67 13 3e 88 df 5e be
       -0.1343551 -0.10353168 0.14394963 -0.21764958
000340 a6 4f ae 3a 59 2e 65 bd 3a c4 56 bd e2 92 a7 3d
       0.0013298884 -0.055952404 -0.05243323 0.081823125
000350 8f aa f0 3d 2b e1 ba 3d 0c 6b b3 3d f9 96 8b bc
       0.117512815 0.09124979 0.08760652 -0.017039763
000360 95 d0 55 be 6b b3 3f 3e f8 a7 15 3e f7 8d ab bd
       -0.20880349 0.18720786 0.14614856 -0.08376687
000370 d1 c9 1a 3d ca fd 07 3e e8 fb 64 3d 07 49 3a 3d
       0.037790123 0.13280407 0.0559043 0.0454798
000380 d6 fc 25 bb 7e 0e 0d 3e a4 de 86 3d cd 7c 2a bc
       -0.0025327704 0.1377506 0.06585434 -0.010405731
000390 cf d1 9f 3d b7 b2 aa 3d ab 78 a1 bd 7a 94 98 bd
       0.0780369 0.083348684 -0.07884344 -0.07450195
0003a0 d5 98 71 bd ae a8 2c bc c3 b6 15 be 48 98 a1 bd
       -0.058983643 -0.010538263 -0.146205 -0.078903735
0003b0 80 55 a7 bd 8e 3b a3 3b df ca 60 bc 2c 46 19 be
       -0.08170605 0.0049814647 -0.013720243 -0.14968175
0003c0 f8 24 f8 bc 75 97 7a 3e 07 72 73 3c 79 3b 92 bb
       -0.030291066 0.24471839 0.014858729 -0.004462656
0003d0 81 d5 80 bd f2 f6 e4 bc e9 53 06 3d 1f 76 b0 3d
       -0.06290723 -0.027949784 0.032794867 0.0861628
0003e0 f4 3c 82 3d e0 33 1b 3b 1b f1 05 bd 47 62 22 3d
       0.06359282 0.0023682043 -0.03270064 0.039644506
0003f0 b6 1e 71 3d 59 7b da bc ff b9 ba 3c 58 f9 0e 3d
       0.05886718 -0.026670145 0.022793768 0.03490576

lstm.bias_ih_l0 f4 [512]
000000 a7 f5 60 3e 2f 4f 07 3e 3b 8a 11 3e bf a8 aa 3d
       0.21968709 0.132138 0.14212887 0.08332967
000010 aa dd fb 3d b7 db a8 3d 5a 6e b8 3d 19 85 fa 3d
       0.122981384 0.08245032 0.09005423 0.122324176
000020 75 04 a4 3d 63 41 1a 3e 59 d3 e3 3d 23 81 1a 3e
       0.080086626 0.15064006 0.11124296 0.15088324
000030 e2 16 01 3e 03 9a a5 3d aa 94 c7 3d 61 1d 0d 3e
       0.12606385 0.08086016 0.09745152 0.13780738
000040 63 47 f3 3d 83 fe 98 3d 46 1c 09 3e 02 2b ec 3d
       0.1187885 0.07470419 0.13389692 0.115316406
000050 1f 4c c9 3d 37 23 10 3e b3 4a ea 3d 86 82 21 3e
       0.09828972 0.14075933 0.11440029 0.15772447
000060 77 63 11 3d 75 57 fc 3c 9a de aa 3d 95 f9 98 3d
       0.035495248 0.030803422 0.08343239 0.07469479
000070 cd fa 11 3d 53 2c f8 3d ce cc 10 3e 88 05 88 3d
       0.035639573 0.12117829 0.14140627 0.0664168
000080 a2 c7 be 3d e5 cf 63 3e 6c d2 47 3e 3d c4 05 3e
       0.09315421 0.22247274 0.19513863 0.1306314
000090 82 8c 4e 3e d6 dc 39 3e 85 e7 38 3e d1 0a 02 3e
       0.20170787 0.18150648 0.18057068 0.12699439
0000a0 f4 ca d8 3c 4c ca 83 3d eb c8 45 3d ff 41 c3 3d
       0.026463963 0.064350694 0.048287313 0.09534072
0000b0 96 2f 4b 3e cf 2f 36 3d 09 8d 27 3e 3d 85 c3 3d
       0.19842371 0.044479188 0.16362394 0.095468976
0000c0 f0 ef 04 3e a7 b9 19 3e 3e 96 a2 3d fe 16 43 3d
       0.12982154 0.15012227 0.07938813 0.04762935
0000d0 ae ea e6 3d e2 55 2f 3e 0b 40 0b 3d ba 92 07 3c
       0.1127523 0.17122605 0.033996623 0.008274728
0000e0 e2 89 28 3e 3d ab 0d 3e 4a c8 d8 3d 85 72 e0 3d
       0.16458848 0.13834853 0.10585077 0.10959343
0000f0 d6 27 d2 3d f4 d3 19 3e b2 0f 09 bd c7 91 2f 3e
       0.10261504 0.1502226 -0.033462234 0.17145453
000100 12 5f 41 3e bf d1 b0 3d 87 65 c1 3d b5 55 aa 3d
       0.18883923 0.08633756 0.09443193 0.083171286
000110 2e d3 fd 3d e3 62 e2 3d 4b a1 83 3b 0a 29 53 3d
       0.12393795 0.110540174 0.0040170304 0.05155281
000120 51 1b 50 3e b1 6e 10 3e ac 58 ce 3d 21 c2 24 3d
       0.2032292 0.14104725 0.100755066 0.0402242
000130 8b d3 4e 3d 74 6b 0f 3e 71 4d 55 3e 50 be 04 3e
       0.05049471 0.14005834 0.20830323 0.12963223
000140 92 79 86 3d a4 3d 1f 3e f8 30 a9 3d 7d 3c e2 3d
       0.065661564 0.15550858 0.08261293 0.110466935
000150 39 a0 d3 3c 96 4a 74 3d 11 38 14 3e f9 1b 46 3e
       0.025833236 0.059641443 0.14474513 0.19346608
000160 a7 21 0e 3d cc f4 ad 3d de 47 21 3e 72 27 4b 3d
       0.034700062 0.08493957 0.15750071 0.049598165
000170 82 2c 2a 3e c9 c3 d5 3d 08 10 08 3e 47 92 1d 3e
       0.16618541 0.10437734 0.13287365 0.15387832
000180 e8 55 c9 3d 4a 6a f7 3d 7e 1c b8 3d a5 8c 41 3e
       0.098308384 0.1208082 0.089898095 0.18901308
000190 dd 76 8c 3d ae af 9c 3d 95 df fa 3d c8 3a a1 3d
       0.06858609 0.07650696 0.12249676 0.0787254
0001a0 d0 10 12 3e ee ba 83 3c 06 6a 1f 3d fe 97 fa 3d
       0.14264226 0.016080346 0.03891947 0.122360215
0001b0 0d ff 3f 3e 56 67 d9 3d 2d 67 d1 3d 4d b6 dd 3d
       0.18749638 0.10615413 0.10224757 0.10825787
0001c0 09 2c 6e 3e a8 f7 d5 3d 2f 22 3d 3d 39 0b a7 3d
       0.23258986 0.10447627 0.04617518 0.081564374
0001d0 25 b1 ed 3d 6f 7e 29 3e 39 9d 34 3e a1 8b 25 3e
       0.11606053 0.16552137 0.176381 0.16166545
0001e0 e8 3a 33 3e 42 f9 37 3d 83 79 24 3e d2 aa 13 3e
       0.1750294 0.044915445 0.16061978 0.14420632
0001f0 52 ac 3a 3d ad 77 21 3d de 30 4d 3e db e6 47 3e
       0.045574494 0.039420772 0.20038173 0.19521658
000200 73 a0 0b 3d eb 4e bf 3d 70 17 73 3d 1f 14 29 bb
       0.034088563 0.09341224 0.059348524 -0.0025799347
000210 24 f7 bb bd ee 41 53 3c 0f 40 9c bd af 48 18 3b
       -0.09177998 0.012894137 -0.07629406 0.0023236682
000220 2a 6b e2 ba 6a 54 f4 bc d5 38 ce 3d 20 78 cd 3d
       -0.0017274369 -0.029825408 0.100694336 0.10032678
000230 20 20 0a 3e b3 5d 66 bd d6 6a 8f bc 12 6d a7 3d
       0.13488817 -0.056241702 -0.017506998 0.081751004
000240 ee ec 6b 3d 5e 6a 52 bd c2 72 7f bd 33 c9 0b 3e
       0.057599 -0.05137097 -0.0623653 0.1365097
000250 c0 f9 80 3d e7 b5 04 3e c8 8d 8d 3d 8a 20 6f 3d
       0.06297636 0.12960015 0.06911808 0.05838064
000260 0b f7 61 3c e6 e7 75 3b 3d 00 0f 3e de 5b 58 3c
       0.01379181 0.0037522255 0.13964935 0.013205497
000270 c7 6b aa 3d 28 25 54 3d 2e 93 0c 3e b9 08 d8 3d
       0.08321338 0.051793247 0.1372802 0.10548539
000280 35 61 4a 3d 64 bd c8 3b 45 ba e4 3c 14 71 ec 3d
       0.04940911 0.0061260927 0.027920851 0.115450054
000290 bb 70 8e 3b 02 f9 ee 3c e8 87 05 3d 75 d6 a6 3c
       0.0043469346 0.02917147 0.032600313 0.020365933
0002a0 92 33 3a bd 7d b3 cc 3d 87 bd ab 3d e3 e7 75 3d
       -0.045459338 0.09995172 0.08385759 0.060035598
0002b0 f7 92 30 bd 6c 23 2e 3d 35 70 0a 3d e4 97 d8 3b
       -0.043108907 0.04251425 0.033798415 0.0066099036
0002c0 33 1c 8a 3d a7 52 24 bb 29 a4 91 3d e1 0c 06 3e
       0.0674366 -0.0025073679 0.07111389 0.1309085
0002d0 45 ab a1 3d 48 60 a3 3c 81 eb 86 3d 0f 02 c3 bc
       0.07893995 0.019943371 0.065878876 -0.023804693
0002e0 46 2d 87 3d c9 03 e4 3d 5b 45 9b bb 84 bc 7b 3d
       0.06600432 0.111335345 -0.0047384924 0.06145908
0002f0 af 30 7f bd 01 7c b4 3d 06 33 83 3d 6b b1 c8 3d
       -0.062302288 0.08812714 0.06406216 0.09799465
000300 1f 52 3e 3a cd ea 37 3d 35 9c 16 3e 29 42 95 3d
       0.0007260162 0.044901658 0.14708026 0.0728801
000310 d2 91 04 3e 24 4d 97 3d 74 e2 47 3c 81 f4 8e 3b
       0.12946251 0.0738776 0.012199987 0.004362643
000320 3b 01 0e bc 75 a4 a3 3c 1c fd 8c 3d 42 41 af 3c
       -0.008667286 0.01997588 0.06884214 0.021393422
000330 c6 00 de bd b2 01 a2 bd 52 45 ae bc 67 42 d0 3d
       -0.10839991 -0.079104796 -0.021273289 0.10168915
000340 14 d4 40 3d 96 08 7b 3d e2 4a 06 3d cb 21 19 3e
       0.047077253 0.061287485 0.032786258 0.14954297
000350 b1 ac cf 3d 38 94 1e 3e 57 43 69 3d fd 25 46 bc
       0.1014036 0.15486228 0.056948986 -0.012094018
000360 bf 57 bd bc a7 6c 4c bd ef b6 cc 3c 5c 83 18 3d
       -0.02311313 -0.049908306 0.024989573 0.03723465
000370 c1 51 b9 3b 98 96 0a be e6 84 90 bb d2 09 3a bc
       0.005655498 -0.1353401 -0.004410374 -0.01135488
000380 ee f5 e5 3d b6 ce 9e 3d 08 0d 4b bc f3 6c 99 3d
       0.11228548 0.07754271 -0.012393244 0.074914835
000390 11 89 4b 3d 8d 33 4d bd a2 01 fb 3d 19 a7 e4 3d
       0.049691264 -0.05009799 0.12256171 0.11164684
0003a0 60 74 c3 3d 42 1f b2 3d ff ae 60 bd 18 31 36 3d
       0.09543681 0.08697368 -0.05485439 0.044480413
0003b0 f5 80 7d 3d 79 85 dc 3d dd 5e a2 3d 59 71 80 bc
       0.06189056 0.107676454 0.0792825 -0.015679048
0003c0 f0 4e 21 3d b1 08 3c 3d 4c 86 7e 3c fe 8f 6e bd
       0.03938192 0.045906726 0.015534949 -0.05824279
0003d0 ea d1 9c 3d fa 4d b8 3d d3 c8 ee 3b 7e 87 bd bd
       0.076572254 0.08999248 0.0072871237 -0.09254359
0003e0 f2 11 b7 bd f5 c8 c6 3d 00 5f 50 3d 60 7b 46 bc
       -0.0893897 0.09706298 0.05087185 -0.012114376
0003f0 92 ff 90 bc 11 fd 90 3d 39 0f ba 3d 1e e5 b0 bd
       -0.01769999 0.070795186 0.09084935 -0.08637451

lstm.bias_hh_l0 f4 [512]
000000 a8 f7 9e 3d cf 9b 84 3d 34 d1 b7 3c db f1 58 3d
       0.077620804 0.06475031 0.022438623 0.052965026
000010 1d 6e 5d 3d 66 17 a8 3d 59 7b 0a 3e 53 1f 1c 3e
       0.05406009 0.08207588 0.13523616 0.15246324
000020 3e e1 96 3b ff ec 21 3e e3 f2 03 bd 25 ec b2 3d
       0.0046044877 0.15813063 -0.032214057 0.08736447
000030 d6 57 1c 3d 60 6c cd 3d e8 90 44 3e 03 01 48 3c
       0.038169704 0.100304365 0.19195902 0.012207272
000040 b7 4d 27 3e a8 8b 08 3e 72 79 09 3e 38 30 e9 3c
       0.1633824 0.13334525 0.13425234 0.028465375
000050 d7 fb 4a 3e 88 69 2a 3d 28 0a 23 3e 24 2c 17 3e
       0.19822632 0.04160455 0.15921843 0.14762932
000060 de dd 7c 3d e3 46 dc 3d f8 b4 c8 3c 92 5f e2 3d
       0.061735027 0.10755708 0.024500355 0.11053385
000070 44 f5 19 3e 52 21 04 3e 23 46 28 3d f7 0a 2c 3e
       0.15034968 0.12903336 0.041082513 0.16801058
000080 4d e5 19 3e 2b 23 a1 3d 14 cc 02 3e ae 04 17 3e
       0.15028878 0.07868036 0.12773162 0.14747879
000090 e0 42 23 3e 2e 03 3c 3e c3 57 5c 3e 9d 5d b8 3d
       0.1594348 0.18360588 0.21517853 0.0900223
0000a0 f2 4b 60 3d f4 0b 1b 3e 8e d4 54 3e d7 fc 82 38
       0.054759927 0.15141279 0.20784208 6.245978e-05
0000b0 a6 5d 5b 3e 7e 19 16 3e d2 d1 37 3e dd a6 1b 3e
       0.21422443 0.14658162 0.17951134 0.15200372
0000c0 b4 9b 20 3e 73 f0 35 3e 9f f1 49 3d 64 b3 d1 3d
       0.15684396 0.17767505 0.049302693 0.10239294
0000d0 21 a3 41 3e 06 6f 49 3e 75 a1 ca 3c 6a 17 0b 3e
       0.18909885 0.19671258 0.024735192 0.1358315
0000e0 7f 38 88 3d 44 b1 80 3d 6f 7a 12 3e c5 41 0e 3e
       0.06651401 0.06283811 0.14304517 0.13892277
0000f0 3f 61 20 3e f9 6d 90 3d 12 38 20 bd 7d 05 10 3e
       0.15662096 0.070522256 -0.039115973 0.14064594
000100 fe 6a 2f 3e 43 71 c1 3d 82 ea 1c bc 70 2f 5d 3e
       0.17130658 0.09445431 -0.009577395 0.21600127
000110 6e fe bf 3c 7f 2b ca 3d 01 67 8f 3d 8e f8 ed 3d
       0.023436751 0.098715775 0.07002068 0.11619674
000120 39 60 83 3d 91 f8 dd 3d 95 b0 1d 3d b0 d7 2f 3d
       0.064148374 0.10838426 0.03849848 0.042930305
000130 e3 ea 08 3e 91 e7 25 3e 7e 3e da 3d e0 a5 d6 3d
       0.13370852 0.16201617 0.10656451 0.10480857
000140 eb 3c 59 3c f2 0d af 3d 41 77 af 3d c6 6f b0 3d
       0.013259153 0.08547582 0.08567668 0.08615069
000150 06 de 80 3d 91 8a f3 3d cb 0f 58 3c 33 be 21 3d
       0.062923476 0.11891664 0.013187359 0.03948803
000160 0b 96 2c 3e c5 66 e4 3d e9 f1 35 3e c8 fb 35 3e
       0.16854112 0.11152414 0.17768063 0.17771828
000170 69 97 9c 3d 78 aa 32 3d 48 4b dd 3d 82 ea c8 3d
       0.07646067 0.043619603 0.108053744 0.09810354
000180 4d ed 3e 3d 6c f9 a2 3d 83 d3 20 3e 78 b5 1c 3e
       0.046613026 0.0795773 0.15705685 0.153036
000190 31 16 88 3d 11 b2 04 3e 4b 9a 02 3e de 7c 73 3e
       0.06644858 0.12958552 0.1275417 0.23778102
0001a0 98 44 c1 3d c3 50 ed 3d 70 5d d0 3d ac 69 a0 3c
       0.09436911 0.1158767 0.10174072 0.019581638
0001b0 d6 fe 9c 3d 9f b3 36 3e 8d 0d 12 bd d0 0d 4a 3e
       0.076657936 0.17841958 -0.035657454 0.19731832
0001c0 ed a9 64 3e 2f 8f 35 3e 02 0e 57 3e 18 b3 5b 3e
       0.22330447 0.17730401 0.21001437 0.21455038
0001d0 69 e5 c2 3d a8 f5 82 3d 19 33 e0 3d 18 dd 41 3e
       0.09516413 0.063945115 0.10947246 0.18931997
0001e0 66 50 df 3d 4f c7 be 3d 3a b3 88 3d 83 4f 5c 3e
       0.10904007 0.09315359 0.0667481 0.21514706
0001f0 f0 f4 cb 3c 20 fd 31 3e ba a2 e8 3d db 55 18 3e
       0.024897069 0.17381716 0.11359163 0.14876501
000200 9c 7d 92 bd 82 59 23 3d 2d 54 80 3d da af d5 3d
       -0.07152864 0.039880283 0.06266055 0.10433932
000210 91 ab 45 3c fe 6f df 3d 8f 5f fa bc 1b af db 3b
       0.01206483 0.10910033 -0.030563144 0.006704224
000220 b5 0a 1a 3d 1c 8d 50 3d f7 a2 14 3e fc fd 9e 3d
       0.037607867 0.050915822 0.14515291 0.077632874
000230 8b 98 8c bc 2c c4 6d 3d 49 c9 1f bc a6 40 68 3d
       -0.017162582 0.058048412 -0.00975258 0.05670228
000240 ab 50 04 3e 6e 95 e4 bc 9f a7 86 bd 78 3e 06 bd
       0.12921397 -0.027903285 -0.0657494 -0.03277442
000250 16 5a 88 3d 3a ff 12 bd b1 7a 99 3c f5 b6 cf bb
       0.066578075 -0.035887934 0.018735262 -0.006338949
000260 7d 17 9a 3d 7a 3d 05 3e 3d 75 22 3d 47 8e 14 3d
       0.07524011 0.13011733 0.03966259 0.0362685
000270 70 ea c8 3d ac cc 33 3d 4e ea e2 3d 8d fc db 3c
       0.098103404 0.043896362 0.11079846 0.026853824
000280 1e fa 25 3c f7 c9 83 bb 95 67 a3 3d d9 f2 9c 3d
       0.010130433 -0.004021879 0.07978741 0.07663507
000290 56 9d c3 3b 9b cf 95 bc 13 0f db 3d 61 6f 21 3d
       0.0059696836 -0.01828747 0.106962346 0.03941286
0002a0 e0 f7 04 3d 99 c6 fc 3d 81 15 9a 3d 22 c9 d3 3b
       0.032462955 0.12342567 0.07523633 0.006463186
0002b0 c5 5a 47 3c fe b3 6f 3d 26 2b df bd 6f 01 ae 3d
       0.012167637 0.058521263 -0.10896902 0.08496367
0002c0 ba 76 00 3e 4a f0 82 3d 0c 9d fa 3c 6b ee d4 bc
       0.1254529 0.06393488 0.030592464 -0.025992593
0002d0 1a f8 96 3d 05 bb ed 3d 4c 80 e4 3c 5c 22 bc bd
       0.0737154 0.11607937 0.027893208 -0.09186241
0002e0 ac f9 96 3d c5 ee f1 3d 68 65 9f 3d 2b 98 87 3c
       0.0737184 0.1181312 0.077830136 0.016552052
0002f0 2f 20 c5 bc 58 d9 9f 3d 9a 12 83 3d 51 42 f1 3d
       -0.024063198 0.07805127 0.06400032 0.11780227
000300 64 ce 01 3e fd 2f 3a 3d 14 36 14 3e 99 cd c4 3d
       0.12676388 0.04545592 0.14473754 0.09609527
000310 ff cc 26 3d fa b4 99 3d 79 f6 dd 3d 99 96 ab 3d
       0.040722843 0.07505222 0.108380266 0.083783336
000320 89 13 2b bd 41 bd b3 3d 24 7e 1b 3d 64 7a 51 bd
       -0.041766677 0.08776332 0.037962094 -0.05114211
000330 50 23 d2 bc 21 7d fa bb 84 f2 a7 bd 36 bf 3b 3d
       -0.025651604 -0.007644311 -0.08200553 0.04583665
000340 a3 9d 9d bc 7a 3f b4 3d a9 6d 26 3b a2 44 15 3e
       -0.019240206 0.0880117 0.0025394952 0.14576963
000350 a7 b4 a1 3d 12 a3 6a 3d 96 a8 0b 3e 3b 94 94 3c
       0.07895785 0.057284422 0.13638529 0.018137088
000360 c7 af 34 3b 2c e8 c7 bd 65 1d 66 bd d7 29 01 3e
       0.0027570592 -0.0976108 -0.056180377 0.12613617
000370 ed 0a eb 3d 3d a8 11 be df 4d a6 bd 9c 31 06 bd
       0.11476693 -0.14224334 -0.081203215 -0.032762155
000380 10 52 0d 3e 13 b8 18 3d 26 fc 08 be 45 80 90 3d
       0.13800836 0.03728492 -0.13377437 0.070557155
000390 85 fc e1 3d ea 74 08 be 16 bc 0a 3e 54 91 8a 3d
       0.110344924 -0.13325849 0.13548312 0.067660004
0003a0 ca eb be 3b 4e af c3 3d fa cf 90 bd 48 ec d3 3d
       0.005826448 0.09554921 -0.070709184 0.103478014
0003b0 f8 51 52 bd 4d be 0f bd 0b 6c da 3d 91 c3 4c bc
       -0.051347703 -0.035093594 0.10665139 -0.012497799
0003c0 04 b8 96 3d d5 65 4d bd 48 8f 04 3e 90 d7 43 3d
       0.07359317 -0.050145943 0.12945282 0.047813
0003d0 01 76 b0 bc 28 5f 60 bc ac 46 24 3d f8 cb c5 bb
       -0.021540644 -0.013694562 0.04010646 -0.006036278
0003e0 d1 4d dc bd e4 1f 45 3b be 7b a4 3c ba 58 92 3c
       -0.1075703 0.0030078823 0.020078536 0.017864574
0003f0 12 fc 55 3c e7 b1 10 3e aa 8c 5c bd 7e 3f a4 3c
       0.0130605865 0.14130364 -0.053845085 0.020049807

fc.weight f4 [41, 128]
000000 be 21 57 3e 33 4d 39 3d cf a9 13 be 11 f0 41 bd
       0.21008965 0.04523964 -0.14420246 -0.047348086
000010 36 3a 8d 3e 2b 72 47 bd d0 9a 6e 3e ad be cd 3e
       0.27583474 -0.048692863 0.23301244 0.40184537
000020 71 52 1d 3d 36 76 86 be 5f de 1f be 11 49 3a 3e
       0.0384087 -0.26262063 -0.15612172 0.18191935
000030 f7 61 69 be 6d de 73 be 55 ee 3c be 35 48 65 3e
       -0.22791277 -0.23815317 -0.18450291 0.22390826
000040 08 d5 89 3d 7a 30 f4 3d 94 5e 28 be 3e 84 60 3d
       0.067300856 0.11923309 -0.16442329 0.054813616
000050 66 81 03 3e c2 47 f4 3d 9a 2f fb 3b 01 56 76 3c
       0.1284233 0.11927749 0.0076655867 0.015035153
000060 c7 87 73 be 77 ac 00 be 49 bc 85 3d cb 1b e1 bc
       -0.23782264 -0.1256579 0.06530053 -0.027479073
000070 2c 18 9e 3c 4d 8f be be 7e c1 bc 3d b6 ca 8e 3c
       0.019298635 -0.37218705 0.09216593 0.017430644
000080 85 a1 a9 be 31 c2 87 be 17 79 a2 3e 2a cd ad bc
       -0.33131042 -0.26515344 0.3173301 -0.021215994
000090 39 79 07 bd 82 50 f2 bd a0 98 bc be 1d a7 07 be
       -0.03307459 -0.11831762 -0.36835194 -0.13247342
0000a0 06 22 78 be e9 53 40 3e df 00 a0 3c 11 c7 f8 ba
       -0.24231729 0.18782009 0.019531665 -0.0018980225
0000b0 40 84 82 be 68 53 2f be 6f 8a 8d 3e dc 51 5f bd
       -0.25491524 -0.1712166 0.2764468 -0.054521427
0000c0 26 6a a4 bd 47 0b 32 3e 97 0a b5 3e a6 ea ba bd
       -0.08028059 0.17387114 0.35359642 -0.09126787
0000d0 7f f2 35 be 52 3b b7 be be 11 3d bd 32 46 4a 3e
       -0.17768286 -0.35787445 -0.0461595 0.1975334
0000e0 7d cf f3 3d ad b6 de 3e 33 72 e0 3c 67 0b 97 3e
       0.119048096 0.43498746 0.027398204 0.29500887
0000f0 a5 41 5f 3d d0 5d 13 3e 06 25 37 3c 59 67 59 3d
       0.054505963 0.14391255 0.011178261 0.053077076
000100 9a 68 8c be 70 1e 2b 3e ed 7e 01 3e 56 e9 96 3d
       -0.27423555 0.1671083 0.12646075 0.07368724
000110 2c a7 8a bc fc 45 18 be 14 75 a6 3d 8a 2e e3 3c
       -0.016925417 -0.14870447 0.081278 0.027732152
000120 c0 e4 a0 3e 4b 72 ce bd 32 26 76 3d fc 10 fe bd
       0.31424522 -0.100803934 0.06009502 -0.12405583
000130 e5 9b af 3e c3 13 d2 3d 73 f2 8b be 83 6e 3d 3e
       0.34298626 0.102576755 -0.27333412 0.18499188
000140 f4 a7 3c be 9f e2 3d be ae ce 43 be 1d 06 3f 3e
       -0.18423444 -0.1854348 -0.19121811 0.18654676
000150 57 67 a6 bd 2f 13 8f be de 85 15 be f8 5b 38 be
       -0.08125179 -0.27944323 -0.14601848 -0.18003833
000160 dc 2e b1 bd 7f d7 95 bb b8 60 36 be 3b 14 7d 3e
       -0.08651516 -0.0045728083 -0.17810333 0.24714749
000170 95 a3 6a bd 66 55 47 3e 41 8c f2 bd d3 22 23 3e
       -0.05728491 0.1946617 -0.118431576 0.15931253
000180 ee 94 c8 3d 10 c3 74 3e ca b1 86 be 8c cd 93 3e
       0.09794031 0.23902535 -0.26307517 0.28867757
000190 18 6b cd bd c6 d2 79 3e de 8b 8a bd 84 08 49 3e
       -0.10030192 0.2439681 -0.06764959 0.19632155
0001a0 f4 be c7 3d dd 1b 98 bd 49 02 28 3d 39 26 7a bd
       0.09753218 -0.074271895 0.041017804 -0.06107161
0001b0 ac e4 b8 3e 91 1e 89 3e f6 b3 0c be 8f 7a 29 3d
       0.36111963 0.26781133 -0.13740525 0.041376647
0001c0 f5 ad 8f be 1a 9a fb bb c2 a3 9f 3d 24 41 4c be
       -0.28062406 -0.0076782824 0.07794906 -0.19946724
0001d0 ac bd ab bd cf dc 9d 3e 26 32 02 be 9f 6d ab 3d
       -0.083857864 0.30832526 -0.12714443 0.08370518
0001e0 e0 0e 0d 3e 35 5b 01 3e 51 21 74 3e 39 cd 87 3e
       0.13775206 0.12632449 0.23840834 0.2652376
0001f0 cd 26 ef bb b9 9a 81 3e 31 a3 9d be 3c f3 ef bd
       -0.0072983266 0.25313357 -0.30788568 -0.11716315
000200 c4 57 61 be fc 4a 9d 3e ba 78 85 be c9 25 4e be
       -0.22006136 0.3072127 -0.2606867 -0.20131601
000210 e6 8b 90 be 97 61 91 3e 7a 15 0b be 78 e3 b2 be
       -0.28231734 0.28394768 -0.13582411 -0.3493917
000220 ab ce a0 be a3 c9 8a be 22 e3 8f bc 8f 5d 34 be
       -0.31407675 -0.27106962 -0.01756436 -0.17613815
000230 18 a6 16 3e 8c 41 6a 3e 16 dc c5 3e b4 4a 5c bd
       0.14711797 0.22876567 0.38644475 -0.05378218
000240 f2 b9 ea 3c bf b5 ed 3d e7 24 a3 be 36 b0 52 be
       0.028653119 0.11606931 -0.31864092 -0.20575032
000250 e5 c3 7d 3e 4d 0f 98 be c3 23 de 3e eb e9 8c be
       0.24781759 -0.29699174 0.4338666 -0.27522215
000260 e0 11 15 be bf 0c f5 3c 05 1a 72 3d c5 e7 9c 3e
       -0.145576 0.029913304 0.059106845 0.30645576
000270 6d eb 19 3e 2c 0f 83 be fb 59 b0 3c 78 4c 88 be
       0.15031214 -0.25597513 0.021527281 -0.2662084
000280 ec 99 95 be 5c 49 dc 3d 82 ce 9d be 72 31 a2 3e
       -0.29218996 0.1075618 -0.30821615 0.3167835
000290 51 6f e6 be 85 3d 1c be f5 4f 22 bc bf 79 8f be
       -0.45006803 -0.15257843 -0.009906759 -0.28022572
0002a0 88 c8 b2 be 02 78 36 3e db 82 b6 3d b5 7d 52 be
       -0.34918618 0.17819217 0.089116774 -0.20555766
0002b0 4b 3e 1f 3e ec fb 00 be 9d b5 7a 3e a7 63 48 3d
       0.15551107 -0.125961 0.24483342 0.04892316
0002c0 8b 82 b8 3d 51 60 b7 3e 96 7d be 3e 5e 30 46 bd
       0.09009274 0.3581567 0.3720519 -0.04838597
0002d0 b5 47 90 be 31 4d 91 3c 22 1a 66 be e6 50 b2 3e
       -0.28179708 0.017737003 -0.22470906 0.34827346
0002e0 a6 81 71 be f0 82 66 3e 4a 4f 22 be 47 1f 33 3e
       -0.23584613 0.22510886 -0.15850559 0.174924
0002f0 27 3d b1 be 2a dd c9 be f2 db 95 be 86 3f d4 be
       -0.34616968 -0.39426547 -0.29269367 -0.41454715
000300 89 3c 84 be f8 1c 8b 3e ce 26 67 3e 21 55 de bd
       -0.25827435 0.2717054 0.22573397 -0.10856081
000310 91 b3 6a be ff 46 45 be 0d 92 28 be 27 e0 a0 be
       -0.22920062 -0.19265364 -0.16461964 -0.31421015
000320 68 c5 c8 3e 51 9d 5a bd a3 ca 37 3d ce 5b da be
       0.3921311 -0.053372685 0.044870984 -0.42648166
000330 02 f9 41 3e 41 82 80 3e ff 84 98 be 7b 8a 78 3e
       0.18942645 0.25099376 -0.29788968 0.24271576
000340 bd 63 93 be 73 d6 16 be b9 6e 80 3d bf 8a a8 be
       -0.28787032 -0.14730243 0.06271119 -0.32918355
000350 16 f1 57 3e 36 47 a3 3e 0c 2e 6d be c2 a4 3a be
       0.2108806 0.31890267 -0.23162097 -0.18226913
000360 3a 90 35 be 6f be 8c 3e 59 ac 65 be ea 5a 9f 3e
       -0.177308 0.2748904 -0.22429027 0.3112405
000370 cf a6 6b be be 28 75 3e 91 a0 35 be c9 d9 07 3e
       -0.23012851 0.23941323 -0.17737032 0.13266672
000380 9f 9e 3b be 6b a9 92 3e fd 0a 8d be 2e 5c 10 be
       -0.18322228 0.2864488 -0.27547446 -0.14097664
000390 50 5f 2c 3b 17 45 97 bd 5c 0d 93 be 0e 12 13 3e
       0.0026301928 -0.07386225 -0.2872113 0.14362356
0003a0 54 20 ab bd 0e 7d c8 bd f8 0a 05 3e d2 ee 67 3e
       -0.083557755 -0.09789477 0.12992465 0.22649696
0003b0 ba 19 91 3e c3 b4 da 3d 6e 0c 49 be 2f 57 c2 3e
       0.2833994 0.10679009 -0.19633648 0.3795714
0003c0 b5 66 20 bd a9 6c 17 3e 14 d8 89 3d dc 8d 56 be
       -0.03916045 0.14787544 0.06730667 -0.20952553
0003d0 04 00 70 3d 4d 0e c2 3e 0e 9b c2 3e ac e2 8b 3e
       0.058593765 0.37901536 0.38008922 0.27321374
0003e0 1e c9 6c 3e e6 4d ac 3e 9b 7d 9a 3e e0 32 7c 3e
       0.23123595 0.33653182 0.30173954 0.24628782
0003f0 96 5f 96 bd a8 eb 39 3e c3 9f b6 be 0e d8 7f be
       -0.0734245 0.18156302 -0.35668764 -0.24984762

fc.bias f4 [41]
000000 27 b2 d9 bd 4c 49 66 3c 3d d1 26 bc 32 93 4a 3d
       -0.10629683 0.014055561 -0.010181722 0.049456783
000010 83 a8 fc 3d d2 19 07 3e 9a ab d5 3d 5d 04 27 3d
       0.123368286 0.13193443 0.10433121 0.040775646
000020 7e 94 c6 bc c6 06 a9 bd 5e 01 d0 bd 39 4d 12 be
       -0.024240728 -0.08253245 -0.10156511 -0.1428727
000030 1a 60 d2 bd e2 d8 71 3d 44 41 d0 bc 9e ea 9f bd
       -0.10272236 0.059044726 -0.025421746 -0.078084216
000040 31 38 7a bd 94 e0 e2 bd ff 32 94 bd f6 95 2a be
       -0.061088745 -0.11077991 -0.07236289 -0.16658768
000050 d7 6a 8f bc fa a9 2d be 27 b5 03 bd 46 5d 1d be
       -0.017507 -0.16959372 -0.032155182 -0.15367612
000060 b1 94 21 be e7 11 a0 3c 45 0c 11 3e 00 84 a5 3b
       -0.15779378 0.019539787 0.14164837 0.005051136
000070 e5 46 e2 bc b6 59 da ba 6d 3c b9 bd dc d9 b0 bd
       -0.027621696 -0.0016658816 -0.090447284 -0.086353034
000080 15 a3 1d be 4e 69 fd 3d 29 5c 09 be 48 f0 38 bd
       -0.15394242 0.12373601 -0.13414063 -0.045151025
000090 9c 3c 05 be 02 76 f6 bc 7d e3 87 3c ed fb ce bd
       -0.13011402 -0.030085567 0.016587967 -0.10106645
0000a0 5f aa 4b 3d
       0.049723025
