Portfolio-Projects/CodeMiner-AI/python_brain.pth (torch, 417618 bytes, 7 tensors)

embedding.weight f4 [22, 64]
000000 35 18 af be 23 0c a2 3e 25 ed 8a bf 98 4f ad 3e
       -0.34198156 0.31649885 -1.0853621 0.33849788
000010 61 ee c1 3e c1 0a 76 3f 77 77 f6 3e 3d 4e c1 be
       0.3787718 0.9611016 0.4813802 -0.37755004
000020 fe d0 94 bf ed 82 c3 bf 44 3f de 3f 7a fb fc be
       -1.1626279 -1.527433 1.7363057 -0.4941061
000030 20 c5 bd 3f fa 4c 60 3f fe 2d 25 3f 56 e1 5e bf
       1.4825783 0.87617457 0.64523304 -0.87062585
000040 03 7f 9a 3e 6f 2d 9a be 5c 82 68 be a3 d8 c0 be
       0.30175027 -0.30112788 -0.22705978 -0.3766528
000050 5a ce 06 bf b8 9c 1c 3f 6a 09 0d bf 22 d5 02 bf
       -0.5265862 0.61176634 -0.5509249 -0.51106465
000060 52 5f d1 be eb 84 65 bf ee b9 dc be bd 7e 2f bf
       -0.40893036 -0.8965594 -0.43110603 -0.6855276
000070 0d 1a 89 bf 9d 17 83 3f 0a 1c 97 bd 2f 7d e4 3f
       -1.0711075 1.0241581 -0.07378395 1.7850703
000080 2c 10 04 be ba d3 6a 3f a0 21 62 3e 70 20 89 bf
       -0.12896794 0.9172932 0.2208314 -1.0713024
000090 d3 4b 69 3f e5 7a ab bf 19 bc a2 3e 3f c7 6c 3d
       0.91131324 -1.339688 0.31784132 0.057807203
0000a0 58 9b 9c bf b1 b4 e6 3f ca 2a 5b bf 48 6c 90 bf
       -1.2234907 1.8023893 -0.85612166 -1.1283045
0000b0 67 94 b7 3d ab 2c 68 3f bb 7e 32 3d 1f 16 82 3f
       0.089638524 0.9069316 0.04357789 1.0163001
0000c0 37 cd 27 3f 20 3a f0 be cc eb f2 bf ad 8e 37 3f
       0.6554751 -0.46919346 -1.897821 0.7170208
0000d0 0e 65 52 3f 97 c7 1e 3f 98 b2 b6 3f 62 1c 5f 3e
       0.8218545 0.620233 1.4273252 0.21788171
0000e0 dd 0b bc 3f f5 ed cc be d9 de 91 3f 7a 2e 87 bf
       1.469112 -0.40025297 1.1396133 -1.0561059
0000f0 10 db 7a be 3b 7b 09 40 52 9c 04 bf 87 a7 28 3f
       -0.24497628 2.1481464 -0.51801026 0.65880626
000100 c2 87 8e be 08 cd 51 3f 5b cc a2 bf ed 94 bd 3f
       -0.2783795 0.8195348 -1.2718614 1.4811074
000110 5a e4 7a 3e 47 a3 98 3f 6f 66 1f 40 8f 67 7a 3f
       0.24501172 1.1924828 2.490627 0.9781427
000120 5b 69 a2 bc 0d 80 6c bf 8e f4 0d 3f 1a c6 1e bf
       -0.019825628 -0.9238289 0.55451286 -0.6202103
000130 91 1e 81 3f 45 e5 a6 bf 02 41 a5 be 53 3e a7 be
       1.0087453 -1.3038718 -0.3227616 -0.32664737
000140 0c ad d1 be e9 dd 8a be 77 eb d9 3f 3d 79 3d 3d
       -0.40952337 -0.2712243 1.7024983 0.0462582
000150 a3 7a 7d 3e f4 38 8e be 73 36 31 be b8 5d 87 3f
       0.24753813 -0.27777827 -0.17305927 1.0575476
000160 75 0d d3 bd 6d a6 65 bf b9 19 fb 3e 2b 13 b5 3e
       -0.10305301 -0.8970707 0.49043062 0.35366186
000170 0c 94 79 3e 0f 8b d2 bf b0 4d d7 bf 02 87 71 3f
       0.24372882 -1.6448687 -1.6820583 0.9434663
000180 1b e6 36 3f 2d d8 cd be 60 3c 82 3f d7 7e ac bf
       0.71444863 -0.40203992 1.0174675 -1.3476208
000190 e6 ef ec be 2e af 2d bf 7e ca 8f bf 6a a9 a2 3e
       -0.46276778 -0.6784543 -1.1233671 0.31769878
0001a0 82 88 f8 3e 8f 91 4b 3e ba 6d 14 3f 4b 0f d4 be
       0.48541647 0.19879745 0.5797993 -0.41417918
0001b0 94 09 d2 be 88 4b ea bf 49 c9 b7 bf e5 96 f7 3d
       -0.41022933 -1.83043 -1.4358302 0.12089328
0001c0 ae ee 55 be b2 87 4d 3f cf c2 28 3f 3a ef 3f 3f
       -0.2089183 0.8028518 0.65922254 0.74974406
0001d0 04 38 79 3e 69 a8 2a 3f c2 59 66 3f eb 46 12 bf
       0.24337775 0.66663224 0.8998071 -0.5713946
0001e0 5d d6 59 bf ce 1b ad 3f 79 8e d1 3f ca 39 a8 bf
       -0.8509272 1.352411 1.6371604 -1.3142636
0001f0 81 49 06 bf 69 73 8d 3e f4 c6 7f bf 72 7d 95 3e
       -0.5245591 0.27627113 -0.99912953 0.2919727
000200 95 09 19 c0 9d 45 72 be 89 62 d9 3d 05 df 97 bf
       -2.3912098 -0.23659368 0.10614497 -1.1864935
000210 41 7b 82 3e 9a c8 af bf 7d 7e c9 bf 04 31 98 be
       0.2548466 -1.3733094 -1.5741726 -0.29724896
000220 bf d9 8c 3f 18 14 f8 3e a2 1c f5 3e 07 bd d3 3f
       1.1003951 0.4845283 0.47873408 1.6542062
000230 d4 fb 96 bf dc b2 b3 3d df 9c 36 40 6a 45 35 3e
       -1.1795602 0.08774349 2.8533247 0.1770226
000240 ab 13 33 be 05 4d e1 3e 6d e5 99 3f d0 cf 85 bf
       -0.17487971 0.44004074 1.202314 -1.0454044
000250 69 d7 ff be fb 21 04 3f 68 29 a9 bf 0e 07 6c be
       -0.49969032 0.5161435 -1.3215761 -0.23049566
000260 f8 a3 62 bf e2 76 71 3f ee a1 a8 3e f0 47 77 be
       -0.88531446 0.94322026 0.32936043 -0.24148536
000270 84 0f 90 bf b8 ca 7f 3e 86 90 0f c0 59 a7 81 3e
       -1.1254735 0.24979675 -2.243196 0.2532299
000280 9a fc 9b 3e 0a 5b 0f 3f 02 9a f5 bf 4f e1 ca 3f
       0.30466157 0.5599829 -1.9187624 1.5850009
000290 88 61 e7 be b6 ea 7b bf c4 70 fe 3e 3c da a7 3f
       -0.45191598 -0.98405015 0.49695408 1.3113475
0002a0 7e b2 57 bf af 00 9f be 26 79 cc bf b1 08 a9 bf
       -0.8425673 -0.3105521 -1.5974472 -1.3205777
0002b0 22 be 01 3f b0 0b a2 bf 80 be 09 bf 2d 72 f2 bd
       0.50680745 -1.2659817 -0.53806305 -0.118381836
0002c0 1c 51 9b 3f 43 be 0f 40 4b d4 82 bf 39 91 07 bf
       1.2134128 2.2459877 -1.0221037 -0.5295597
0002d0 13 77 69 3f de 80 45 bf a4 35 4d bf 04 4a 99 3f
       0.9119732 -0.7714976 -0.80159974 1.1975713
0002e0 48 ef 90 be 32 d0 91 3f bd d4 78 3f 3c 61 a8 bf
       -0.28307557 1.1391661 0.9719961 -1.3154674
0002f0 1b ff 58 3d df f0 80 3f b5 03 c0 bd 7d 57 c4 bf
       0.052977663 1.0073508 -0.09375707 -1.5339199
000300 e8 af 1e bf 6a fb 85 be 75 87 a0 be bb 03 70 bf
       -0.6198716 -0.26168376 -0.31353346 -0.9375569
000310 6a 57 06 3f 46 7d 67 3e 39 5d 8e 3e ad 60 a2 3d
       0.52477133 0.22606382 0.27805498 0.07928596
000320 73 ce 0b 40 48 62 19 40 04 cb 2c 3f ea 58 35 3f
       2.1844757 2.3966236 0.6749728 0.708388
000330 c9 6c 9c 3f 85 a1 82 bc 13 64 3a be 6b 05 09 3f
       1.2220699 -0.01594616 -0.18202238 0.5352389
000340 33 ca e4 bf 56 41 54 3f f9 f5 89 bf 87 af ec be
       -1.7874206 0.82912195 -1.077819 -0.46227667
000350 89 e9 ef 38 39 dd 4b 3d 4b d7 c2 bd 81 c4 24 c0
       0.000114399074 0.04977152 -0.0951372 -2.5744936
000360 df ad 21 c0 a3 ff 8c bf f2 92 b0 bf bd 2d 97 be
       -2.5262372 -1.1015514 -1.3794844 -0.29527083
000370 ef c9 84 3e 7b a6 c1 3f 84 a0 23 be 2c 2e 44 3f
       0.25935313 1.5128931 -0.159792 0.7663295
000380 b6 b3 97 bf 15 a6 0d bf d7 46 af bf a3 1b 38 be
       -1.1851718 -0.55331546 -1.3693494 -0.17979293
000390 4c ce dc bf 47 bc 02 3f e6 5d 61 be 6b a0 03 3f
       -1.7250457 0.5106854 -0.22008476 0.51416653
0003a0 db 71 96 3f 6a 43 d0 bf 50 0b 3b 3f c4 cc ab bf
       1.1753496 -1.6270573 0.73064137 -1.3421865
0003b0 9d 3c 92 3f 0d 7e 93 bf eb 75 c8 3f de 2b b9 bf
       1.1424748 -1.1522843 1.5660986 -1.4466512
0003c0 74 21 57 3e fa 95 87 be ca 23 0f c0 87 7a 8b 3f
       0.21008855 -0.2648161 -2.2365594 1.0896767
0003d0 c5 60 48 bf b1 3f 87 3f 6d 02 2b 3d b8 38 81 3e
       -0.7827266 1.0566312 0.04175036 0.25238585
0003e0 e7 8d bf be cc 72 1d 40 4b 38 11 c0 0a 0a 0c bf
       -0.3741295 2.4601316 -2.2690609 -0.5470282
0003f0 25 19 b1 3f 0f 31 5c bf 1e fe 90 3f 3c ce f0 3f
       1.3835799 -0.8601236 1.132755 1.8812938

lstm.weight_ih_l0 f4 [512, 64]
000000 6a 70 65 bd cb 7f 76 3d 3f 46 71 bd 86 d9 07 bc
       -0.05601541 0.060180467 -0.058904883 -0.008291608
000010 24 21 8b bd 43 ae 9c bd 4d 93 0f 3e 65 b6 0c be
       -0.067934304 -0.07650425 0.14021035 -0.13741453
000020 e3 c4 d3 bc dd 16 b2 bd 31 e4 46 3d d8 c4 2d 3d
       -0.025850719 -0.08695767 0.048557464 0.042424053
000030 bf 7a 09 bd 94 9a 6a 3d b7 c2 45 bd f8 f1 29 bc
       -0.033564325 0.057276323 -0.048281398 -0.010372631
000040 fc 77 a4 bd cf ce c2 bd f4 60 f6 3d 6e 5b fd 3d
       -0.08030698 -0.09512102 0.12030211 0.123709545
000050 67 77 0f be c1 f7 60 3d 03 b5 61 be c1 d6 88 3c
       -0.14010392 0.054923777 -0.22041707 0.016703965
000060 a4 6a 60 3c b2 26 f9 bb 6a 64 9c bc 69 8a f3 bc
       0.0136973 -0.00760349 -0.01909085 -0.029729085
000070 cd 86 bd 3c 13 5f 04 bd 3a 09 0f be 46 9a f8 3d
       0.023135567 -0.032317232 -0.13968363 0.121388
000080 00 a6 c8 3d 58 4d ca bd 9d 6e c1 bc e2 e2 66 bd
       0.09797287 -0.098780334 -0.023612315 -0.056368716
000090 2f 1e 08 3e b0 9b 1b 3d 00 fe f8 bd 09 dd 9c bb
       0.13292764 0.037990272 -0.12157822 -0.0047870916
0000a0 f9 25 ee bd 1c 34 e9 3d fb 7b 77 3c b6 2e 0d be
       -0.116283365 0.11386892 0.015105243 -0.1378735
0000b0 52 75 9f bd 3e 74 b9 bd 09 1b cb bc e5 22 85 3c
       -0.07786049 -0.090553746 -0.024793165 0.01625199
0000c0 8f 7d 37 3d d6 7a 81 bd 97 e2 14 be f5 17 d8 3d
       0.044797476 -0.06322257 -0.14539562 0.105514444
0000d0 d5 b0 39 3c 06 a9 2b 3e 5c c5 d9 3d df fe 5e bd
       0.011333664 0.16763696 0.106333464 -0.054442283
0000e0 06 e2 62 bb 7d 2d e0 3d a9 da 15 3e 2a 51 83 3d
       -0.0034619584 0.10946176 0.14634193 0.06411965
0000f0 ba 8c 1b be 0a ac 93 bd 5b 11 17 bd b7 ed 9d bd
       -0.15190402 -0.07210548 -0.036881786 -0.07711356
000100 57 e2 9b bd 62 80 38 3d a7 d6 14 bd 25 6a 87 bd
       -0.0761153 0.04504431 -0.03633752 -0.06612042
000110 f3 ae c7 bc 5d e9 02 3e 2f f9 1e 3d 4c a9 3e be
       -0.024375414 0.12784334 0.03881186 -0.18619269
000120 c1 68 b6 bd 4a 3c 85 bc d1 2b d8 3d 9e 92 3e 3e
       -0.08906699 -0.0162641 0.10555232 0.18610618
000130 0f e8 42 3e dd 70 07 3e 3f e0 02 3c d0 a0 3d be
       0.19033836 0.13226648 0.007988035 -0.18518376
000140 c8 3f b9 3c 4a 94 cd bc ee b5 39 bd 61 c8 48 bd
       0.022613421 -0.025095124 -0.045339517 -0.04901922
000150 ce 1f a5 bd d5 d3 91 3d 54 a4 7d 3d 4d 3e b7 3c
       -0.08062707 0.07120482 0.061924294 0.022368575
000160 4f d5 d1 3d 8c a2 08 bd 25 80 cb bd a4 f0 12 3e
       0.102457635 -0.03335814 -0.09936551 0.1434961
000170 dc 73 c4 bd 99 53 75 3c 68 a1 cd bd 7b 41 8d 3d
       -0.09592411 0.0149735445 -0.100405514 0.06897255
000180 c3 a0 f9 3c 95 d4 5f 3e 57 bd b5 3d a0 6e 92 3d
       0.030472165 0.21858437 0.08874004 0.07150006
000190 c1 5b 1b bd 9e 00 69 3d f9 d4 d9 bd 69 fe b6 ba
       -0.0379293 0.056885354 -0.106363244 -0.0013961318
0001a0 c8 f5 1b bd 62 d0 5e 3e c9 19 9b bc fa 81 47 bc
       -0.038076192 0.21759179 -0.018933194 -0.012176985
0001b0 c4 04 09 3e 26 44 1c 3e 73 2e ec 3c 5d 8d 44 3e
       0.13380724 0.15260372 0.028830742 0.19194551
0001c0 df e8 5d 3d dc e2 25 be 24 0c 63 be 02 1a 81 3c
       0.05417716 -0.16199821 -0.221726 0.015759472
0001d0 fd 94 31 3d e3 ea c6 bc 94 49 d5 bd 10 33 0f be
       0.043354977 -0.024281925 -0.104144245 -0.13984323
0001e0 8c 87 92 3d a2 57 c2 3d 8e 5c 47 bc fd 61 6d bd
       0.0715476 0.09489371 -0.012168063 -0.057954777
0001f0 23 6d 48 be a2 4a f4 3d 39 fd 3a 3d 74 c0 cc 3c
       -0.19572882 0.119282976 0.04565165 0.024994113
000200 89 53 24 ba fc 9c 09 bd cb 96 07 bc 7c 8a 21 be
       -0.0006268551 -0.033596978 -0.008275698 -0.15775484
000210 da a6 85 bd 82 c3 3b bd 56 86 8b 3d 38 be 84 bd
       -0.06525965 -0.045840748 0.06812732 -0.06481594
000220 7a bc 3a 3d 2b 66 05 bc 9f 14 14 bd 11 96 58 bc
       0.0455899 -0.0081420345 -0.03615248 -0.013219372
000230 cc f8 aa 3c 08 3b c0 3d 20 71 19 3e 0a ab 2f bd
       0.020870589 0.09386259 0.1498456 -0.042887725
000240 a4 57 ef bd e3 14 0b 3d 34 58 44 3d 6b 22 c8 3d
       -0.11686638 0.033955466 0.04793568 0.0977219
000250 50 74 c1 bd 92 75 c5 3a a9 a4 f2 bd 81 5d 4e bc
       -0.09446013 0.0015064946 -0.11847813 -0.012595535
000260 ba c9 f0 3c 7f e6 5a 3e f2 f6 83 b9 ae 8a 05 3e
       0.029393066 0.2137699 -0.00025170256 0.13041183
000270 4e b3 18 be 78 3d 8e 3c ca c0 54 bd 65 77 b3 bd
       -0.1491215 0.017363295 -0.05194167 -0.08763007
000280 ab e5 29 3e 1e 7a 13 3d b5 ea 58 3d 3a 8e e3 3d
       0.16591518 0.036005132 0.05295821 0.11111112
000290 10 3b 96 bd 05 cf 10 be 61 a9 0a be 83 67 1d 3e
       -0.07335484 -0.14141472 -0.13541175 0.15371518
0002a0 7b 71 0e be 0e 1f c6 3d 22 ab ab bd 1f 63 e9 bd
       -0.13910477 0.09673892 -0.0838225 -0.11395859
0002b0 4f e5 76 bd 0a 79 d6 3c 34 9f af 3d 7f f8 83 3d
       -0.06027728 0.026180763 0.085752875 0.06443881
0002c0 fc 7b 16 3e 16 ee a9 bc 78 5a 15 3d b5 58 ca 3d
       0.14695734 -0.020743411 0.03646323 0.09880201
0002d0 16 76 61 3d 69 e5 08 3e 5d 31 02 3c 56 66 0d be
       0.055044256 0.13368763 0.007946339 -0.1380857
0002e0 e4 d4 88 3b 2d f4 f3 3d 37 5c b7 3d e1 97 c1 3d
       0.004175769 0.11911807 0.089531355 0.09452797
0002f0 0c df 37 be 82 22 03 be f9 14 9c bd 4d ee 5a be
       -0.1795618 -0.12806132 -0.07621188 -0.21379967
000300 d1 58 9d 3d 24 a9 4c 3e 57 1d be bd 7c c4 9a bb
       0.07682956 0.19986397 -0.0928294 -0.00472313
000310 71 3d ea bd 2d 9a f3 bc 3c 7b 4e b8 d8 71 c8 bd
       -0.114375 -0.029736603 -4.9229e-05 -0.09787339
000320 47 b6 cf bc 5f b8 da bd bf df 7d 3c 87 c1 ac 3c
       -0.025355471 -0.10679697 0.01549524 0.021088375
000330 a0 ae c2 bc 35 6b be bc e8 3d 06 be 47 9f 4c 3d
       -0.023764908 -0.02324448 -0.13109553 0.049956586
000340 8c d4 1b be a3 1b 0b be 42 23 ce bc 09 a4 3f 3e
       -0.15217799 -0.13584761 -0.025163297 0.18714918
000350 ab 86 0c be 4b 75 ab bd c6 3d 1c be 24 c4 d1 3d
       -0.13723247 -0.08371981 -0.1525794 0.10242489
000360 31 bf 85 3d 27 5b d6 bc f9 3b 6b bc dc 25 23 3e
       0.065306075 -0.026166512 -0.01435756 0.15932411
000370 df 46 18 bc 2c 80 84 bc 55 4f ca bd 70 1c 8c 3d
       -0.009294241 -0.016174398 -0.09878413 0.068413615
000380 f3 ae 3b 3d e4 37 24 3e da ff 95 3d f2 ce 96 3c
       0.04582114 0.16036946 0.073241904 0.018409226
000390 44 bf ec 3c b0 02 02 3e fc 67 4f bd f6 98 7d bd
       0.028899796 0.12696338 -0.050636277 -0.061913453
0003a0 70 48 0e bd cf 45 92 3d 9c c5 1d 3c 3d 64 13 3d
       -0.03473705 0.07142221 0.009629633 0.035984267
0003b0 2c f1 de bd b1 dc bf 3d 7e 6e 15 3d 67 fb 00 be
       -0.10885844 0.093682654 0.036482327 -0.12595902
0003c0 ba 57 01 bd 9c 24 fb bc dc 87 45 bd cf 0d 10 3e
       -0.031577803 -0.030657105 -0.04822527 0.14067768
0003d0 27 2e 2f bc bd 3c a8 bd 7f c0 cc bc f5 e7 06 be
       -0.010692156 -0.0821471 -0.024994133 -0.13174422
0003e0 22 0b a0 bd 62 b9 00 bc 4d 27 ed bd 9d 6e ed 3c
       -0.078146234 -0.007856699 -0.11579762 0.028983409
0003f0 d0 b7 99 bd f7 f4 d8 bd c1 b0 0d be 6f d2 65 bd
       -0.075057626 -0.10593598 -0.13836958 -0.05610889

lstm.weight_hh_l0 f4 [512, 128]
000000 c9 ec fc 3b 03 5f bf bc c3 ea 91 bb bb 99 14 3c
       0.0077186567 -0.023360735 -0.0044530346 0.009069855
000010 42 36 18 be 91 e8 88 3d 38 c1 c6 bd d7 48 f8 3c
       -0.14864448 0.066849835 -0.09704822 0.03030817
000020 ee c9 28 be 43 96 dc 3d 26 be 03 be 36 df 1b bc
       -0.1648328 0.10770848 -0.12865505 -0.009513667
000030 93 cd 8f bd de d3 fd 3d 08 02 00 be ee c8 f1 bd
       -0.07021632 0.12393926 -0.12500775 -0.118059024
000040 3b 1a 02 be 77 56 37 be c4 36 28 3b 76 dc 24 be
       -0.12705319 -0.17904077 0.0025667408 -0.16099724
000050 4a bb 3a 3d af 29 10 3e 38 29 85 bd bc 40 5b bd
       0.04558877 0.14078401 -0.065020025 -0.053528532
000060 cb d6 2e be 61 bc 05 3e 81 a5 c0 3c 11 90 08 be
       -0.17074125 0.13060142 0.023516418 -0.13336207
000070 45 3d 76 bd 8f 4f 08 be 36 52 be 3c 97 a5 2c be
       -0.060117025 -0.13311599 0.02323256 -0.16860043
000080 51 42 13 bd 08 37 c0 3d 93 45 c1 bb 21 5f 65 3e
       -0.035951916 0.093854964 -0.0058981865 0.2239957
000090 ca 17 14 bc 12 67 fd bd a5 4f 89 bc 8f 77 70 3d
       -0.009038875 -0.12373175 -0.01676161 0.05870777
0000a0 16 ba f7 3d 67 2a 27 bd b9 6c 2c bd a9 3f e2 bd
       0.1209604 -0.040811922 -0.042095874 -0.110472985
0000b0 75 ed e6 3d fb 01 04 3d 5c 84 08 3e cd 24 ad 3d
       0.1127576 0.03222845 0.13331741 0.08454285
0000c0 65 4b b0 3d b9 a6 0a bd 7d 7c ca 3d c2 88 a0 bd
       0.0860813 -0.033850405 0.098870255 -0.078385845
0000d0 3b 63 95 3d 60 fc 20 bb ee 7a 25 be 6d 09 c4 3c
       0.07294317 -0.002456449 -0.16160175 0.023930276
0000e0 12 ef 1a 3c 26 1f 30 be 9d df 32 be af c7 de bc
       0.009456413 -0.17199382 -0.17468114 -0.027194826
0000f0 07 e5 b2 3d b4 f1 ed bd 29 64 42 3d 62 80 1b be
       0.0873509 -0.11618367 0.0474588 -0.15185693
000100 14 cf db 3d 6b 1b db 3d 5a 9b 88 bd c0 83 c2 3c
       0.107328564 0.10698589 -0.06670256 0.023744464
000110 de 87 c0 3d ed 46 3b 3e 81 7a b4 bd 06 c9 0a 3d
       0.094009146 0.18288775 -0.08812428 0.033883117
000120 83 14 cb bd 98 00 9b 3d 42 35 da bd 1b 2b 1c 3c
       -0.09916022 0.075684726 -0.10654689 0.0095317615
000130 69 72 24 3e a7 d1 0e 3e 0b 45 57 bd 95 78 91 3d
       0.16059269 0.13947164 -0.05255608 0.07103077
000140 d0 91 8f bd 41 11 03 3d d5 3c 84 3d 64 96 0d 3e
       -0.070102334 0.031998876 0.06456915 0.138269
000150 ad 97 4b 3d ef 27 b4 bd 0f d2 ea bd 36 45 d0 3d
       0.049705196 -0.08796679 -0.11465847 0.10169451
000160 dc 0e e5 3d f1 33 c0 bd 87 7c 25 3d 75 ee f0 bd
       0.11184475 -0.09384907 0.04040196 -0.11764232
000170 56 2b 81 3d 2c 83 81 3d db 42 06 be 6c 35 1e 3e
       0.06307094 0.06323847 -0.13111441 0.15450066
000180 e1 7e 0d 3e 96 71 a3 bc bd 15 b9 bd cd 4a 73 3c
       0.13817932 -0.019951623 -0.090373494 0.014849377
000190 d8 67 2c bb e9 9d 98 3d d6 f7 46 bd 6f c7 98 3d
       -0.0026307013 0.07451994 -0.0485762 0.07459914
0001a0 4e d8 30 be 82 43 26 bd 0d b4 a0 3c c4 ed 40 be
       -0.17270014 -0.040591724 0.019617105 -0.188407
0001b0 11 50 37 3e 94 7c 6e bd ba 1f 8c 3d db c7 9c 3d
       0.17901637 -0.058224276 0.06841989 0.07655307
0001c0 42 35 f4 bd 3f c3 20 3c a8 8b 67 b9 a9 0f 73 3c
       -0.119242206 0.009812175 -0.00022081903 0.014835277
0001d0 cf 78 1b bd 09 e5 7a 3c 0c cf d6 3d 93 49 51 3e
       -0.03795701 0.015313395 0.1048871 0.20438223
0001e0 30 84 1f 3d 8e 22 40 3e f4 bd 1c 3d 70 ed 13 be
       0.038944423 0.18763182 0.03826709 -0.14446044
0001f0 95 9d a3 3d 6b bc 1c 3c 13 b1 59 3d 57 32 20 be
       0.07989041 0.009566407 0.053147387 -0.15644203
000200 2f 67 fc 3d db d2 f5 bc 8a 8a 1c be fa 70 26 3e
       0.12324368 -0.03000777 -0.15287223 0.16254035
000210 19 d7 26 be 52 e5 0e 3d ec 4c 2e be 7d 89 db 3d
       -0.1629299 0.034886666 -0.17021531 0.10719583
000220 f4 f2 d4 bd 7a cb 39 3d 09 12 0e bd 5c 2a 99 bd
       -0.10397902 0.045360066 -0.03468517 -0.074787825
000230 f4 16 bd 3c 9d bd 9f 3c bd 66 ad bd 18 3e a0 bd
       0.023082234 0.019499594 -0.084668614 -0.078243434
000240 81 f0 78 bd 55 08 85 bd 46 fd 1d bd a1 1e 63 bc
       -0.060776237 -0.0649573 -0.03857162 -0.013862283
000250 36 4a 39 3e 28 72 e4 bd d1 bd 9e bd 16 a8 60 bd
       0.18094715 -0.11154586 -0.07751048 -0.0548478
000260 cf ee 0a be 6b 25 ca 3d 00 89 1b be f7 9c cf bd
       -0.13567661 0.09870418 -0.1518898 -0.101373605
000270 ca b0 c1 3d c8 b3 8b bd 92 51 84 bd 1e 0a 5a bd
       0.09457548 -0.068214 -0.06460871 -0.053232305
000280 97 ca c0 bd 3c 23 0f 3e 0c 34 2c bc ae 9e 0d be
       -0.09413641 0.13978285 -0.010510456 -0.13830063
000290 56 fe 9d 3d ee 06 64 bc cd 39 e2 3d c5 b8 a4 bd
       0.07714526 -0.013917668 0.11046181 -0.080430545
0002a0 9c cf db 3c 3e 3e 54 bd 30 ff 20 3e 60 04 9c bd
       0.026832394 -0.05181717 0.15722346 -0.07618022
0002b0 c9 b4 cd bb dd 04 4b bd 5d 9c af 3d 11 b4 2c 3e
       -0.006277655 -0.049565185 0.08574746 0.16865565
0002c0 8f 6b 20 3d 59 e1 0d be 13 f9 7b bd f0 95 21 be
       0.039165076 -0.13855495 -0.061516833 -0.15779853
0002d0 fe 6c 08 bd ea e8 d9 3c 25 4a 09 be c9 1a 55 bd
       -0.033307068 0.02660032 -0.1340719 -0.052027497
0002e0 b1 cc fc bd b9 26 23 be 16 a1 0e be 35 14 38 be
       -0.12343729 -0.1593274 -0.13928637 -0.17976458
0002f0 07 b6 13 3e e6 d4 06 bd 8e b7 06 3e 60 e3 35 bd
       0.14424907 -0.03291788 0.13155958 -0.044406295
000300 b0 17 17 3e 35 fc 90 3d 75 90 96 3d 66 ef 1f 3e
       0.1475513 0.07079355 0.07351772 0.15618667
000310 8f c8 97 3c 41 c5 e4 3d ba f5 f7 bd 07 1c 53 3d
       0.018528251 0.11170436 -0.121074155 0.0515404
000320 74 2c bf 3d f2 81 b9 3d b5 5a 32 bd ee bd 9b 3d
       0.09334651 0.09057988 -0.043543536 0.076045856
000330 af 98 b5 3d ef 99 31 3e 59 bb 51 be 16 5f 85 3c
       0.08867013 0.17343877 -0.20481624 0.016280692
000340 e2 0f 2f 3e 0c b1 5b 3e f1 88 7c 3c 32 e4 27 bd
       0.17095903 0.21454257 0.015413509 -0.04098911
000350 72 69 3c 3e e8 bd 9e bd 1d 19 51 bd a4 77 76 3d
       0.18399599 -0.077510655 -0.05104934 0.060172692
000360 db 40 08 bd 06 5a 2a be 2c 71 0b 3e 9a 40 15 be
       -0.033264976 -0.16635904 0.1361739 -0.14575425
000370 5c de 95 3d e8 a4 2e bd 76 4b 3a be 74 cc 10 3e
       0.07317802 -0.042637736 -0.18192849 0.14140493
000380 9a 83 9e 3c 20 bc 1b be b9 50 bb bc 8a 59 29 3d
       0.019349862 -0.15208483 -0.02286564 0.041345157
000390 28 4a 28 bd 46 a9 89 3d e3 8a 02 be e2 50 24 3e
       -0.041086346 0.067217395 -0.12748294 0.1604648
0003a0 17 ba 26 bd 67 60 17 be 40 4a 82 3d e6 61 17 be
       -0.040704813 -0.14782868 0.06361818 -0.14783439
0003b0 1c eb 01 3e 64 27 bd bd 95 d9 2b 3e b4 22 11 be
       0.12687343 -0.09236029 0.1678222 -0.14173394
0003c0 cf 38 99 bd b7 3c ff 3c ca 43 04 3e e0 4b 37 bd
       -0.074815385 0.03115688 0.12916484 -0.044750094
0003d0 11 16 25 3d 95 86 d4 3d 7f f0 a5 3d 94 87 f5 3d
       0.040304247 0.10377232 0.081025116 0.1198875
0003e0 77 a3 06 bd 41 32 e3 3c d7 8d d4 bd 9a 6b 2d be
       -0.032870736 0.027733924 -0.10378616 -0.16935578
0003f0 54 3b a9 3d dc ba da 3d 00 e9 0c 3d 7b ca c9 bd
       0.08263269 0.10680172 0.034401894 -0.09853073

lstm.bias_ih_l0 f4 [512]
000000 64 05 1b 3d 62 18 16 3e e5 6b 1d 3e 93 98 4d 3d
       0.037846938 0.14657739 0.1537319 0.050194334
000010 49 6b bf 3d 55 18 62 3d 9e 9d 11 3e a6 35 30 3e
       0.09346635 0.055198986 0.14220282 0.17207965
000020 36 1a d7 3d d9 5b 28 3e 41 1e fd 3d 8b a0 5b 3d
       0.10503046 0.16441287 0.12359286 0.053619903
000030 ae 8d d2 3d 1f e3 20 3e 32 17 ef 3d 06 14 d7 3d
       0.102809295 0.1571164 0.11674346 0.10501866
000040 ac bf 41 3e 89 77 45 3c 14 83 08 3e 20 5d e1 3d
       0.18920773 0.012052425 0.13331252 0.1100409
000050 db 18 e4 3d 77 23 06 3e 35 3b d7 3d 76 11 fb 3d
       0.11137553 0.13099466 0.1050934 0.1225919
000060 ed d2 2e 3e f2 ef 84 3d ee ff 04 3e 87 81 02 3c
       0.1707265 0.064910784 0.12988254 0.007965452
000070 79 69 19 3e 85 4e 3b 3e 91 4e d5 3d 80 1d 81 3d
       0.14981641 0.18291672 0.10415376 0.06304455
000080 39 68 c1 3d 77 21 41 3d b9 7f c9 3d 34 0a 46 3e
       0.09443707 0.047151055 0.09838814 0.1933983
000090 6e 39 35 3e ad 70 20 3e d9 c2 67 3d 63 dd 2a 3e
       0.17697689 0.15667982 0.056582306 0.16686015
0000a0 10 4b 3a 3e 34 4b 80 3d ca 98 c5 3d 6f 9c 27 3d
       0.18192697 0.06264344 0.09648283 0.04092067
0000b0 ac f4 84 3d 31 1d e2 3d 19 bc 22 3d 21 0a 53 3e
       0.0649198 0.11040724 0.039730165 0.20609333
0000c0 b5 f3 13 3e 32 86 42 3e 7e 19 e9 3d ad 10 15 3e
       0.14448436 0.18996504 0.113818154 0.14557143
0000d0 6c 7a 37 3e df 70 50 3c d3 d9 3e 3e f1 e8 91 3d
       0.17917794 0.012722223 0.18637781 0.07124508
0000e0 cd 09 3a 3e a5 2d b1 3d 55 56 9e 3c 01 84 3c 3e
       0.18167801 0.08651284 0.019328276 0.1840973
0000f0 21 62 29 3e 6e a5 50 3e 04 ee 24 3e 54 d6 ab 3d
       0.1654134 0.20375606 0.16106421 0.08390489
000100 57 17 0a 3e ac f2 12 3e ba f2 05 3e b3 c0 1b 3e
       0.13485466 0.14350384 0.13080874 0.15210228
000110 76 60 43 3d 64 9f 6e bc e5 36 36 3e f0 19 24 3d
       0.047699414 -0.014564369 0.17794378 0.0400638
000120 bc 4d 09 3e e1 4d 31 3d a4 d7 95 3d 6f 7a 04 3e
       0.1340856 0.04328716 0.07316521 0.1293733
000130 d0 ea e3 3c 72 4a 57 3d 63 cb 20 3e 9c 41 1f 3e
       0.027821928 0.05256123 0.15702586 0.15552372
000140 e8 50 27 3e a5 ef e5 3d 65 06 09 3e 3a 2e f5 3c
       0.16339457 0.11227349 0.13381346 0.02992927
000150 60 da fb 3d 20 48 c8 3d a4 46 24 3d d9 c3 45 3d
       0.12297511 0.09779382 0.04010643 0.048282478
000160 d7 59 55 3e cd a0 7e 3d 24 72 f0 3d 5b 75 60 3c
       0.20835052 0.06216507 0.117405206 0.013699855
000170 7c 24 87 3d b8 b9 27 3d c3 35 25 3d ef ae d7 3d
       0.06598756 0.0409486 0.040334474 0.10531413
000180 f4 53 da 3d 04 71 17 3e 5f 37 d6 3d 4c 8c b0 3d
       0.10660544 0.14789206 0.1045978 0.086205095
000190 02 6e cf 3c ba fb 4d 3d 0e dc 24 3d a8 6e 13 3e
       0.02532101 0.050288893 0.040248923 0.14397681
0001a0 cc b2 1f 3e b0 5b 49 3e 55 a8 3a 3e cd b6 4f 3e
       0.1559555 0.19663882 0.18228276 0.20284577
0001b0 58 98 f0 3d 97 99 39 3e 18 f5 06 3e a3 73 a2 3d
       0.11747807 0.18124996 0.13179433 0.07932212
0001c0 2b a6 e6 3d 78 bd 38 3e d5 d5 19 3e 94 04 ba 3d
       0.11262163 0.18041027 0.15022977 0.090829045
0001d0 90 c4 09 3e 35 58 7f 3c 35 bc be 3d 80 3d 2d 3e
       0.13453889 0.015584995 0.093132414 0.16917992
0001e0 d0 85 10 3e c2 fa 00 3e 6c e3 99 3c fd 7d 24 3e
       0.14113545 0.12595657 0.018785201 0.16063686
0001f0 b4 5c 9b 3d ed 1c 18 3e 4e ef 5a 3d 3a 25 12 3e
       0.07586041 0.14854784 0.053450875 0.14272013
000200 6a bc 56 bd d6 f9 bd 3d c3 b5 c8 3d c5 a1 8e 3d
       -0.05242578 0.09276168 0.09800293 0.06964449
000210 ee e7 af 3d ee 7e 51 bd 0d 21 1a bd 54 9a fc 3d
       0.08589159 -0.05114644 -0.037629176 0.12334123
000220 46 8c 9c 3d 2b 8b 3e bd 82 8c 6a 3d d1 c5 4b bd
       0.076439425 -0.04651944 0.057262905 -0.0497492
000230 e8 e9 3c bd 93 50 ab 3d e7 ed 0d 3e 69 26 68 bd
       -0.046121508 0.08364978 0.13860284 -0.056677256
000240 49 87 b8 bd b1 c1 16 3c 74 38 db 3d 11 a1 c9 3c
       -0.090101786 0.009201453 0.10704127 0.024612935
000250 8b 39 20 bd c4 b9 c8 bc da de 82 bd 0b a3 10 bb
       -0.039117377 -0.024502642 -0.06390162 -0.0022069837
000260 d3 66 58 bd b8 ff c2 3d a4 68 81 3d 77 a2 b1 3c
       -0.052832436 0.09521431 0.06318787 0.021683915
000270 7c b3 1f 3d d9 13 8d 3d af 59 fe 3c 74 80 9e 3b
       0.03898953 0.06888551 0.031048624 0.00483709
000280 e9 20 a8 3d 4e 88 f3 bd 68 f1 6b ba 9d 12 f5 bd
       0.08209402 -0.118912324 -0.0009000511 -0.11966441
000290 d3 42 cf 3c fe cb dc 3d 08 b1 75 bb 02 50 81 3d
       0.025300419 0.10781096 -0.0037489552 0.063140884
0002a0 73 8c d3 3d 64 70 00 3e 61 44 ad bc 9d b1 3e bb
       0.10329523 0.12542874 -0.02115077 -0.0029097565
0002b0 28 bb c1 3d 4d 16 9f bc be 7d 01 3e eb 54 8a 3d
       0.09459525 -0.019419814 0.12645623 0.06754478
0002c0 fe 9a be 3d 53 c4 b0 bd 14 89 11 bd d8 04 9d 3c
       0.09306906 -0.08631196 -0.03553112 0.019167349
0002d0 44 b7 14 3d b3 95 7b 3d be ce 07 bd a2 3e d6 3d
       0.03630759 0.06142206 -0.03315615 0.10461165
0002e0 24 d7 cd bb 8b 02 f0 3d 04 39 f9 3d 52 97 95 bb
       -0.0062817503 0.11719235 0.12169078 -0.004565158
0002f0 e9 e7 b0 bc 9a 9f 3a bd f6 66 c4 bc 15 7f f0 3d
       -0.021594958 -0.045562364 -0.023974877 0.11742989
000300 34 c0 50 3c 7e e8 72 3d fb 61 b6 bc 08 0c ae bb
       0.012741137 0.059303753 -0.022263518 -0.005311493
000310 ec ad 58 3d 65 35 07 3e 53 22 a8 bd 57 c5 17 3e
       0.05290024 0.13203962 -0.08209672 0.14821373
000320 6b 52 f4 3d bb 28 e9 3d 14 18 1c 3d c5 44 86 3d
       0.119297825 0.11384722 0.0381089 0.065560855
000330 12 43 02 3d a1 4e b3 bc 07 99 ae bb 41 01 fa 3c
       0.031802244 -0.02188808 -0.005328301 0.030518176
000340 74 79 e8 3d df e9 dd 3d 5e 9c f9 bc 8c 0d 37 be
       0.1135129 0.10835623 -0.03047007 -0.17876261
000350 fa 02 7d bd 63 fa f4 3d 51 70 5d bc 39 b2 c2 3d
       -0.061770417 0.1196182 -0.013515548 0.095066495
000360 28 0f 46 bd f5 cb fa 3d 62 27 30 3d 37 45 6e 3d
       -0.048354298 0.12245933 0.04300631 0.058171477
000370 a5 45 2e bd 0d 87 c1 3d 49 8a 3c 3c d1 fe 9e 3c
       -0.042546887 0.09449587 0.011507579 0.019408615
000380 47 c5 04 3d 35 06 09 3b a5 c8 c1 3d 14 c8 ba 3c
       0.0324147 0.002090824 0.09462098 0.022800483
000390 fb 8b 6b 3c 3e ca b6 3c 42 05 36 bd 92 71 b2 39
       0.014376636 0.022313233 -0.044438608 0.00034035422
0003a0 78 da 13 3e 78 4e 76 3d 05 45 fb 3d 62 fb 12 3e
       0.14438808 0.060133427 0.12269024 0.14353707
0003b0 ba 3a 88 bd 98 a5 db bb d4 d1 3e bb a9 5c 73 3d
       -0.06651826 -0.00670309 -0.0029116767 0.05941454
0003c0 20 c1 ff bd a7 2d 95 3d d3 ea 81 bc f5 5d 8d bb
       -0.124880075 0.07284098 -0.015859043 -0.004314179
0003d0 5b 5f 76 3c ab 9f 63 bc 96 df a0 3d 79 13 81 3b
       0.015037383 -0.013893048 0.07855146 0.003939089
0003e0 9a dd 14 bd fe 2b 0c 3c 5b 5e 26 3c ca 47 02 3e
       -0.03634415 0.00855541 0.010154332 0.12722698
0003f0 4f 42 1d bd 1b 1a 15 bd 04 72 a2 bc 58 6b 3e 3d
       -0.038393315 -0.03640185 -0.019829758 0.04648909

lstm.bias_hh_l0 f4 [512]
000000 7f 96 37 3e e9 e2 03 3e c2 23 e0 3c b9 8f d4 3c
       0.17928503 0.12879528 0.0273608 0.025947439
000010 c8 00 db 3d 95 7b 9b 3d 85 fe 06 3e 6e bd 1f 3e
       0.106935084 0.07591931 0.13183029 0.15599605
000020 af b5 97 3d 74 78 f3 3d b0 ed 9d 3d 14 56 15 3e
       0.074077 0.11888209 0.07711351 0.14583617
000030 27 c4 1c 3e 09 11 36 3e e1 3d 85 3d 6b 74 9a 3d
       0.15309201 0.17779936 0.06505943 0.07541736
000040 15 fe 09 3e c2 0d 23 3d d2 b0 4e 3d 62 83 a4 3d
       0.13475831 0.039808042 0.050461598 0.08032872
000050 f2 51 b4 3d 6a e8 9e 3d c5 f9 95 ba ab 19 23 3e
       0.08804692 0.07759173 -0.0011442235 0.1592776
000060 b1 a7 1c 3e d7 8a c6 3d 00 0f 22 3e 1c f5 39 3b
       0.15298344 0.0969445 0.15826035 0.0028374856
000070 69 bb 53 3d 7f b3 e2 3d da 9a 07 3e f9 4f 26 3e
       0.0516924 0.110693924 0.13242665 0.16241445
000080 b9 77 e2 3d d1 dc 2c 3e f5 f9 0a 3e 21 22 00 3e
       0.110579915 0.1688111 0.13571914 0.12513019
000090 36 ea 5a 3d 2d 47 3a 3e 68 79 00 3e f5 3d 97 3d
       0.053446017 0.18191214 0.12546313 0.07384864
0000a0 3c 32 3a 3d 21 b7 23 3d 28 37 c3 3d c0 c3 1e 3e
       0.045458063 0.039969567 0.095320046 0.1550436
0000b0 5a 7c 85 3d 5e 4e 56 3e 07 f8 0b bc d2 9c 0d 3e
       0.06517859 0.20928332 -0.008543021 0.13829353
0000c0 10 45 76 3d db 2b 0a 3d a6 ad 40 3e 23 d6 8f 3d
       0.060124457 0.03373323 0.18816242 0.07023265
0000d0 06 9b ee 3d f5 70 fe 3d 82 05 27 3e 75 f2 21 3e
       0.11650662 0.124238886 0.16310695 0.15815146
0000e0 48 07 f9 3d 40 bf 17 3d e8 37 29 3c 45 1b 29 3e
       0.12159592 0.037047625 0.0103282705 0.16514309
0000f0 3a 07 fd 3d 9f ce d1 3d af 05 16 3e 9e c3 3f 3d
       0.12354894 0.10244488 0.14650606 0.046817414
000100 1e 09 e0 3d bf 14 1d 3d 35 72 f5 3d 19 e5 96 3d
       0.10939239 0.038349863 0.11984674 0.07367916
000110 4d d4 e8 3d d1 36 52 bc d9 a0 26 3e bc cc 03 3e
       0.11368618 -0.012830452 0.16272296 0.12871069
000120 0b a8 16 3e 30 4f 03 3e 99 4d 68 3d 4b 7c d8 3d
       0.14712541 0.12823176 0.056714628 0.10570582
000130 70 9d 88 3d a0 e6 48 3e 26 88 24 3e 14 61 d2 3c
       0.06670654 0.19619226 0.16067562 0.025681056
000140 58 f5 21 3e 30 ee 0a 3e f0 fe 28 3e 02 0d 88 3d
       0.15816247 0.13567424 0.16503501 0.06643106
000150 65 8b db 3d 52 a6 f0 3d 9b a9 10 bb 87 fb 08 3e
       0.10719947 0.11750473 -0.002207375 0.133772
000160 d6 b6 1f 3e 1f 66 b1 3d f2 28 3a 3e 26 29 0c 3d
       0.1559709 0.08662056 0.18179682 0.03421893
000170 84 08 34 3e 5f 78 b0 3d 16 ac dc 3d b5 11 3f 3c
       0.17581373 0.08616709 0.1077501 0.0116619365
000180 5a 88 ff 3d 5e a3 1f 3d 9c de 2a 3d aa 5c 86 3c
       0.12477179 0.03897416 0.041716203 0.016401608
000190 ba 68 20 3e cb 2e 3c 3e ff b7 92 3c 04 13 c1 3d
       0.1566495 0.18377225 0.017910002 0.09427455
0001a0 db e3 2e 3d c0 80 15 3e 04 46 d0 3d 36 bc 42 3d
       0.04269777 0.14599895 0.101696044 0.047542773
0001b0 e5 54 7e 3d 1a 49 bd 3d 9e 0f 34 3d 70 c2 27 3d
       0.06209268 0.09242459 0.043960206 0.040956914
0001c0 e9 e1 c3 3c 62 1a 55 3e 8e 57 a7 3d 24 72 b0 3d
       0.023911433 0.20810845 0.081709966 0.086155206
0001d0 7a 7a 16 3d 67 a5 21 3e 44 0c e9 3d 34 15 48 3d
       0.036737897 0.15785752 0.113792926 0.048848346
0001e0 3e 4e c9 3d 78 4f 2c 3d aa 14 13 3c b8 7d 1c 3e
       0.09829377 0.042067975 0.008977095 0.15282333
0001f0 a8 6e 9a 3d ad 2a 29 3d 6d 0c a4 3d 01 90 22 3e
       0.07540637 0.041300464 0.080101825 0.15875246
000200 80 6d a8 3c 44 10 0f bd 42 cd 9c 3d 4b f0 a1 3d
       0.020560026 -0.03492762 0.07656337 0.0790716
000210 ca 25 19 bd d0 08 26 bd c3 01 2b bd 64 39 84 3d
       -0.037389554 -0.040535748 -0.041749727 0.06456259
000220 e2 ea 91 bb f2 56 fb bd 74 a3 9b 3d 07 00 1f 3d
       -0.004453049 -0.12272443 0.075995356 0.038818385
000230 d7 4c c3 3b 05 cb a2 3d 3e ce 1b bc 39 33 d6 bd
       0.0059600878 0.07948879 -0.009509621 -0.10458989
000240 53 89 b1 bd 46 30 5d 3d 4e 3c 6a 3d 8f 3d 07 3d
       -0.08668771 0.054001115 0.057186417 0.03301769
000250 12 f3 81 3c 02 c0 ab 3d c2 18 68 3d cd a9 1a 3b
       0.015862975 0.08386232 0.056664236 0.0023599744
000260 5f bf 0e bd 6e 70 1f 3d fc 53 09 bc 29 99 20 3d
       -0.034850474 0.03892558 -0.00838184 0.039208565
000270 db 82 cb bb cb 2d e2 3d 5e f1 2f 3d df 3f 09 bd
       -0.0062106675 0.110438906 0.042954795 -0.033508178
000280 3c 8f bb 3d 0d 1b e8 bc f9 62 95 3d 45 55 e0 bd
       0.09158179 -0.028333211 0.07294268 -0.10953764
000290 ff 5c 22 3d 32 69 0f 3d 58 dc 1e bc be 99 46 3d
       0.03963947 0.03501243 -0.009696089 0.048486464
0002a0 f3 bf 04 3e ef b5 1c bd 1b a0 18 bd eb 37 75 3d
       0.12963848 -0.038259443 -0.037262063 0.05986778
0002b0 a2 e8 d7 3d fe 2a 75 3d 47 d3 98 3d 87 a2 36 3d
       0.10542418 0.059855454 0.07462173 0.044588592
0002c0 fd b2 05 3c 21 6d d2 3c 7b b7 14 3d 03 a0 a4 3d
       0.00816035 0.025686802 0.036307793 0.08038332
0002d0 81 d1 96 bd 34 7f 0e 3e 26 29 68 3d da 80 97 3d
       -0.073641784 0.13915712 0.056679867 0.07397623
0002e0 8c 91 19 3d f9 9e 2a 3d 2e d1 fa 3d 85 b0 14 bc
       0.03749232 0.041655514 0.12246929 -0.009075289
0002f0 2d db 18 3d 38 ca 37 bd d2 1f 74 bd d1 d3 0a 3e
       0.037318397 -0.044870585 -0.05960066 0.13557364
000300 4c 78 a8 bc c9 f7 8c 3d 5b de ad bd ba d2 5b bd
       -0.020565175 0.06883199 -0.084896766 -0.05366776
000310 dc 59 53 3d 67 1b d8 3b 43 42 d3 3c 22 11 96 3d
       0.05159937 0.0065950635 0.025788432 0.073274866
000320 d6 84 82 3d 08 20 a0 3b fe cf 48 bd 3a 22 d1 bc
       0.06372993 0.004886631 -0.04902648 -0.025529016
000330 ee c8 9f 3d c5 61 5f bd 29 84 35 bd 0d 9a 0a 3d
       0.07801996 -0.0545366 -0.04431549 0.03383832
000340 69 ca 25 3e e7 61 f4 3c a5 61 e0 3d 94 97 1c be
       0.16190495 0.02983184 0.10956124 -0.15292197
000350 f3 2f 3f bb d0 20 11 bc 6a ec 0a 3c 2c 52 60 bd
       -0.0029172867 -0.008857921 0.008479217 -0.054765865
000360 28 46 82 bd 30 7f 9e bb df 6c 0d 3e c2 53 a5 3d
       -0.063610375 -0.0048369393 0.13811062 0.08072616
000370 65 37 93 3d be 20 5c bd e2 00 bb 3d 79 90 42 3d
       0.071883 -0.053742163 0.09131028 0.04750106
000380 b3 a6 d2 3d 92 a2 14 be 89 34 c9 3d 6f 0c de 3a
       0.102857016 -0.1451514 0.098244734 0.0016940961
000390 d0 66 42 bc 9f f2 40 3c 9a 92 6a 3d 16 40 12 3e
       -0.011865333 0.011776595 0.057268716 0.1428226
0003a0 3b 49 b1 3d 50 47 80 3d 44 63 cd 3c cf a5 a4 3d
       0.08656546 0.06263602 0.025071748 0.08039438
0003b0 01 97 44 3d 9a a8 cd 3d dc d6 c8 bd db 63 9d 3d
       0.04799557 0.10041924 -0.09806606 0.076850615
0003c0 37 80 c7 bd b4 7d d7 3d 6c 04 d2 3d 8f fb 6d bc
       -0.09741252 0.10522023 0.1025475 -0.014525308
0003d0 e9 3f 97 3d 88 7f 86 3d 51 31 9d 3d b1 2b f5 3b
       0.07385237 0.065672934 0.07675422 0.007482015
0003e0 75 b2 36 3d e5 b7 6a bb de b8 de bd ca 22 36 3d
       0.044603784 -0.0035815176 -0.10875104 0.04446677
0003f0 b6 f9 c9 bd 02 d2 15 3c f2 c2 93 bd c0 02 71 3d
       -0.09862082 0.009144308 -0.07214917 0.058840513

fc.weight f4 [22, 128]
000000 14 6b 16 be 57 be d1 3d f9 db 3e 3e 63 ef f6 bd
       -0.14689285 0.102413826 0.186386 -0.12057378
000010 c7 31 3b bd 83 e7 39 be d6 00 cd 3d 1a cf 1a bb
       -0.04570177 -0.18154721 0.10009925 -0.0023621977
000020 38 c0 be bd 19 78 69 3e b6 82 17 be 72 e0 b7 bd
       -0.093140066 0.2279972 -0.14795956 -0.089783564
000030 61 a2 31 3e c9 a2 f0 bd c7 ed 23 bd 89 1a 0d be
       0.17347099 -0.11749799 -0.040021684 -0.13779654
000040 2a b1 6e 3e 44 82 67 be a8 52 20 3e e7 b0 5a 3e
       0.2330977 -0.22608286 0.15656531 0.21356545
000050 69 3f 1e be 7a 6a 83 be 6a c2 32 3e 75 ae 3f 3e
       -0.15453877 -0.25667173 0.17456976 0.18718894
000060 17 fc 2b bb 89 62 09 be ae e5 37 bc 0c c2 1d 3e
       -0.0026242787 -0.13416494 -0.0112241935 0.15406054
000070 b6 bf 49 3e 03 f3 b5 3d 30 42 4f 3e 2f f6 47 3e
       0.19702038 0.088842414 0.20240092 0.19527505
000080 9c 2d 8d 3e 2f 56 58 be 3e ee 21 3d 0e 58 45 be
       0.2757386 -0.21126626 0.039533846 -0.19271871
000090 0d ee e9 bd 36 61 87 3e a1 61 5a 3d 4c fa 19 be
       -0.11422358 0.26441354 0.053315762 -0.15036887
0000a0 28 17 05 3e d2 8c f7 3d e9 4d 8c be 12 94 b7 bd
       0.12997115 0.12087406 -0.2740319 -0.08963789
0000b0 b6 b5 44 3e 8c 09 34 be 3d 17 f0 bd 40 f5 ce bd
       0.19209942 -0.17581767 -0.11723182 -0.101053715
0000c0 33 61 e6 3d c8 43 18 be 9d e1 54 3e bc 5d f0 3d
       0.11249008 -0.14869606 0.2078919 0.117366284
0000d0 c6 6f 4b bd 8c e0 ee 3d cc e7 b0 3d 4e 9a 3e 3e
       -0.049667142 0.11663923 0.08637962 0.1861355
0000e0 fc 96 66 3d 85 3b f3 bd fc b5 4b 3e 0a 29 b6 bc
       0.056296334 -0.11876587 0.1989364 -0.022236366
0000f0 86 df 34 be 98 a5 37 3e 26 24 28 3e 41 f9 24 be
       -0.17663392 0.17934263 0.1642004 -0.16110708
000100 cc d2 40 3e 7a 31 23 3e 73 b8 73 bc 6c ec 03 3e
       0.18830413 0.15936843 -0.014875519 0.12883157
000110 4a 90 90 bd 29 a0 26 be 04 cb 23 be e8 6c f9 3d
       -0.07058771 -0.16272034 -0.15995413 0.12178975
000120 11 3a 3c 3c 26 9f 3a be c9 02 67 3e c2 07 2a be
       0.0114884535 -0.18224773 0.22559656 -0.16604522
000130 e0 fe 51 bd 9c e2 0b be f0 16 87 bd 5f dc 29 be
       -0.05126846 -0.13660663 -0.06596172 -0.16587971
000140 3d bb 28 be 48 0b e7 3d d0 e7 71 bd 4b 51 42 3d
       -0.16477676 0.112814486 -0.059058964 0.04744081
000150 e8 45 56 3e a1 86 67 3d 6e 32 71 3e d1 8e 58 be
       0.20925105 0.056524877 0.23554394 -0.2114823
000160 97 73 46 be a7 90 72 3e 5e fa a5 bd d3 d8 23 3b
       -0.19380032 0.23687993 -0.081043944 0.0025001063
000170 34 f0 78 3d de 18 41 3e ef 95 31 3e 67 e4 14 3e
       0.06077595 0.18857142 0.17342351 0.14540254
000180 18 ec 34 be 2d 14 d6 bd d5 f6 62 3e 95 72 57 3e
       -0.17668188 -0.10453067 0.22164471 0.21039803
000190 41 40 2c 3e e1 b9 01 be c2 72 5b be 9d 7c 1b be
       0.16821386 -0.12668563 -0.21430495 -0.15184255
0001a0 9f 35 99 bd c4 6c 87 3d 83 57 7e 3d 3c a2 2b be
       -0.074809305 0.06612542 0.062095176 -0.16761106
0001b0 b9 7f 8b be bd dc 0e 3e 01 23 61 3d 68 91 7a be
       -0.27245882 0.13951392 0.054965023 -0.2446953
0001c0 7c a9 52 3e 07 7d 85 3e 22 42 97 be 98 ee 18 be
       0.20572466 0.2607195 -0.29542643 -0.14934766
0001d0 a2 fd 52 3d a5 0b 9d 3d f0 28 c9 bd fe 15 d3 3c
       0.051511414 0.07668237 -0.09822261 0.025767323
0001e0 47 08 3d 3e 1e ff 2a 3e 20 01 f1 3d 06 f8 a2 3d
       0.18460189 0.16698882 0.11767793 0.07957463
0001f0 9e f1 14 3e 7e ba 15 be 4c 2b 40 3e 16 85 07 be
       0.14545295 -0.14621922 0.18766516 -0.13234362
000200 5d 88 2a be 95 d9 53 be 20 b8 63 3e 26 e4 30 be
       -0.16653581 -0.2068847 0.22238207 -0.17274532
000210 65 d6 a1 bd 64 83 75 bd d9 8d 63 be fa ee ee 3d
       -0.07902221 -0.059939757 -0.2222208 0.11666675
000220 b7 73 64 3e 7e 96 75 3d e0 fe 73 3c b9 c5 26 be
       0.22309767 0.059957974 0.01489231 -0.16286363
000230 71 eb 47 be ba a5 3e be 99 21 12 3d dd ab 32 bd
       -0.19523408 -0.18617907 0.035676572 -0.043620933
000240 77 69 e3 bc 62 83 0a bd be b8 06 be 0f fc 3f 3e
       -0.02776025 -0.033816703 -0.13156411 0.18748496
000250 50 4d 3f be c8 39 bc bd eb 4b 6b 3e 62 2c 46 be
       -0.18681836 -0.091907084 0.22978179 -0.19352868
000260 b4 10 00 be 55 ac 22 be c4 87 6d 3d fd 19 fe 3d
       -0.12506372 -0.15886052 0.057990804 0.124073006
000270 7f ce 10 3e 39 39 6e 3e f2 8a f7 3d 74 aa 68 3e
       0.14141272 0.23264016 0.120870486 0.22721273
000280 96 78 5a 3e 36 8b 62 be 5d 4f 76 3e dd 3a 16 be
       0.21335062 -0.22123417 0.24053712 -0.14670892
000290 32 39 04 3d ff 24 61 bd 99 5f 91 3d 36 4b d5 bd
       0.03228111 -0.054966923 0.07098312 -0.10414736
0002a0 c0 76 f6 3d 23 11 c6 3d ee 0e 13 3e e9 b0 8c 3d
       0.120343685 0.09671237 0.14361164 0.068696804
0002b0 44 00 2e 3e e1 a8 3a be 10 3e ab 3a fa a6 64 be
       0.16992289 -0.18228485 0.0013064761 -0.22329322
0002c0 66 d1 9c 3d 23 23 23 be 2d 6e 20 be d2 2d 45 3e
       0.07657127 -0.15931372 -0.15667029 0.1925576
0002d0 48 d3 31 be eb b4 80 bd a5 15 65 bb 2e e5 f8 bd
       -0.17365754 -0.06284507 -0.0034955528 -0.121530876
0002e0 79 c5 18 be 95 37 e5 bd cd f2 11 3e 5f 2b 12 be
       -0.1491908 -0.11192242 0.14252777 -0.14274357
0002f0 5f 87 4d be e8 46 10 3e 40 4b 29 3e 3b 6f 82 3e
       -0.20071171 0.14089549 0.16532612 0.25475487
000300 2c f1 d7 3d 29 a0 32 3e a0 30 15 3e 96 f3 4f 3e
       0.10544047 0.17443909 0.1456933 0.20307764
000310 c3 d1 d3 bd 2b f4 12 be b3 ea 4a be c9 dd 69 be
       -0.10342743 -0.14350955 -0.19816093 -0.2283851
000320 7e b1 5a 3e f6 94 20 be ec 8d 45 3e 19 59 17 be
       0.2135677 -0.15681824 0.1929242 -0.14780082
000330 47 07 5a 3e cc a6 29 3e bd 1a 08 be 1b 54 98 bd
       0.21291839 0.16567534 -0.1329145 -0.07437917
000340 61 ab ed 3c 17 21 2b 3e cd 00 13 be 59 b6 37 3e
       0.029012384 0.16711842 -0.14355774 0.17940654
000350 e9 9b 01 3e 5b b3 26 be 28 ef 93 3d f0 bb e1 bd
       0.12657131 -0.16279356 0.0722335 -0.11022174
000360 78 9c 47 be 48 5c 63 3e 56 53 cf bd 50 eb 04 3e
       -0.19493282 0.22203171 -0.10123317 0.1298039
000370 66 26 13 3e ea 0f 3b 3e 99 d5 40 3e fc 6f 25 3e
       0.14370117 0.1826779 0.18831481 0.16156
000380 89 0d 70 be 0f 71 6b be 14 eb 6f 3e 57 16 13 be
       -0.23442663 -0.22992347 0.23429519 -0.1436399
000390 85 49 08 3e 44 9e 6d be 35 1a 11 3e 75 16 b8 bd
       0.13309295 -0.23204905 0.14170153 -0.08988658
0003a0 d7 2b 9e bd 16 45 12 3e 52 92 59 be 26 12 d3 3b
       -0.077232055 0.14284167 -0.21247223 0.0064413724
0003b0 26 f4 7e be e4 aa 18 3e 47 ac 45 3e bc fd 94 bd
       -0.24897823 0.1490894 0.19304 -0.072749585
0003c0 1f 5b a6 3d bc e6 82 be 09 0b 1e 3e c1 d9 14 be
       0.08122849 -0.2556666 0.15433897 -0.14536192
0003d0 1f 9f f0 3c 26 30 f7 3d 4a f3 a5 bc 28 17 4f 3e
       0.02937275 0.120697305 -0.02025761 0.20223677
0003e0 67 d5 52 be 9c bf 3d bd 8e 55 11 3e 14 d9 ba 3d
       -0.20589219 -0.04632531 0.14192793 0.091234356
0003f0 04 cc 7a be d0 fc 0e be b4 38 23 3e 31 df 28 3e
       -0.24491888 -0.13963628 0.159396 0.16491391

fc.bias f4 [22]
000000 e3 fe fc bd d2 a0 84 bd 2b 12 5d 3d 38 ef 98 bd
       -0.12353303 -0.064759865 0.053972404 -0.07467502
000010 59 b1 dc 3d 5f 08 4b 3d 03 ac 4a 3d 03 6b c1 3c
       0.10776014 0.04956853 0.04948045 0.023610597
000020 16 b4 b6 b8 35 d1 6b bd a1 f3 c2 bd b4 9d 1a bd
       -8.71198e-05 -0.057572562 -0.09519125 -0.037748054
000030 87 7f cc bd 18 eb 05 3e 38 53 66 bd a7 48 93 3d
       -0.099852614 0.13077962 -0.056231707 0.07191592
000040 d3 7f cd bd bf e6 21 be 6d 1d 22 be d1 bf b2 bd
       -0.10034146 -0.15810679 -0.15831538 -0.08727992
000050 f3 cf 07 be ae 96 cf bd
       -0.1326292 -0.10136162
