Portfolio-Projects/CodeMiner-AI/python_brain.pth (torch, 441554 bytes, 7 tensors)

embedding.weight f4 [53, 64]
0.11851885 0.56305015 0.72770786 1.5251113 1.1366361 0.53804696 1.0824388 0.30274516
-0.7503666 1.4620019 -0.9287336 1.6270385 -2.3221054 -1.5364125 -0.0070036454 1.3303075
-0.76978165 -1.8181217 0.24456246 -0.06922213 -0.6507106 -1.7898571 -0.5364948 -0.3947725
0.9020355 -0.8012723 -1.3243372 0.09788826 1.2354358 0.85338175 0.73111814 0.93401545
0.887278 0.80050546 1.1919508 -0.4273137 0.96936923 0.7268443 -0.944146 0.3969564
1.8551594 -0.97990453 -0.7919638 -0.027428731 0.8891512 -0.8551918 0.071937926 0.8781782
1.0940527 0.098931335 -2.3735826 -1.7641742 -0.36307362 -2.0771897 0.42776084 -0.98571485
-0.17674781 1.1875141 -1.1493421 0.38777623 0.090607524 0.5870464 0.73310757 -0.25058505
-0.65097237 0.15145832 -0.16552159 1.581419 -1.1808839 -1.1525613 -0.108296014 0.1298867
-1.0264794 0.33185074 0.34343246 -0.5835415 1.5694028 0.3225838 -1.0720822 0.32336247
0.10617004 -2.1689913 0.88880175 -0.84956896 0.6967581 2.1539679 0.7198745 -0.8255594
1.6122086 1.0142995 -0.75270504 1.7189953 2.81416 2.0794632 -2.479007 0.6402307
1.2267299 -0.16933683 -0.19276422 0.9872214 -0.6536422 -0.12020269 -0.9872138 0.07101589
0.84689724 -0.97598106 -0.7558151 0.320466 0.5654616 -0.12313375 1.1568627 0.14411491
0.21061753 -0.77184194 0.8008343 -0.6286116 -0.4596061 -1.9221752 1.5866346 -0.79838085
2.1302643 0.08721378 -2.1922452 0.7788194 -0.8119137 -0.8751869 1.1525896 -1.1292187
0.75179 2.089318 -1.5512179 -2.2573447 0.38868216 -0.048209347 -1.9218961 1.237486
0.72208196 0.35564277 0.56599194 -0.5126987 0.9695549 0.05010965 0.96534455 0.81997705
-0.59786963 -0.48622182 -0.1510575 0.2071986 0.79306155 -2.0592794 0.8950426 0.40164313
0.26750332 -0.78134274 -0.53895086 -0.5029241 -0.9818684 -0.14339183 -0.48295504 -0.4311211
-0.56484646 0.50874054 -0.05343795 -0.9428843 0.30185154 0.9347706 -0.6719645 0.6120221
0.21682814 0.39102757 0.5431546 0.8613563 0.6117746 -0.51092875 0.7328749 0.33656812
-1.2145839 -0.19280058 2.376113 -0.32443523 1.3916596 -0.980855 -1.0886911 0.16173619
-0.98164636 0.97679836 1.2050613 -0.74964905 0.8527599 1.5386677 -1.5351322 0.5335031
-0.9365775 -0.7301321 -1.462284 0.75718987 -2.1682787 1.253583 1.7079445 0.34047773
0.76835245 -0.5306753 -1.4858584 -0.67668974 -1.1799233 0.9091085 1.4149749 1.2853522
1.2283499 -0.7720034 -0.20595498 -2.1820905 1.5793458 0.16324887 0.7384133 0.07040646
-0.7095542 0.7224294 0.9791245 0.15171136 1.1372709 -1.4362632 1.2682785 -0.23712473
-0.99288535 2.2363539 -0.99020016 0.7243842 1.0062964 -3.0170245 -1.3976024 0.6118904
-1.6188049 -0.40441623 -0.8498769 -1.7344558 0.37516454 0.85056156 0.015005826 -0.6384469
-0.44755217 1.074357 1.2513353 0.43194726 1.4421816 -0.77811766 -1.0524192 0.85553205
0.46449867 1.1573939 0.74669725 -1.0565718 0.24059442 0.4280922 -1.1789871 0.71559995
00000000: 03ba f23d 0e24 103f 104b 3a3f d936 c33f
00000010: 4b7d 913f 72bd 093f 5b8d 8a3f 6a01 9b3e
00000020: 0718 40bf e122 bb3f 7cc1 6dbf cc42 d03f
00000030: 609d 14c0 2aa9 c4bf d67e e5bb 8447 aa3f
00000040: 6910 45bf 36b8 e8bf 956e 7a3e 55c4 8dbd
00000050: f894 26bf 0a1a e5bf b957 09bf 9f1f cabe
00000060: cceb 663f 2e20 4dbf e283 a9bf a479 c83d
00000070: c322 9e3f 3a77 5a3f 8f2a 3b3f a31b 6f3f
00000080: a724 633f eded 4c3f d891 983f dcc8 dabe
00000090: 9528 783f 7812 3a3f 8db3 71bf df3d cb3e
000000a0: dd75 ed3f 06db 7abf 24be 4abf 38b2 e0bc
000000b0: 6a9f 633f daed 5abf 3154 933d 49d0 603f
000000c0: eb09 8c3f 839c ca3d c7e8 17c0 76d0 e1bf
000000d0: c9e4 b9be adf0 04c0 7803 db3e cf57 7cbf
000000e0: 61fd 34be 7600 983f a41d 93bf 9b8a c63e
000000f0: 7090 b93d ac48 163f f0ac 3b3f af4c 80be
00000100: 20a6 26bf e417 1b3e 7e7e 29be f06b ca3f
00000110: 3427 97bf 2187 93bf 4dca ddbd 0501 053e
00000120: ad63 83bf 57e8 a93e 61d6 af3e fa62 15bf
00000130: 31e2 c83f b429 a53e fd39 89bf c48f a53e
00000140: ae6f d93d c1d0 0ac0 8388 633f 5a7d 59bf
00000150: bd5e 323f 9cda 0940 b249 383f dc57 53bf
00000160: da5c ce3f 91d4 813f 47b1 40bf 0a08 dc3f
00000170: 331b 3440 ed15 0540 0da8 1ec0 29e6 233f
00000180: 7c05 9d3f a266 2dbe fc63 45be 8bba 7c3f
00000190: 1855 27bf d42c f6bd 0bba 7cbf c770 913d
000001a0: 42ce 583f e5d9 79bf 197d 41bf 1f14 a43e
000001b0: 17c2 103f 8c2d fcbd 1414 943f dc92 133e
000001c0: 1fac 573e 6f97 45bf 7a03 4d3f b1ec 20bf
000001d0: 7e51 ebbe d609 f6bf d816 cb3f b062 4cbf
000001e0: 4056 0840 239d b23d bf4d 0cc0 b560 473f
000001f0: 94d9 4fbf 400c 60bf 0e88 933f 3d8a 90bf
00000200: 4f75 403f 63b7 0540 4f8e c6bf 5678 10c0
00000210: 5901 c73e 2a77 45bd b100 f6bf f165 9e3f
00000220: 5dda 383f cf16 b63e d9e4 103f 3940 03bf
00000230: c034 783f c73f 4d3d d220 773f 04ea 513f
00000240: fc0d 19bf 11f2 f8be d1ae 1abe df2b 543e
00000250: 1506 4b3f 3ccb 03c0 8321 653f 2ba4 cd3e
00000260: 32f6 883e 1406 48bf aff8 09bf a2bf 00bf
00000270: ba5b 7bbf 4fd5 12be e245 f7be e8bb dcbe
00000280: c799 10bf d23c 023f c0e1 5abd de60 71bf
00000290: 498c 9a3e 204d 6f3f de05 2cbf 7bad 1c3f
000002a0: 3208 5e3e c434 c83e 2e0c 0b3f d981 5c3f
000002b0: 439d 1c3f 3acc 02bf b09d 3b3f a852 ac3e
000002c0: 7c77 9bbf 846d 45be 3c12 1840 601c a6be
000002d0: e721 b23f 5019 7bbf 3b5a 8bbf 2c9e 253e
000002e0: 2d4d 7bbf 750f 7a3f 733f 9a3f 00e9 3fbf
000002f0: 794e 5a3f 10f3 c43f 367f c4bf a993 083f
00000300: 8bc3 6fbf f0e9 3abf 1f2c bbbf 32d7 413f
00000310: 14c5 0ac0 6875 a03f ed9d da3f 1953 ae3e
00000320: bfb2 443f 56da 07bf 9c30 bebf 8a3b 2dbf
00000330: ba07 97bf 56bb 683f e61d b53f 6c86 a43f
00000340: 923a 9d3f 04a2 45bf dde5 52be 5fa7 0bc0
00000350: 0128 ca3f b62a 273e a708 3d3f 4331 903d
00000360: 58a5 35bf 22f1 383f e7a7 7a3f 395a 1b3e
00000370: 1892 913f 79d7 b7bf f356 a23f d3d0 72be
00000380: bc2d 7ebf 6c20 0f40 c27d 7dbf 3e71 393f
00000390: 52ce 803f ee16 41c0 a3e4 b2bf d9a4 1c3f
000003a0: 0035 cfbf a50f cfbe 8891 59bf a602 debf
000003b0: 9115 c03e 67be 593f ffda 753c 4271 23bf
000003c0: 8f25 e5be 8884 893f c12b a03f 3128 dd3e
000003d0: 6899 b83f b832 47bf acb5 86bf 2604 5b3f
000003e0: c5d2 ed3e 7c25 943f 8d27 3f3f bf3d 87bf
000003f0: 625e 763e e72e db3e 0de9 96bf 8f31 373f

lstm.weight_ih_l0 f4 [512, 64]
-0.13540491 0.07954732 0.20049785 0.03224337 -0.26096764 -0.082234226 -0.022670474 0.31991705
0.016419407 0.05061173 0.14302969 0.06558703 0.25709373 0.24185666 0.07065772 0.06893652
-0.118534274 -0.2045223 -0.03801596 -0.12727533 0.02735709 0.020843074 -0.10208421 0.042457215
0.12024249 0.27414387 0.16720599 -0.047687817 0.057904564 0.20550008 0.06730749 0.026320858
-0.06420546 0.27604777 -0.038880717 -0.096882656 -0.16153423 -0.360991 0.0024315668 0.04573456
0.24745701 -0.22764271 -0.06172806 -0.02670217 -0.31312004 -0.04845926 0.16886115 0.10373724
-0.06524102 0.027131982 -0.087534405 -0.1277615 -0.015127368 -0.13557915 0.025535977 -0.14220154
0.14959268 -0.23778087 -0.0356657 0.20174801 0.069566555 0.053005643 0.01900806 -0.16165619
-0.014435453 0.11801569 0.17328894 -0.1511139 -0.011280076 -0.18196794 -0.08373939 0.012160145
-0.0680402 -0.16944857 -0.06669718 0.14600319 0.11729934 0.030899983 0.016005695 0.16036852
-0.23220894 0.08301108 0.011147156 0.036861338 -0.058747027 -0.0065611303 -0.076711304 0.02536838
-0.016386468 0.14561786 -0.013408458 -0.07695517 -0.08213614 0.024686582 -0.16248359 0.27154467
-0.06558884 0.12132064 0.35566625 -0.26432115 0.14003886 0.14488348 -0.24864636 -0.25470695
-0.058548763 -0.009265471 -0.059405036 0.1293692 0.11576421 -0.27330634 -0.021711942 0.3668832
0.041389283 -0.079897456 0.114237756 -0.1766203 0.18022457 -0.13874689 0.2525362 -0.09624476
0.20721246 -0.13702412 -0.16244553 0.12813243 -0.20317514 0.01921276 -0.016313232 -0.044393554
-0.1841569 0.20403627 -0.14145258 0.013594735 -0.40160307 -0.18277541 -0.1601616 0.05618954
-0.2795405 -0.47080398 -0.12831254 0.17314343 -0.15499346 -0.0147084575 0.2685578 -0.17311011
0.13009036 -0.09751493 -0.10283256 0.30834988 0.013137089 0.018969491 -0.26818883 -0.020981004
-0.25545666 0.26935604 -0.011835387 -0.22871387 0.27343762 0.0022774425 0.35710725 -0.3486785
-0.21281618 0.14945044 0.09525411 -0.17923461 0.1658461 0.20660594 0.07923491 0.23897132
0.20698592 0.11767235 -0.15383953 0.20733769 0.18705347 -0.31141305 0.108912855 0.46932867
-0.008168965 -0.2503173 -0.29386613 -0.055008445 -0.07090655 0.07403847 0.0024651 0.038344968
0.15041812 -0.20286565 -0.02634843 0.3639185 0.1034842 0.15343338 -0.22349188 0.20848921
0.040379718 0.28447253 0.3208952 0.06107449 -0.3244521 -0.14742225 0.12425058 -0.118493214
-0.22753808 -0.06274385 0.04564412 0.10365841 0.05606438 -0.1342649 -0.0042811283 0.17853096
0.36739805 0.14040513 0.29887107 -0.09582154 -0.040724494 0.1019186 -0.08311522 0.15559983
-0.16758104 -0.29247147 -0.32506093 0.18863285 0.047749557 -0.04992949 -0.1747664 -0.15834776
0.3007755 -0.17712332 0.12730058 -0.17176938 -0.079029486 -0.040238917 0.2488144 0.25402403
-0.029868215 -0.18618746 -0.08534878 -0.27150956 0.18428944 0.21820286 -0.19311409 -0.38296497
0.35407513 0.2071374 0.08762657 0.17826916 -0.21813117 0.049689077 0.24383512 0.2735832
0.33650157 0.18503325 -0.1020713 -0.27283102 -0.07042396 -0.18513179 -0.029179236 -0.1255845
00000000: 96a7 0abe b5e9 a23d 4f4f 4d3e a011 043d
00000010: 8d9d 85be 6b6a a8bd 6eb7 b9bc 2bcc a33e
00000020: fe81 863c 3f4e 4f3d 6076 123e 7e52 863d
00000030: caa1 833e 46a9 773e ffb4 903d 972e 8d3d
00000040: 19c2 f2bd 4b6e 51be a0b6 1bbd 7754 02be
00000050: fa1b e03c 18bf aa3c 8711 d1bd 9ee7 2d3d
00000060: b241 f63d 965c 8c3e 0c38 2b3e 4d54 43bd
00000070: 562d 6d3d 9d6e 523e 82d8 893d d79e d73c
00000080: 277e 83bd 2256 8d3e 6341 1fbd 6a6a c6bd
00000090: 3b69 25be d0d3 b8be ec5a 1f3b 2954 3b3d
000000a0: 5f65 7d3e 2c1b 69be 90d6 7cbd 82be dabc
000000b0: 4551 a0be 387d 46bd f0e9 2c3e 3174 d43d
000000c0: 159d 85bd e443 de3c 3d45 b3bd e9d3 02be
000000d0: c8d8 77bc 43d5 0abe d330 d13c 489d 11be
000000e0: d32e 193e d47c 73be 3216 12bd 0897 4e3e
000000f0: e978 8e3d 721c 593d cbb6 9b3c 3389 25be
00000100: ae82 6cbc 36b2 f13d a872 313e 9abd 1abe
00000110: 11d0 38bc ce55 3abe 8f7f abbd 583b 473c
00000120: a958 8bbd ed83 2dbe 8898 88bd dc81 153e
00000130: a33a f03d f621 fd3c 601e 833c a537 243e
00000140: 2ec8 6dbe b701 aa3d 90a2 363c eafb 163d
00000150: b9a0 70bd c0fe d6bb d11a 9dbd 59d1 cf3c
00000160: ea3c 86bc d91c 153e 26af 5bbc ac9a 9dbd
00000170: fe36 a8bd 843b ca3c 1962 26be e707 8b3e
00000180: 7153 86bd f576 f83d e319 b63e 1a55 87be
00000190: 5966 0f3e 565c 143e 279d 7ebe f368 82be
000001a0: d4d0 6fbd 34ce 17bc b252 73bd 5c79 043e
000001b0: c915 ed3d cfee 8bbe 3edd b1bc 1dd8 bb3e
000001c0: cf87 293d 47a1 a3bd 7cf5 e93d f4db 34be
000001d0: ca8c 383e aa13 0ebe 6d4c 813e f91b c5bd
000001e0: 812f 543e 0d50 0cbe 1f58 26be 2635 033e
000001f0: 250d 50be 1464 9d3c 54a3 85bc 04d6 35bd
00000200: a093 3cbe e2ee 503e f2d8 10be 74bc 5e3c
00000210: eb9e cdbe 7a29 3bbe 6701 24be 0127 663d
00000220: ef1f 8fbe 380d f1be 5d64 03be 834c 313e
00000230: 9bb6 1ebe befb 70bc 6880 893e c743 31be
00000240: 6836 053e e8b5 c7bd e199 d2bd 09e0 9d3e
00000250: f23c 573c e865 9b3c 0c50 89be 5be0 abbc
00000260: 37cb 82be 09e9 893e 36e9 41bc f833 6abe
00000270: 0400 8c3e 2541 153b c3d6 b63e fd85 b2be
00000280: 7cec 59be 8909 193e 9614 c33d 4789 37be
00000290: 8fd3 293e 8290 533e ea45 a23d e6b4 743e
000002a0: 1ef4 533e 33fe f03d 1c88 1dbe 5550 543e
000002b0: f28a 3f3e 8871 9fbe b40d df3d d94b f03e
000002c0: 1fd7 05bc 9729 80be 9f75 96be 8950 61bd
000002d0: 7437 91bd 7ba1 973d 848d 213b 9d0f 1d3d
000002e0: 3507 1a3e 03bc 4fbe aad8 d7bc 8753 ba3e
000002f0: 86ef d33d a41d 1d3e 0edb 64be 327e 553e
00000300: 3465 253d 62a6 913e 604c a43e 3f29 7a3d
00000310: 961e a6be dcf5 16be 1777 fe3d 92ac f2bd
00000320: beff 68be d97f 80bd 54f5 3a3d dc4a d43d
00000330: c3a3 653d bd7c 09be b548 8cbb d2d0 363e
00000340: 991b bc3e 5dc6 0f3e a105 993e 153e c4bd
00000350: bace 26bd b3ba d03d 5038 aabd 9055 1f3e
00000360: 5d9a 2bbe d2be 95be 636e a6be f828 413e
00000370: 0a95 433d dd82 4cbd f7f5 32be ea25 22be
00000380: 3fff 993e d15f 35be 155b 023e 50e4 2fbe
00000390: 36da a1bd 90d1 24bd 34c9 7e3e 700f 823e
000003a0: 30ae f4bc eda7 3ebe 57cb aebd 4d03 8bbe
000003b0: 5fb6 3c3e 9270 5f3e b3bf 45be fc13 c4be
000003c0: 5649 b53e d41b 543e 8f75 b33d 318c 363e
000003d0: c75d 5fbe c686 4b3d eaaf 793e 1913 8c3e
000003e0: ef49 ac3e 5b79 3d3e c20a d1bd 82b0 8bbe
000003f0: 703a 90bd 3093 3dbe 4b09 efbc 3999 00be

lstm.weight_hh_l0 f4 [512, 128]
-0.06320125 -0.16051579 -0.23660144 -0.17632084 -0.063422814 0.11533264 0.14107299 -0.07244519
0.2604612 0.034381885 -0.047750097 0.43449754 -0.015748272 -0.023963552 -0.08774554 0.03910946
0.16732313 -0.102355875 -0.030215489 0.46636117 -0.13397309 -0.061690565 -0.05713509 0.04684254
-0.007358794 0.46210703 0.056900833 0.13534972 0.20589751 0.13469753 -0.08587704 -0.35590324
0.043185007 -0.21549614 -0.14035365 0.11424367 0.027589384 0.5558097 0.16661009 0.035234537
-0.17154981 -0.16310734 0.056791153 -0.20283404 0.25111422 0.42992783 -0.16760996 0.17221543
0.12902391 0.051265065 -0.23344271 -0.16867049 -0.1910799 -0.0020019254 -0.00015784136 -0.041741394
0.15298486 0.05163404 0.0802417 -0.002422811 0.0062285587 -0.23384355 0.13616589 -0.024003588
0.0074148467 0.04974575 -0.07344719 -0.24029416 0.19443873 0.028950842 -0.026926324 0.013109526
-0.009550452 0.11966358 -0.048463996 0.18398042 0.10960331 -0.018755337 0.13749556 0.21027
0.15575549 0.009492476 -0.13877235 -0.24391066 0.10607603 -0.0934007 -0.13341418 0.067800544
-0.3378667 -0.058825873 0.11113048 -0.10064167 -0.18930395 0.22045487 0.08464248 -0.13967742
0.0727877 -0.03009009 0.17447652 -0.09487853 -0.2321557 -0.039353758 -0.102431186 0.037790544
0.23759219 -0.2274842 -0.03710139 -0.27253586 0.012989914 0.17377527 0.11123779 -0.24914968
-0.05150729 -0.038214196 0.061309714 0.19463195 0.042832125 -0.16508499 0.024364881 0.21020566
-0.03724397 -0.116688855 -0.02225593 0.039079383 -0.0017837901 0.13206773 0.050186478 0.14034641
0.047078658 0.23556352 -0.17754002 0.17182022 0.01802478 0.002072287 -0.3604259 -0.018339666
-0.2979139 0.008772075 0.0059266575 0.17743325 -0.39996785 -0.16847086 -0.13945231 0.08410593
-0.18395253 -0.08490351 -0.1952636 -0.02773147 -0.057987135 -0.05555876 -0.08587378 0.0011607768
0.04380107 -0.3458094 0.3573009 -0.13885254 0.05622491 0.001571757 -0.10132646 0.051311314
-0.028870128 0.023601461 0.18197413 0.13060586 0.018202197 0.25358844 -0.22137712 -0.1486579
-0.096368924 -0.14207894 0.09941439 0.063796245 -0.15501608 0.17854907 -0.24716145 0.12984225
0.08108401 -0.038236603 0.0013998352 -0.039386526 0.32267335 -0.005291942 0.24533592 0.19118497
-0.14804897 -0.01695344 0.034095924 0.16989532 0.3407507 -0.0528605 -0.07660054 -0.20426702
0.037606448 0.042857084 0.21652982 -0.1089296 0.028354276 -0.09740766 0.059073858 -0.049490657
-0.09923768 0.0449649 0.073523864 0.06955983 -0.032405112 0.034550257 -0.056113157 -0.02469658
0.23901872 -0.17912215 -0.031251695 0.2133618 -0.086586684 0.15587512 -0.07526672 0.021073954
0.11626659 0.13415596 -0.037182186 -0.04903608 -0.07696786 0.08455985 -0.14110214 -0.12718116
-0.05933225 -0.04069411 0.28961828 -0.04382915 0.15959565 0.1617949 0.25208506 0.15022193
0.11243726 0.049968597 -0.0743141 0.23190013 -0.05478518 0.0760305 -0.110443525 -0.18193287
-0.0041471366 0.20999373 0.2756223 0.1138741 -0.03863726 0.0910826 -0.0027178582 -0.2678694
-0.11627764 0.01282986 0.11538029 -0.045894835 -0.042641718 -0.057709157 0.1364251 -3.4088618e-05
00000000: a86f 81bd 405e 24be a647 72be 738d 34be
00000010: d2e3 81bd 8533 ec3d 7075 103e 255e 94bd
00000020: 2c5b 853e 05d4 0c3d 9b95 43bd 7676 de3e
00000030: 8502 81bc 364f c4bc efb3 b3bd 3e31 203d
00000040: c156 2b3e f59f d1bd 7986 f7bc e4c6 ee3e
00000050: 3e30 09be 3faf 7cbd 7c06 6abd f7dd 3f3d
00000060: 0a22 f1bb 4b99 ec3e d910 693d 1e99 0a3e
00000070: ccd6 523e 26ee 093e 4de0 afbd f338 b6be
00000080: c3e2 303d 05ab 5cbe deb8 0fbe 96f8 e93d
00000090: 2203 e23c 8b49 0e3f d69b 2a3e 1752 103d
000000a0: c1aa 2fbe 9c05 27be d79d 683d bab3 4fbe
000000b0: 0b92 803e 801f dc3e f2a1 2bbe 3e59 303e
000000c0: d81e 043e 51fb 513d 9b0b 6fbe f5b7 2cbe
000000d0: 73aa 43be bc32 03bb 3882 25b9 06f9 2abd
000000e0: 10a8 1c3e 377e 533d c355 a43d 06c8 1ebb
000000f0: f018 cc3b af74 6fbe 126f 0b3e 2ca3 c4bc
00000100: 3ef8 f23b 33c2 4b3d 7b6b 96bd ac0f 76be
00000110: f21a 473e 512a ed3c 9894 dcbc 56c9 563c
00000120: 8079 1cbc 2e12 f53d 2f82 46bd 5d65 3c3e
00000130: b377 e03d cba4 99bc a3cb 0c3e 0551 573e
00000140: 5e7e 1f3e 5486 1b3c 571a 0ebe b7c3 79be
00000150: 643e d93d de48 bfbd ba9d 08be 03db 8a3d
00000160: ddfc acbe 66f3 70bd 6198 e33d 381d cebd
00000170: e5d8 41be ecbe 613e 0959 ad3d 9907 0fbe
00000180: b811 953d 7e7f f6bc f9a9 323e ad4f c2bd
00000190: 39ba 6dbe 6831 21bd 71c7 d1bd 42ca 1a3d
000001a0: 5e4b 733e 9ef1 68be a1f7 17bd d289 8bbe
000001b0: a6d3 543c 25f2 313e a3d0 e33d 1821 7fbe
000001c0: 4ff9 52bd 7d86 1cbd e51f 7b3d 994d 473e
000001d0: bd70 2f3d 0a0c 29be dc98 c73c 2740 573e
000001e0: 228d 18bd 91fa eebd 1152 b6bc b411 203d
000001f0: 10ce e9ba c33c 073e 5690 4d3d f8b6 0f3e
00000200: 8dd5 403d 9037 713e 0dcd 35be a4f1 2f3e
00000210: b4a8 933c 35cf 073b be89 b8be 113d 96bc
00000220: 2c88 98be c0b8 0f3c 6834 c23b 10b1 353e
00000230: 96c8 ccbe a083 2cbe 96cc 0ebe bb3f ac3d
00000240: 0d5e 3cbe e4e1 adbd 2ef3 47be 1c2d e3bc
00000250: eb83 6dbd 9591 63bd 98de afbd 3525 983a
00000260: c068 333d ee0d b1be 25f0 b63e 5c2f 0ebe
00000270: 174c 663d 6a03 ce3a 3f84 cfbd d02b 523d
00000280: 0c81 ecbc da57 c13c 6d57 3a3e 8bbd 053e
00000290: c61c 953c 58d6 813e afb0 62be c739 18be
000002a0: 125d c5bd 247d 11be c699 cb3d 9ba7 823d
000002b0: 89bc 1ebe 91d5 363e e417 7dbe 5ef5 043e
000002c0: 600f a63d fc9d 1cbd ad7a b73a c453 21bd
000002d0: 7135 a53e 0768 adbb 5739 7b3e fec5 433e
000002e0: 269a 17be f1e1 8abc 2ba8 0b3d 0af9 2d3e
000002f0: e076 ae3e 4084 58bd bee0 9cbd 602b 51be
00000300: 3809 1a3d e98a 2f3d feb9 5d3e 7b16 dfbd
00000310: 3a47 e83c ab7d c7bd 6ef7 713d b7b6 4abd
00000320: 203d cbbd 1d2d 383d ae93 963d 6275 8e3d
00000330: 39bb 04bd 9284 0d3d e9d6 65bd 7b50 cabc
00000340: 53c1 743e cc6b 37be c701 00bd 847b 5a3e
00000350: 5c54 b1bd ba9d 1f3e 7025 9abd 49a3 ac3c
00000360: 2e1d ee3d 2e60 093e 594c 18bd 0eda 48bd
00000370: 53a1 9dbd b72d ad3d 147d 10be c73b 02be
00000380: 6006 73bd deae 26bd d948 943e 3286 33bd
00000390: 0b6d 233e 90ad 253e 4b11 813e c7d3 193e
000003a0: 8245 e63d dfab 4c3d fe31 98bd 3a77 6d3e
000003b0: 6d66 60bd e1b5 9b3d 3730 e2bd 9c4c 3abe
000003c0: b4e4 87bb 9908 573e 5e1e 8d3e d336 e93d
000003d0: 1b42 1ebd 8489 ba3d 181e 32bb 2e26 89be
000003e0: f922 eebd 5534 523c 804c ec3d 39fc 3bbd
000003f0: 15a9 2ebd 7060 6cbd 05b3 0b3e 60fa 0eb8

lstm.bias_ih_l0 f4 [512]
0.015446974 -0.0075042285 0.30193883 0.12614048 0.08304451 0.1818337 0.044226397 0.12821455
0.16760588 0.11222467 -0.052710913 0.3161464 0.05989639 0.17074141 0.041225724 0.1104076
0.1776301 -0.042677987 -0.010590622 0.12427473 0.0060895532 0.15317068 0.23500142 0.05366057
0.09563289 0.2568476 0.04808094 0.2021187 0.12483539 0.11102278 0.14487086 0.21429904
0.0471507 0.189635 0.21287662 0.115243286 0.3273923 0.30909854 0.29185668 0.09457704
0.21979673 0.14086089 0.095953085 0.19898157 0.15630169 0.33576804 0.150459 0.22512372
0.25215763 0.10917868 0.1546821 0.09763791 0.17865269 0.16629225 0.1483762 0.06724391
0.2070032 0.14839537 0.087075196 0.33511633 0.34930918 0.2746474 0.16557108 0.03768331
0.08670573 0.029387353 0.09262279 0.24327363 0.2392035 0.1311437 0.12681997 0.12792787
0.2857057 0.14660858 0.05600718 0.11109454 0.048275586 0.02921635 0.3116047 0.07772989
0.14555232 0.14751865 0.0953771 0.17117849 0.16188872 0.12271349 0.32245195 0.12655154
0.14074604 0.28747612 -0.018398559 0.20316534 -0.008762129 0.23088239 0.16556685 0.25711772
0.31844476 0.12858333 -0.022640374 0.07154541 0.20445924 -0.00044161372 0.10713748 0.15733668
0.20318982 0.30626506 0.037810676 0.21676971 0.10932921 0.23481742 0.106559776 0.18152852
0.013432976 0.19966464 0.1921367 0.13192527 0.010920474 -0.02567204 0.16759263 0.18294212
0.30617175 0.16607751 0.2878668 0.15112224 0.016943537 0.09735733 0.058411982 0.15014839
-0.075425036 0.27886626 -0.0122301355 0.08012822 0.114787966 0.044077627 -0.114736296 0.033303566
-0.117588066 0.10148933 0.07172583 0.0028706747 -0.030747354 -0.12727292 0.11824701 1.4129677e-05
0.09649118 0.124008834 -0.12822028 -0.09495462 -0.062320493 0.09829452 0.14879191 0.17414667
0.106540404 0.0040462967 0.12519571 -0.0006466876 -0.04475528 0.09240067 0.10275079 -0.0667226
-0.004122088 0.05437688 0.023363557 0.08256446 0.077833936 -0.07775734 0.0461293 0.10239573
-0.018279891 0.16994892 -0.009766644 -0.040061776 0.07677324 0.02357832 -0.014637406 0.152504
0.024633553 0.17826563 0.19554213 0.22251648 -0.24412507 0.11418696 -0.16762449 -0.013641837
-0.009757316 0.08556379 0.056007456 -0.05006525 -0.018278643 -0.005411592 -0.09368713 0.0356667
0.15364671 0.1410191 -0.12050298 0.046826314 0.10438046 0.1238199 0.09535762 0.13942498
-0.098875925 0.1627382 -0.0015168914 -0.09278596 0.035576317 0.11639566 -0.07473237 0.11410875
0.085829236 0.19602863 0.15925744 0.031855617 0.15756124 0.13970521 -0.098937124 0.11832492
-0.056643415 0.08011861 0.14270896 0.11359389 0.17437679 -0.024972586 0.08075936 -0.0305408
-0.13221847 -0.044456918 -0.0036158147 -0.14273731 0.03013785 0.006745787 0.030976743 -0.006908212
0.078719705 0.16237858 0.06286861 -0.03586596 -0.06910959 0.08867389 0.20374674 0.12088262
0.11846792 0.011683185 0.013773937 0.14553174 -0.13146332 0.04453351 0.1608134 0.092205524
0.04332596 0.024280215 0.010358646 -0.11735092 -0.021339228 0.11712729 0.04445849 0.091010585
00000000: 4e15 7d3c 08e6 f5bb ba97 9a3e f82a 013e
00000010: 3d13 aa3d 9d32 3a3e bd26 353d ad4a 033e
00000020: e0a0 2b3e 0cd6 e53d 66e7 57bd f1dd a13e
00000030: eb55 753d d6d6 2e3e 4edc 283d 611d e23d
00000040: aae4 353e 1dcf 2ebd 4a84 2dbc c083 fe3d
00000050: e08a c73b c6d8 1c3e 36a4 703e 30cb 5b3d
00000060: 2ddb c33d 8781 833e 85f0 443d 34f8 4e3e
00000070: b2a9 ff3d e95f e33d 0759 143e 3571 5b3e
00000080: 1821 413d ad2f 423e 54fc 593e ac04 ec3d
00000090: f79f a73e 2a42 9e3e 3d6e 953e 9bb1 c13d
000000a0: 6512 613e d63d 103e 0d83 c43d d3c1 4b3e
000000b0: 8d0d 203e cae9 ab3e ed11 1a3e d586 663e
000000c0: ce1a 813e 1299 df3d fc64 1e3e 62f6 c73d
000000d0: bbf0 363e 8448 2a3e eeef 173e 2db7 893d
000000e0: a6f8 533e f5f4 173e 7b54 b23d 5e94 ab3e
000000f0: a7d8 b23e 969e 8c3e 778b 293e d159 1a3d
00000100: c692 b13d bfbd f03c 04b1 bd3d b91c 793e
00000110: c3f1 743e 894a 063e 18dd 013e 86ff 023e
00000120: 0448 923e 8f20 163e c967 653d 8985 e33d
00000130: 9fbc 453d 2057 ef3c a78a 9f3e d930 9f3d
00000140: ab0b 153e 210f 173e 1255 c33d 6a49 2f3e
00000150: 28c6 253e 3651 fb3d 6c18 a53e ba96 013e
00000160: bb1f 103e 1230 933e 93b8 96bc 930a 503e
00000170: 088f 0fbc 6f6c 6c3e 5b8a 293e efa4 833e
00000180: 310b a33e 59ab 033e 4e78 b9bc 6686 923d
00000190: c35d 513e 6488 e7b9 e56a db3d de1c 213e
000001a0: fe10 503e c6ce 9c3e 5edf 1a3d e1f8 5d3e
000001b0: fee7 df3d fa73 703e 033c da3d 9de2 393e
000001c0: fc15 5c3c e374 4c3e 7cbf 443e 6b17 073e
000001d0: caeb 323c 2c4e d2bc 679d 2b3e 2e55 3b3e
000001e0: 8bc2 9c3e 3910 2a3e 4763 933e cabf 1a3e
000001f0: 2ccd 8a3c 4863 c73d 6741 6f3d 80c0 193e
00000200: 7178 9abd 8fc7 8e3e e860 48bc 441a a43d
00000210: f415 eb3d be8a 343d ddfa eabd 5269 083d
00000220: 03d2 f0bd a3d9 cf3d fee4 923d ee21 3c3b
00000230: e0e1 fbbc d553 02be 7d2b f23d 800e 6d37
00000240: 2b9d c53d 58f8 fd3d 2d4c 03be 9177 c2bd
00000250: c643 7fbd a34e c93d e85c 183e 8153 323e
00000260: db31 da3d cc96 843b 4e33 003e 7886 29ba
00000270: 5051 37bd 903c bd3d 026f d23d dca5 88bd
00000280: 9512 87bb 4bba 5e3d ee64 bf3c 8e17 a93d
00000290: 6667 9f3d 3e3f 9fbd 14f2 3c3d dab4 d13d
000002a0: b6bf 95bc 1707 2e3e 4604 20bc d117 24bd
000002b0: 4a3b 9d3d 5227 c13c bbd1 6fbc 022a 1c3e
000002c0: 4ecc c93c 448b 363e 323c 483e 5cdb 633e
000002d0: ecfb 79be dada e93d c1a5 2bbe 0382 5fbc
000002e0: 26dd 1fbc 113c af3d 1368 653d 3811 4dbd
000002f0: 18bd 95bc b953 b1bb 0adf bfbd 3f17 123d
00000300: 9055 1d3e 5067 103e 44ca f6bd f3cc 3f3d
00000310: 6cc5 d53d 4a95 fd3d db4a c33d 6cc5 0e3e
00000320: 767f cabd d8a4 263e 6ed2 c6ba 9106 bebd
00000330: 79b8 113d d960 ee3d 490d 99bd d9b1 e93d
00000340: 3dc7 af3d bbbb 483e 6214 233e 097b 023d
00000350: bc57 213e e20e 0f3e 8c9f cabd 5654 f23d
00000360: ed02 68bd 3a15 a43d 4c22 123e eaa3 e83d
00000370: d48f 323e 4f93 ccbc 2a65 a53d b330 fabc
00000380: 4764 07be 7518 36bd 4ef7 6cbb bb29 12be
00000390: a7e3 f63c c30b dd3b f0c2 fd3c 485e e2bb
000003a0: cc37 a13d 9246 263e 42c1 803d 2fe8 12bd
000003b0: 5489 8dbd a89a b53d fca2 503e 4f91 f73d
000003c0: 4f9f f23d d46a 3f3c 14ac 613c 4606 153e
000003d0: 529e 06be c568 363d 45ac 243e 40d6 bc3d
000003e0: 9076 313d 4de7 c63c 4fb7 293c ae55 f0bd
000003f0: 9bcf aebc 6fe0 ef3d 1b1a 363d c263 ba3d

lstm.bias_hh_l0 f4 [512]
0.0168283 0.02718175 0.3183789 0.14186591 0.03925763 0.17009832 0.19515538 0.07495634
0.17949969 0.013390801 0.11155543 0.30487674 0.12636526 0.18563598 0.14456654 0.0743084
0.16785881 0.0029498874 -0.08052557 0.13534683 0.03705712 0.017550342 0.1324117 0.09981969
0.07452551 0.17586468 0.12705976 0.2851496 0.02655112 0.035905994 0.13983221 0.35641366
0.095369436 0.13032888 0.18541639 0.14227864 0.31300324 0.26412624 0.27443564 0.10203328
0.11357176 0.044688456 0.0075350036 0.24757738 0.05928089 0.23037602 0.23325956 0.26748675
0.23199537 0.14031479 0.17800449 0.097492374 0.13509831 0.16109549 0.15295117 0.0477348
0.12945619 0.23847573 0.050714955 0.24668875 0.2540926 0.21602927 0.17484556 0.032352243
-0.015336438 0.04209818 0.14142866 0.27725175 0.2425034 0.14304377 0.011591628 0.17580405
0.14284661 0.16156806 -0.02780725 0.17703156 0.011664862 0.07166775 0.29062617 0.04376057
0.114741415 0.17603739 0.004820504 0.08795806 0.01980983 0.15677199 0.26880834 0.07771107
0.28278974 0.22902368 -0.041119657 0.14442116 0.11884009 0.100461744 0.15347975 0.21826237
0.32646024 0.15545516 0.09766015 -0.0047759498 0.108724646 0.039027363 0.16215812 0.1889511
0.09056302 0.16955942 -0.014801323 0.19911464 0.06485953 0.24123222 0.017682143 0.25187665
0.068617314 0.3076479 0.18830097 0.18483292 0.060417857 0.034007177 0.12482506 0.16359414
0.18956023 0.31181002 0.18574545 0.20517376 0.12207587 0.14379635 0.10349527 0.13724303
-0.1092009 0.26721925 0.07497472 0.12690726 0.060055487 0.077808164 0.022560364 0.09074772
-0.054479845 0.059999794 0.003848133 -0.053354215 0.07973914 -0.102278 0.11400079 -0.0044463705
0.065726094 0.054998197 -0.04840082 -0.025814269 0.052890446 0.14542383 0.120649785 0.041560743
0.034107905 0.11277252 0.15459928 0.043240823 0.009251513 0.11123319 0.15975837 -0.1336474
-0.046884097 0.08971357 0.0313838 0.057252187 0.06137287 -0.05505999 -0.10648295 0.066753514
-0.038785577 0.20957802 -0.010498652 0.09058336 0.04097011 -0.009523459 -0.061559666 0.07841361
0.05528466 0.10827938 0.21178538 0.21169546 -0.22590055 0.02692113 -0.19972843 0.062056396
0.02767129 0.09751337 0.10347747 -0.08204625 -0.14681432 -0.120524436 -0.124503486 0.041826755
0.06672505 0.09350953 -0.108997285 0.0978242 0.06904481 0.007883306 0.07690543 0.048170775
-0.030748291 0.0549264 0.13840388 0.00023449073 0.09247697 0.03986225 0.06231695 0.044558395
-0.035496287 0.17382427 0.06100434 0.04066967 0.0032958577 0.1404251 -0.008696828 0.082794316
0.06662302 0.06428639 0.016437389 0.21821186 0.03879326 -0.07164038 0.05480889 0.01641758
0.0034693615 -0.02781735 0.016409894 -0.17601128 0.08324444 -0.027420137 -0.0064960658 -0.0013754409
0.057836108 0.16170655 0.18150172 -0.007253615 -0.02513624 0.05916692 0.16240185 0.0032146573
0.11373819 -0.120424695 -0.15450193 0.067168854 -0.036745645 0.13690774 0.16456594 0.039712835
-0.036389887 0.0435509 0.016580615 -0.033275478 -0.12673172 0.037723936 -0.041814912 0.09815952
00000000: 81db 893c 43ac de3c 8f02 a33e 4c45 113e
00000010: 9ccc 203d 412e 2e3e d0d6 473e b682 993d
00000020: c4ce 373e 1765 5b3c 2c77 e43d ce18 9c3e
00000030: e565 013e 5c17 3e3e 4009 143e 012f 983d
00000040: 2ee3 2b3e e652 413b 97ea a4bd 5c98 0a3e
00000050: 35c9 173d bcc5 8f3c ef96 073e 446e cc3d
00000060: d5a0 983d df15 343e f41b 023e 21ff 913e
00000070: bc81 d93c 2a12 133d 2d30 0f3e da7b b63e
00000080: 0d51 c33d ef74 053e cbdd 3d3e 7eb1 113e
00000090: f641 a03e 8e3b 873e d482 8c3e d3f6 d03d
000000a0: 5098 e83d 3e0b 373d 31e8 f63b ed84 7d3e
000000b0: 85d0 723d b1e7 6b3e 98db 6e3e 06f4 883e
000000c0: 3290 6d3e aeae 0f3e cf46 363e 15aa c73d
000000d0: 3657 0a3e 37f6 243e 3b9f 1c3e 9185 433d
000000e0: 2a90 043e fb32 743e 7cba 4f3d fa9b 7c3e
000000f0: 6d18 823e c736 5d3e b70a 333e c983 043d
00000100: af45 7bbc 246f 2c3d add2 103e f1f3 8d3e
00000110: d052 783e 117a 123e d0ea 3d3c fa05 343e
00000120: 6246 123e 1972 253e 08cc e3bc c347 353e
00000130: fa1d 3f3c 8bc6 923d f4cc 943e 493e 333d
00000140: 8cfd ea3d 2543 343e 52f5 9d3b 5b23 b43d
00000150: 3948 a23c d688 203e 3fa1 893e fb26 9f3d
00000160: d1c9 903e 2f85 6a3e 166d 28bd 24e3 133e
00000170: 6f62 f33d e3be cd3d cc29 1d3e 2c80 5f3e
00000180: cc25 a73e a32f 1f3e 0b02 c83d 927f 9cbb
00000190: 07ab de3d 28db 1f3d c70c 263e 667c 413e
000001a0: 1b79 b93d fca0 2d3e 4081 72bc b5e4 4b3e
000001b0: 13d5 843d 9405 773e 24da 903c faf5 803e
000001c0: 3c87 8c3d 0784 9d3e f8d1 403e d744 3d3e
000001d0: b778 773d 1c4b 0b3d 48a4 ff3d 3985 273e
000001e0: 141c 423e 90a5 9f3e 0e34 3e3e 1219 523e
000001f0: ea02 fa3d 5a3f 133e 54f5 d33d 7089 0c3e
00000200: b9a4 dfbd f6d0 883e 598c 993d faf3 013e
00000210: befc 753d e359 9f3d 83d0 b83c f1d9 b93d
00000220: 4226 5fbd 58c2 753d f530 7c3b f389 5abd
00000230: 464e a33d 2177 d1bd 3f79 e93d dcb2 91bb
00000240: 679b 863d ca45 613d f03f 46bd 7278 d3bc
00000250: a7a3 583d fce9 143e 3c17 f73d 993b 2a3d
00000260: bbb4 0b3d 47f5 e63d 464f 1e3e 4a1d 313d
00000270: a893 173c 3ace e33d b397 233e ddda 08be
00000280: 8a09 40bd c0bb b73d 4d8c 003d 4581 6a3d
00000290: 1e62 7b3d 9686 61bd bc13 dabd 11b6 883d
000002a0: a0dd 1ebd 9f9b 563e 8a02 2cbc c583 b93d
000002b0: 46d0 273d 4808 1cbc fd25 7cbd 5197 a03d
000002c0: 2b72 623d 94c1 dd3d 44de 583e b2c6 583e
000002d0: 7952 67be b489 dc3c 9c85 4cbe d92e 7e3d
000002e0: e7ae e23c 17b5 c73d ffeb d33d dd07 a8bd
000002f0: 7e56 16be 84d5 f6bd affb febd 8852 2b3d
00000300: 25a7 883d ed81 bf3d f839 dfbd 0e58 c83d
00000310: 5e67 8d3d fb28 013c 9880 9d3d b84e 453d
00000320: d7e3 fbbc 81fa 603d bfb9 0d3e a0e1 7539
00000330: 9164 bd3d 9946 233d 0f40 7f3d dd82 363d
00000340: 8e64 11bd fdfe 313e b0df 793d 3d95 263d
00000350: 51ff 573b 99cb 0f3e 247d 0ebc 1190 a93d
00000360: a671 883d 95a8 833d b4a7 863c ee72 5f3e
00000370: aee5 1e3d 31b8 92bd 497f 603d 297e 863c
00000380: 3a5e 633b 36e1 e3bc 0b6e 863c 4d3c 34be
00000390: 107c aa3d 32a0 e0bc f3dc d4bb 2348 b4ba
000003a0: 8ee5 6c3d 6796 253e 96db 393e bcaf edbb
000003b0: 84ea cdbc 0359 723d ac4c 263e 00ad 523b
000003c0: 91ef e83d 39a1 f6bd c135 1ebe d38f 893d
000003d0: 9a82 16bd 8b31 0c3e f983 283e eda9 223d
000003e0: 900d 15bd 6e62 323d 12d4 873c de4b 08bd
000003f0: f6c5 01be 6a84 1a3d 1d46 2bbd dc07 c93d

fc.weight f4 [53, 128]
0.29489362 0.1413252 -0.37348145 -0.3717897 -0.07976477 -0.26335594 -0.116100766 -0.18399107
-0.32814422 0.17465249 0.20649436 -0.3167586 0.6115707 0.35391757 0.14731015 -0.109837644
0.11702484 -0.11081217 0.5342987 -0.5004831 0.103033654 0.0716988 0.32335445 0.17110352
-0.14590229 0.23874325 -0.5082722 -0.22948727 -0.23543996 -0.042037323 0.16699673 0.45805302
-0.26644215 -0.28091517 0.48031616 -0.053198315 -0.58379525 -0.43582723 0.15853876 0.23919901
0.36447254 -0.3587401 -0.105507344 -0.5358998 -0.29833847 0.41406605 -0.47764462 0.090849265
0.24122053 0.06843905 0.35447255 -0.41026646 -0.11640386 -0.05743259 -0.3193928 0.26804104
0.2889461 0.2330988 0.2542867 -0.27308366 -0.53502595 0.29293692 -0.17210789 -0.0127548035
-0.13474077 -0.10387393 0.39107648 -0.46541944 -0.40765318 -0.024207713 -0.0879828 0.2822019
0.3107933 0.26965877 0.14741996 0.13218006 0.32738698 0.13405089 0.48079887 -0.34074008
-0.3375672 -0.313681 -0.13804214 0.4503501 0.08475286 -0.3232178 0.35684162 0.25304812
-0.4834989 -0.4101341 -0.12862335 -0.20714633 -0.30046964 -0.348404 -0.37338778 -0.3622896
0.24456291 0.39384905 -0.46128824 -0.019665774 -0.3799136 -0.4884876 -0.15670049 0.44658846
-0.3084886 0.41044268 -0.14044106 0.61741644 0.38269284 0.10863115 -0.12667209 -0.42731413
-0.25199243 -0.35508868 0.23020266 -0.34915167 0.28048646 0.2912175 0.3066956 -0.47676998
0.34820732 -0.14338306 -0.5055983 0.5484985 -0.3048423 -0.3922511 0.3752804 0.05745754
-0.104487136 0.34695858 -0.406952 0.20264645 -0.37958694 -0.2024349 -0.42338753 -0.2585246
-0.20681451 0.1326423 0.16334708 0.42795318 -0.5669925 0.089373186 0.32364485 0.2030653
0.4920476 -0.23854853 -0.035616573 0.22433197 0.15435334 0.19944826 0.34684163 0.28968745
0.21520594 0.5261043 0.22002017 -0.36181992 0.21048647 -0.29019073 0.10242529 0.069521695
-0.24844511 -0.5315963 0.193585 0.1296657 0.15526325 0.42160034 0.20594002 -0.17126665
-0.19979395 -0.21507233 -0.19130206 0.4226524 -0.271451 0.35226652 -0.28164408 0.2890654
0.305271 0.24325268 0.15146087 0.21712318 -0.342219 0.1227444 0.0062396624 0.23710519
0.11728261 0.123704076 0.27136526 0.1824921 0.35503966 0.35261813 -0.2042258 -0.18011574
-0.08376101 -0.18419053 -0.027417421 0.22158936 -0.274702 0.19996727 -0.208109 0.15833642
-0.27206427 0.126506 0.11941591 -0.023041997 -0.23630683 0.1852152 0.29705635 -0.14473087
0.21080953 -0.30985805 0.18913904 -0.23022166 -0.25693196 -0.19070922 -0.10873779 -0.07259795
0.54958475 0.15276131 -0.21385555 0.23031603 0.14441673 -0.35407925 -0.028077168 0.039918326
0.23601153 -0.35923702 0.010780169 -0.222997 0.7304041 0.24000117 0.12453946 0.30744442
-0.5311256 -0.029853737 0.32355252 0.41634667 0.0799292 0.2829874 -0.20435369 -0.048400775
0.093234554 0.2587266 0.31498995 0.014067095 -0.024004519 0.108425096 -0.077323936 0.56398636
-0.23553051 -0.32665056 0.32413438 -0.025042322 0.09916883 -0.07764547 0.040796243 0.2306954
00000000: 4cfc 963e 8eb7 103e f638 bfbe 385b bebe
00000010: b65b a3bd 97d6 86be 3dc6 edbd 2868 3cbe
00000020: 8502 a8be 1ad8 323e 4273 533e 2f2e a2be
00000030: e68f 1c3f af34 b53e 79d8 163e 8ff2 e0bd
00000040: b8aa ef3d 7ef1 e2bd cdc7 083f a91f 00bf
00000050: 4f03 d33d d2d6 923d b78e a53e c335 2f3e
00000060: 6967 15be 1c79 743e 201e 02bf b6fe 6abe
00000070: 2c17 71be 542f 2cbd 3101 2b3e ed85 ea3e
00000080: 1b6b 88be 1dd4 8fbe 00ec f53e 7ae6 59bd
00000090: 9b73 15bf bf24 dfbe fc57 223e 96f0 743e
000000a0: 259c ba3e c8ac b7be 3c14 d8bd bb30 09bf
000000b0: d2bf 98be 7700 d43e d68d f4be 2e0f ba3d
000000c0: 8402 773e c629 8c3d 6d7d b53e 720e d2be
000000d0: 2665 eebd 6f3e 6bbd 7487 a3be ad3c 893e
000000e0: bef0 933e 74b1 6e3e de31 823e 9fd1 8bbe
000000f0: 76f7 08bf d4fb 953e 0d3d 30be 86f9 50bc
00000100: 7cf9 09be dbbb d4bd 2d3b c83e 754b eebe
00000110: ebb7 d0be 414f c6bc 5430 b4bd c47c 903e
00000120: 4d20 9f3e b710 8a3e 42f5 163e 365a 073e
00000130: 449f a73e a344 093e 452b f63e 7c75 aebe
00000140: 9cd5 acbe cc9a a0be eb5a 0dbe 4a94 e63e
00000150: e892 ad3d ce7c a5be f2b3 b63e 868f 813e
00000160: 2b8d f7be 19fd d1be d7b5 03be 2b1e 54be
00000170: 28d7 99be 0262 b2be af2c bfbe 067e b9be
00000180: b36e 7a3e 95a6 c93e f92d ecbe 1e1a a1bc
00000190: 0984 c2be 0c1b fabe 1876 20be 3ea7 e43e
000001a0: 38f2 9dbe 8b25 d23e c8cf 0fbe 010f 1e3f
000001b0: 51f0 c33e 027a de3d 54b6 01be ebc8 dabe
000001c0: 2705 81be 2fce b5be 3fba 6b3e 02c4 b2be
000001d0: ec9b 8f3e 761a 953e 3507 9d3e 321b f4be
000001e0: 3b48 b23e 02d3 12be e46e 01bf 666a 0c3f
000001f0: 4a14 9cbe 23d5 c8be c124 c03e 9958 6b3d
00000200: 5afd d5bd 8ea4 b13e 035c d0be 8d82 4f3e
00000210: 3859 c2be 184b 4fbe 40c6 d8be 565d 84be
00000220: 2fc7 53be 62d3 073e 7544 273e ae1c db3e
00000230: 6c26 11bf 4a09 b73d c7b4 a53e 5af0 4f3e
00000240: aaed fb3e 1146 74be afe2 11bd 48b7 653e
00000250: cd0e 1e3e 2a3c 4c3e 3a95 b13e ea51 943e
00000260: f25e 5c3e c5ae 063f f84c 613e 7640 b9be
00000270: c489 573e e193 94be 5ac4 d13d 6461 8e3d
00000280: 6568 7ebe b216 08bf 253b 463e 16c7 043e
00000290: 54fd 1e3e 00dc d73e f1e1 523e 8660 2fbe
000002a0: c996 4cbe ec3b 5cbe b0e4 43be e565 d83e
000002b0: a0fb 8abe 475c b43e a733 90be 6100 943e
000002c0: 7b4c 9c3e 3b17 793e 8f18 1b3e 8a55 5e3e
000002d0: 5437 afbe 6a61 fb3d 1576 cc3b b4cb 723e
000002e0: dd31 f03d 9058 fd3d 63f0 8a3e 36df 3a3e
000002f0: c2c7 b53e 5d8a b43e 9120 51be 4370 38be
00000300: e48a abbd 719c 3cbe 809a e0bc 52e8 623e
00000310: bea5 8cbe 38c4 4c3e 871a 55be f122 223e
00000320: 024c 8bbe ca8a 013e 5490 f43d 92c2 bcbc
00000330: 6bfa 71be 0ea9 3d3e c517 983e 5434 14be
00000340: 74de 573e b7a5 9ebe aaad 413e 3abf 6bbe
00000350: 968c 83be 4749 43be ebb1 debd 3cae 94bd
00000360: 96b1 0c3f 766d 1c3e f3fc 5abe f7d7 6b3e
00000370: fbe1 133e e049 b5be 1702 e6bc 6681 233d
00000380: 02ad 713e eaed b7be 4e9f 303c 5359 64be
00000390: c3fb 3a3f dec2 753e 8b0e ff3d 5b69 9d3e
000003a0: d9f7 07bf d38f f4bc ada8 a53e 642b d53e
000003b0: ecb1 a33d b9e3 903e 1842 51be e43f 46bd
000003c0: c2f1 be3d d077 843e 5d46 a13e ac79 663c
000003d0: 20a5 c4bc fa0d de3d 035c 9ebd 6961 103f
000003e0: e92e 71be be3e a7be f1f4 a53e 8e25 cdbc
000003f0: 0719 cb3d 9704 9fbd f619 273d 6a3b 6c3e

fc.bias f4 [53]
-0.06329422 0.085283644 -0.16788557 -0.05321 -0.14062367 -0.029520342 0.0019814128 -0.06077209
-0.09903448 -0.068041496 -0.18706335 -0.024050534 -0.11441989 -0.14952725 -0.13742097 -0.025913326
-0.0020217043 -0.15685827 -0.09040412 -0.101844765 -0.1622035 0.016148392 -0.03683047 -0.09592759
-0.08778925 -0.049146503 -0.14903994 -0.15946397 -0.10803092 0.00015977508 0.16623795 -0.01425732
0.022314867 0.01914084 0.039230157 -0.19089209 0.012075001 -0.061112955 0.09751787 -0.1183957
0.064224094 -0.06174545 0.05702293 -0.11911874 -0.111193195 -0.12160982 0.070188805 0.042554
0.120112896 0.04173369 0.02512893 -0.064133205 -0.088930905
00000000: 66a0 81bd 31a9 ae3d 32ea 2bbe bbf2 59bd
00000010: a7ff 0fbe a5d4 f1bc 97da 013b 28ec 78bd
00000020: 97d2 cabd 5759 8bbd 898d 3fbe a005 c5bc
00000030: fa54 eabd ac1d 19be 15b8 0cbe 2f48 d4bc
00000040: 927e 04bb 749f 20be cc25 b9bd fd93 d0bd
00000050: ad18 26be a249 843c 8cdb 16bd af75 c4bd
00000060: daca b3bd d84d 49bd ed9d 18be 864a 23be
00000070: 513f ddbd 4c89 2739 483a 2a3e 8997 69bc
00000080: abcd b63c 40cd 9c3c cdaf 203d 3779 43be
00000090: 3ad6 453c 9451 7abd 73b7 c73d 7279 f2bd
000000a0: ec87 833d cce8 7cbd e090 693d 87f4 f3bd
000000b0: 42b9 e3bd 920e f9bd 26bf 8f3d 1a4d 2e3d
000000c0: c0fd f53d f2f0 2a3d 30db cd3c 4558 83bd
000000d0: 6821 b6bd
